model/cnn_lstm_global_with_HE_25rounds_16k.pt (torch, 197016 bytes, 7 tensors)

conv1.weight f4 [64, 78, 3]
0.049979445 0.05425931 -0.0153148705 0.060051497 -0.0143232485 0.01319147 -0.03182671 0.038391866
0.057628263 -0.04795877 0.05682113 0.012234986 0.048297446 0.008853373 0.031521622 -0.009229944
0.050394382 0.00966257 -0.030518278 0.016663224 -0.030119294 -0.007666366 -0.0265514 0.043365914
-0.05160274 -0.030137187 -0.018459413 -0.03930641 0.006170017 -0.064566605 0.059038084 -0.055531472
0.050469007 0.01087916 -0.021226598 0.04039665 0.010188283 0.052818216 0.007146451 -0.02061659
0.017564401 -0.017727554 0.027512318 0.058365606 0.037788935 -0.02857886 0.03773697 0.011696773
0.03319821 -0.03984459 -0.06471234 -0.025257176 -0.05014185 0.053640302 0.018829197 0.027077984
0.020674638 -0.0011372103 0.0511607 -0.046447724 0.004116067 -0.044619046 0.0201576 -0.022512974
0.020031057 -0.013619708 0.054219037 -0.038746133 -0.038987756 -0.03899011 0.058798414 0.021785306
0.06290429 -0.053949993 -0.064840965 -0.05114472 -0.04397506 0.026478302 0.02340815 0.054319225
-0.03375978 -0.04456489 0.034684975 -0.026423672 0.03967585 -0.015512827 0.03739581 -0.050791986
-0.032989986 0.019930396 0.0138201425 -0.016667174 0.03896628 0.044440515 -0.047406062 -0.034900054
0.05985869 -0.022058653 -0.02317546 -0.06325363 -0.037436623 0.016330175 -0.008628664 -0.04745265
0.0015334119 -0.044654433 -0.05546142 -0.035997942 -0.0572144 -0.041624866 0.06534647 0.012347142
0.020145029 -0.060971476 -0.042934645 -0.021759465 0.010222299 -0.057522252 -0.02816705 -0.039136186
0.00018116282 -0.024325147 -0.0045300056 -0.044298038 -0.044871055 -0.038138166 -0.022376683 -0.051596902
0.054812487 -0.012974 0.056245893 0.020368757 -0.05535685 0.045239754 -0.017986778 -0.025058808
-0.0542634 -0.06499031 0.018703638 -0.014280122 0.025450848 -0.053648446 0.04853411 -0.047986593
-0.01128801 0.013654239 0.033748433 0.052775525 0.059551265 -0.05183494 0.016452003 -0.028118212
-0.0071637826 -0.048930325 0.05954469 -0.047979843 0.034938168 0.022974323 0.021243034 -0.035343148
0.059420016 0.014365532 0.008409463 -0.057609424 0.027442431 -0.009807153 -0.02994852 0.056151092
0.014574618 -0.03616881 -0.033087336 -0.0031218887 0.036501218 -0.016704768 -0.037299644 -0.02238619
-0.048837807 0.023313792 0.050600592 -0.06154388 0.015182702 0.03377066 0.011853871 -0.023280594
0.03412042 0.03435387 0.024444386 -0.011487267 -0.017310599 0.006993561 -0.01154824 -0.019480938
0.04178626 0.056180704 -0.006471659 -0.014636595 0.0009539278 -0.0039032495 0.015716176 0.018319445
-0.0593746 -0.02412475 0.05505172 0.025466004 -0.0032514466 -0.03941318 -0.039994948 -0.05855811
-0.02130883 0.022076411 0.04168263 0.030182099 -0.057785228 -0.039312292 -0.010316797 0.063237615
0.009456555 -0.016929446 0.02704541 -0.024899004 -0.042312425 0.04771422 -0.029724784 -0.013104921
-0.065032385 0.04375159 0.049528122 0.023824722 -0.04558224 -0.06451828 -0.0530938 0.04874795
0.031385493 0.055010866 0.034246445 0.016545152 -0.00064016785 -0.049715832 -0.056008946 -0.061145652
0.026760828 -0.03209558 -0.013156292 -0.037621953 -0.011912326 -0.046011124 -0.042715117 0.021684613
-0.019428335 0.040356986 -0.020971924 -0.04795479 -0.011534173 -0.03168893 -0.020000026 -0.0622339
00000000: 3fb7 4c3d 033f 5e3d 39eb 7abc 8ff8 753d
00000010: 0fac 6abc 0921 583c b95c 02bd ca40 1d3d
00000020: 9d0b 6c3d 6a70 44bd 46bd 683d 4075 483c
00000030: 8bd3 453d bd0d 113c d11c 013d 3139 17bc
00000040: 576a 4e3d c24f 1e3c 7801 fabc 5081 883c
00000050: bdbc f6bc 2436 fbbb 5282 d9bc 75a0 313d
00000060: 655d 53bd 43e2 f6bc 3238 97bc c2ff 20bd
00000070: db2d ca3b 7f3b 84bd ebd1 713d f874 63bd
00000080: 97b8 4e3d 813e 323c 67e3 adbc f576 253d
00000090: c2ec 263c ea57 583d c72c ea3b 1fe4 a8bc
000000a0: 38e3 8f3c 6039 91bc 8361 e13c c610 6f3d
000000b0: 92c8 1a3d 371e eabc 1592 1a3d d2a3 3f3c
000000c0: d9fa 073d 1534 23bd e787 84bd 23e8 cebc
000000d0: 8a61 4dbd efb5 5b3d b03f 9a3c a6d2 dd3c
000000e0: dc5d a93c 720e 95ba e28d 513d f83f 3ebd
000000f0: 13e0 863b 76c2 36bd 8d21 a53c 216d b8bc
00000100: 2c18 a43c 3225 5fbc c814 5e3d 44b4 1ebd
00000110: a0b1 1fbd 18b4 1fbd 9bd6 703d 1977 b23c
00000120: f7d3 803d abfa 5cbd 57cb 84bd 207d 51bd
00000130: 311f 34bd 06e9 d83c 73c2 bf3c d67d 5e3d
00000140: b247 0abd ad89 36bd d511 0e3d 7576 d8bc
00000150: 2583 223d 8329 7ebc 592c 193d 420b 50bd
00000160: 8220 07bd 1245 a33c e16d 623c 9989 88bc
00000170: 1b9b 1f3d 4207 363d dc2c 42bd 5cf3 0ebd
00000180: 632e 753d 59b4 b4bc 76da bdbc 1f8b 81bd
00000190: 2557 19bd dcc6 853c 3d5f 0dbc b65d 42bd
000001a0: c4fc c83a 91e7 36bd 842b 63bd 9472 13bd
000001b0: a659 6abd d67e 2abd 5fd4 853d ab4b 4a3c
000001c0: 3007 a53c 3abd 79bd 3ddc 2fbd e840 b2bc
000001d0: 6e7b 273c 749c 6bbd 96be e6bc 444d 20bd
000001e0: 86f6 3d39 8845 c7bc 7170 94bb dc71 35bd
000001f0: b6ca 37bd c436 1cbd 4e4f b7bc 4657 53bd
00000200: 0f83 603d e690 54bc 1862 663d 61dc a63c
00000210: ddbd 62bd 524d 393d 0259 93bc 2148 cdbc
00000220: 4d43 5ebd a419 85bd 5f38 993c 2cf7 69bc
00000230: 4c7e d03c 79be 5bbd b4cb 463d 978d 44bd
00000240: 58f1 38bc 07b6 5f3c cc3b 0a3d 262b 583d
00000250: 07ec 733d e050 54bd 5ac6 863c 2a58 e6bc
00000260: 2abe eabb 2a6b 48bd 22e5 733d 8386 44bd
00000270: 531b 0f3d a634 bc3c df05 ae3c fac3 10bd
00000280: 6762 733d 695d 6b3c d8c7 093c dcf7 6bbd
00000290: f3ce e03c 2eae 20bc 9956 f5bc b0fe 653d
000002a0: 61ca 6e3c bf25 14bd 9686 07bd 9a98 4cbb
000002b0: 4d82 153d 70d8 88bc 83c7 18bd 3e63 b7bc
000002c0: 270a 48bd 91fc be3c 9142 4f3d 6f15 7cbd
000002d0: dec0 783c 1b53 0a3d bd36 423c f2b6 bebc
000002e0: dbc1 0b3d a5b6 0c3d 983f c83c 1735 3cbc
000002f0: f5ce 8dbc 3e2a e53b d434 3dbc 7d96 9fbc
00000300: 1228 2b3d bd1d 663d 3610 d4bb 54ce 6fbc
00000310: 0311 7a3a a9cd 7fbb 36bf 803c a912 963c
00000320: c832 73bd 45a1 c5bc ea7d 613d 159e d03c
00000330: 3916 55bb b76f 21bd bed1 23bd a1da 6fbd
00000340: db8f aebc 97d9 b43c 68bb 2a3d 7340 f73c
00000350: 34b0 6cbd ed05 21bd c807 29bc b982 813d
00000360: abef 1a3c 9faf 8abc 568e dd3c fff8 cbbc
00000370: cb4f 2dbd fc6f 433d 6481 f3bc 06b6 56bc
00000380: b32f 85bd de34 333d 00de 4a3d 102c c33c
00000390: 71b4 3abd 2922 84bd e278 59bd eeab 473d
000003a0: 138e 003d 1353 613d 0046 0c3d b389 873c
000003b0: f0d0 27ba d4a2 4bbd a369 65bd dd73 7abd
000003c0: 8639 db3c a876 03bd 7d8d 57bc 7a19 1abd
000003d0: eb2b 43bc 2976 3cbd 0cf6 2ebd eea3 b13c
000003e0: 2c28 9fbc 5e4d 253d 50cd abbc 3e6c 44bd
000003f0: d4f9 3cbc 40cc 01bd 18d7 a3bc f9e8 7ebd

conv1.bias f4 [64]
-0.011107625 -0.03359128 0.028025173 0.05652478 0.06473283 0.044198632 0.027007926 0.0007539528
-0.034906983 0.011288859 0.037587952 0.007468729 -0.007182852 -0.0054775197 -0.05823551 0.002348516
0.010348093 0.055788826 0.02370807 0.06177394 -0.0013568859 0.050238967 -0.039114345 0.018844346
0.06233905 0.016439792 -0.036509175 0.027219264 -0.062396254 0.028393725 -0.03602811 0.046026852
0.005948838 0.021104015 -0.029687347 -0.0060418467 -0.03406853 0.055644736 0.025779756 -0.034549356
-0.02451881 0.03116309 -0.039897684 0.012945088 -0.032225028 -0.0080397185 0.04495042 -0.009754192
0.036288906 -0.0431299 0.051210545 -0.061659656 -0.06226716 -0.064421795 -0.05653772 -0.005739371
-0.06242354 0.014739353 -0.034250014 0.010508145 -0.0044709663 0.024281662 -0.008661262 -0.052316826
00000000: c2fc 35bc 0397 09bd 0c95 e53c 8786 673d
00000010: a592 843d a009 353d ba3f dd3c eaa4 453a
00000020: a0fa 0ebd e8f4 383c d3f5 193d 3dbc f43b
00000030: 215e ebbb c47c b3bb 5c88 6ebd 8fe9 193b
00000040: 0c8b 293c d382 643d 6d37 c23c ac06 7d3d
00000050: 89d9 b1ba 60c7 4d3d 5d36 20bd 755f 9a3c
00000060: 3b57 7f3d beac 863c a58a 15bd effa de3c
00000070: 3793 7fbd f599 e83c 3692 13bd a786 3c3d
00000080: 78ee c23b 54e2 ac3c e132 f3bc affa c5bb
00000090: 718b 0bbd bceb 633d 1130 d33c a083 0dbd
000000a0: acdb c8bc bd49 ff3c c16b 23bd a217 543c
000000b0: 64fe 03bd 06b9 03bc ee1d 383d 0cd0 1fbc
000000c0: ada3 143d faa8 30bd 26c2 513d d68e 7cbd
000000d0: d90b 7fbd 93ef 83bd 1994 67bd 5511 bcbb
000000e0: d3af 7fbd 547d 713c be49 0cbd 5b2a 2c3c
000000f0: 2f81 92bb 56ea c63c f7e7 0dbc 2b4a 56bd

lstm.weight_ih_l0 f4 [256, 64]
0.08268982 0.1715478 0.0010256461 0.20838943 0.12270751 -0.045959372 0.045337074 0.0005264678
0.09132156 0.039792687 0.073563546 0.08946748 0.26063168 0.059266407 0.16277334 0.33215415
0.21763138 0.0141557725 0.091961645 0.2021132 0.026184587 0.08613571 0.07602624 0.32615793
0.28204829 -0.043814503 -0.03338651 0.07376013 -0.08827087 0.02078052 0.04154621 0.070999116
0.31857044 0.019831942 0.21264593 0.094349615 0.06950952 0.26439843 0.11564867 0.16137765
0.04950632 0.2172907 0.24633665 0.17439474 -0.096657164 0.36096594 0.14197217 0.17949508
0.21003276 -0.08068716 0.29589096 0.1665184 0.0800319 0.031626318 0.17259535 0.04225302
0.1691007 0.21843532 0.0143454 0.22395507 -0.083300985 0.104332425 0.25413892 -0.0044045025
-0.06668098 -0.32228982 -0.1778723 0.29420763 0.20189632 0.055491313 0.060101606 0.022379177
0.0693485 0.50476974 0.04940689 0.18486886 -0.008518413 0.20525505 -0.030101225 0.23863547
0.11618772 0.04719018 0.021127041 0.039699692 -0.14431208 0.16605496 -0.06748255 0.30381072
-0.26795587 0.15467581 0.48775244 0.205115 0.20359527 -0.13795976 -0.10876829 -0.04089201
-0.1489912 0.1893763 0.017212577 -0.10193949 0.13816914 0.04790081 0.24884689 0.05453843
0.044064716 0.56029546 -0.06061738 0.14259489 -0.26797172 0.1269107 -0.3325735 -0.21458645
0.08749297 0.0338976 0.13527961 0.08596325 0.10674551 -0.05775133 0.031102562 0.25403085
0.05536494 -0.13222134 0.31366852 -0.07664845 0.06804132 -0.20015496 0.38916156 -0.1737776
0.092635125 0.09711918 0.34568682 0.026616197 0.15799017 0.09484406 -0.018174259 -0.18814987
0.07229563 0.022482315 0.17613661 0.045528356 0.025629288 0.21536185 0.12719642 -0.023183107
0.07137245 0.11356373 -0.0038061063 0.08670877 -0.047906928 -0.12257584 0.14229512 -0.08841449
0.19157286 0.18234658 -0.018926162 -0.026457893 0.07275999 -0.00043228563 0.34052643 0.39776668
-0.05294551 -0.15387116 -0.036990784 -0.015719792 0.051250678 -0.06715682 0.034782905 -0.078146644
0.22337797 0.07141733 0.034776147 0.23591118 -0.14051816 0.12003853 0.19772281 0.220693
0.10436096 -0.009839773 -0.05208628 -0.04382161 -0.06639539 0.2741679 0.08456823 -0.04916767
0.21978387 -0.033577256 0.28047886 -0.068702884 0.024323687 -0.12264493 0.2715358 0.013961423
-0.04701977 0.19595274 0.041001324 -0.0275576 0.036516685 0.024659224 -0.010809518 0.021489872
0.105747014 -0.015503497 0.20323488 0.058326893 0.016991664 0.05215945 0.11962949 0.09813095
-0.106526725 -0.075467624 0.07502407 0.11076231 -0.010058953 -0.21443237 -0.044480942 0.11104688
0.05981227 0.04020213 -0.020866398 0.09015281 -0.08854323 -0.035270404 0.0138082495 0.26192027
0.02855818 0.117260434 0.092531696 -0.08826304 0.013686414 0.09733489 -0.16245885 -0.043725286
0.05983609 0.122131504 -0.052108686 0.13778126 -0.13596466 0.118556805 -0.05876324 0.18078923
-0.009220843 0.019566614 -0.028878216 0.07525344 -0.07531803 -0.06220671 -0.06644894 -0.08068785
-0.1348827 0.05860772 -0.029458387 0.15203607 0.0580596 0.075063966 0.09553199 0.1491477
00000000: 4859 a93d 3aaa 2f3e f96e 863a 0a64 553e
00000010: 134e fb3d e53f 3cbd 5eb3 393d a802 0a3a
00000020: cc06 bb3d a8fd 223d 7ca8 963d ba3a b73d
00000030: 8471 853e 55c1 723d 0eae 263e 1c10 aa3e
00000040: c3da 5e3e 9ded 673c 6356 bc3d c3f6 4e3e
00000050: 0f81 d63c eb67 b03d a5b3 9b3d 2cfe a63e
00000060: a268 903e d676 33bd 4bc0 08bd 8d0f 973d
00000070: 5cc7 b4bd e93b aa3c 5c2c 2a3d fc67 913d
00000080: aa1b a33e 9976 a23c dbbf 593e 5f3a c13d
00000090: 025b 8e3d 3b5f 873e 36d9 ec3d 2f40 253e
000000a0: 24c7 4a3d 7481 5e3e ad3f 7c3e 8994 323e
000000b0: 31f4 c5bd 87d0 b83e 2761 113e 8fcd 373e
000000c0: d412 573e 4f3f a5bd 057f 973e cd83 2a3e
000000d0: c4e7 a33d 998a 013d d6bc 303e 8111 2d3d
000000e0: bc28 2d3e 82ad 5f3e f808 6b3c 7a54 653e
000000f0: b599 aabd 3dac d53d 7f1e 823e a553 90bb
00000100: 0a90 88bd 2c03 a5be 2824 36be 62a2 963e
00000110: e9bd 4e3e dc4a 633d 1a2d 763d 8954 b73c
00000120: 9606 8e3d 9738 013f e15e 4a3d 434e 3d3e
00000130: d090 0bbc 612e 523e d896 f6bc db5c 743e
00000140: d4f3 ed3d 7d4a 413d 9e12 ad3c 259c 223d
00000150: 8cc6 13be 500a 2a3e 4b34 8abd 148d 9b3e
00000160: 8331 89be 5663 1e3e b0ba f93e ab09 523e
00000170: 477b 503e 5345 0dbe e9c1 debd 617e 27bd
00000180: 2691 18be dceb 413e 6401 8d3c a7c5 d0bd
00000190: 367c 0d3e a433 443d b8d1 7e3e b063 5f3d
000001a0: 347d 343d 866f 0f3f ee49 78bd 6504 123e
000001b0: 9733 89be e1f4 013e 1347 aabe 8dbc 5bbe
000001c0: 842f b33d 36d8 0a3d bd86 0a3e 800d b03d
000001d0: 649d da3d a98c 6cbd cdca fe3c 5510 823e
000001e0: 59c6 623d 0865 07be 2999 a03e ddf9 9cbd
000001f0: 3f59 8b3d 6cf5 4cbe 2f40 c73e c1f2 31be
00000200: 7cb7 bd3d 6ce6 c63d ddfd b03e 360a da3c
00000210: 2dc8 213e 9a3d c23d 2fe2 94bc 5caa 40be
00000220: bb0f 943d d52c b83c 285d 343e f17b 3a3d
00000230: 83f4 d13c d187 5c3e c73f 023e 80ea bdbc
00000240: b82b 923d 1a94 e83d de6f 79bb 5e94 b13d
00000250: 0e3a 44bd 0b09 fbbd d0b5 113e a812 b5bd
00000260: ad2b 443e 10b9 3a3e 0a0b 9bbc 39be d8bc
00000270: 3103 953d 65a4 e2b9 7b59 ae3e 13a8 cb3e
00000280: 64dd 58bd 6790 1dbe a683 17bd cbc6 80bc
00000290: 3bec 513d 8489 89bd 8578 0e3d 590b a0bd
000002a0: 32bd 643e 4043 923d 6f71 0e3d b392 713e
000002b0: fee3 0fbe c3d6 f53d d977 4a3e 59fd 613e
000002c0: 33bb d53d 0037 21bc 6c58 55bd 4a7e 33bd
000002d0: 4efa 87bd bc5f 8c3e 1c32 ad3d 0a64 49bd
000002e0: 060f 613e 4e88 09bd ed9a 8f3e 19b4 8cbd
000002f0: 7842 c73c 442d fbbd be06 8b3e 74be 643c
00000300: cd97 40bd d6a7 483e 01f1 273d 7ac0 e1bc
00000310: 8592 153d 2402 ca3c 681a 31bc 870b b03c
00000320: e491 d83d 6102 7ebc ce1c 503e 2ee8 6e3d
00000330: 1a32 8b3c 26a5 553d 4e00 f53d e1f8 c83d
00000340: af2a dabd c58e 9abd 38a6 993d 5ad7 e23d
00000350: 4fce 24bc 2994 5bbe a631 36bd 8c6c e33d
00000360: b6fd 743d fdaa 243d 02f0 aabc 09a2 b83d
00000370: 2756 b5bd b377 10bd ff3b 623c 6a1a 863e
00000380: d8f2 e93c 3d26 f03d 4281 bd3d 41c3 b4bd
00000390: fb3c 603c 8457 c73d 9d5b 26be 4919 33bd
000003a0: b016 753d 1520 fa3d eb6f 55bd 8816 0d3e
000003b0: 523a 0bbe e9cd f23d b9b1 70bd d020 393e
000003c0: 0513 17bc 2a4a a03c 0292 ecbc 7a1e 9a3d
000003d0: 5740 9abd 77cc 7ebd 6216 88bd ac3f a5bd
000003e0: b11e 0abe a60e 703d b752 f1bc 58af 1b3e
000003f0: e7cf 6d3d 23bb 993d 47a6 c33d 2dba 183e

lstm.weight_hh_l0 f4 [256, 64]
-0.092371464 -0.07712519 0.21331473 0.31299037 -0.0790592 -0.21854687 0.15549932 -0.20295686
0.19459808 -0.31768617 0.09804395 0.35608965 0.3453952 0.017650774 0.5248641 -0.17772569
0.18351915 0.14554335 0.22189194 -0.23910023 0.13226287 -0.28486872 -0.22358161 0.06982889
-0.21248949 -0.28992477 -0.19600469 -0.23015536 0.39591587 -0.29272264 -0.21719886 -0.038353417
0.009212092 0.25095895 0.029556666 0.0771954 -0.051974285 -0.3343634 -0.09292718 0.11101913
-0.04753068 -0.109525956 -0.28558838 -0.20640598 0.1398165 -0.2996973 0.29567522 -0.3830075
-0.050210714 -0.18649 0.030946147 -0.24269572 -0.19998105 0.030410778 0.25706828 0.30923972
0.16483073 -0.08111067 0.16456528 -0.32217523 0.051707417 0.025272103 0.18151382 0.35995767
0.10646975 0.08586329 0.03455736 0.15097487 -0.048127983 -0.24394388 0.23338148 -0.019666892
0.22430769 -0.018909967 0.008633901 -0.13416292 0.31951573 0.067226544 0.28420636 -0.22535682
0.020550078 0.106154665 0.14026643 -0.10787993 0.16728406 -0.22956158 -0.11923349 -0.05722479
-0.14321841 -0.08537447 0.008917626 -0.29750034 0.33031 -0.24821505 -0.19112925 -0.04196778
-0.046242196 0.20430921 0.15541394 -0.0748682 0.056183048 -0.2679993 -0.20045787 0.15162493
0.23118229 -0.116663836 -0.17854133 -0.10333096 -0.07566043 -0.28169748 -0.050177805 -0.1625593
0.03957762 -0.20132272 0.061814733 -0.34062016 -0.359567 0.11649414 0.15358077 0.15500474
0.15157819 -0.058877926 0.14754738 -0.133786 -0.18271266 0.33186084 0.020525118 -0.2127441
-0.028819479 0.107439995 0.11590737 0.2658639 -0.07127621 -0.27689943 -0.09565932 -0.24088202
0.109440885 0.015098778 -0.039905872 0.2283146 0.21035893 -0.009803213 0.19292179 -0.03034337
0.12063289 0.24323967 0.26517805 -0.16333184 0.0516721 -0.2942808 0.00860711 -0.092775494
0.097525634 -0.18307976 0.00066210073 -0.121833086 0.16409181 -0.25322756 -0.10648252 0.022105208
-0.037097584 0.16036439 -0.13749221 -0.035172712 -0.046440054 -0.23689725 0.074961476 0.008225047
0.12528145 0.19276655 -0.12831785 -0.138834 0.08439002 -0.1655479 0.21728083 -0.27094606
0.00756343 -0.18830681 0.16227017 -0.27176464 -0.17293163 0.023303926 0.108663104 0.13582675
0.00674829 -0.18829589 0.13273996 -0.17005333 -0.011351508 -0.025362331 -0.06703572 0.23555422
-0.096921735 0.15134887 -0.06526711 -0.027434295 -0.12772414 -0.09644664 -0.03357957 -0.1635761
0.1351407 -0.19679831 -0.208608 0.024074623 0.062837705 0.058677707 0.2084272 -0.1546988
0.1742095 0.15960255 0.032301236 -0.050346494 0.17333694 0.09879661 -0.023553226 -0.042189043
0.069752045 -0.16866569 -0.04353797 -0.055903584 0.20710628 -0.05681897 -0.040458903 0.16513436
0.156154 -0.023931582 0.02304448 -0.16096954 -0.035274774 -0.15511943 0.024044745 0.14048626
-0.03832122 0.078940764 0.002216152 -0.040837582 -0.14956743 -0.00043228315 0.21642552 -0.07497515
0.11689984 0.02561272 0.10015339 -0.07989128 -0.08960717 -0.099050745 0.12311871 0.20446429
0.0644534 0.061585147 0.104484245 0.030829344 -0.064433545 -0.09146176 0.0314095 8.2393875e-05
00000000: 402d bdbd d0f3 9dbd 2d6f 5a3e 4640 a03e
00000010: cae9 a1bd c0ca 5fbe 373b 1f3e ecd3 4fbe
00000020: b844 473e c3a7 a2be 44cb c83d 6251 b63e
00000030: a4d7 b03e 5b98 903c 7e5d 063f b9fd 35be
00000040: 72ec 3b3e 5109 153e a437 633e b1d6 74be
00000050: eb6f 073e 50da 91be 94f2 64be 7302 8f3d
00000060: d896 59be 0571 94be 74b5 48be d9ad 6bbe
00000070: 7cb5 ca3e bedf 95be 6169 5ebe 7918 1dbd
00000080: 50ee 163c b17d 803e d220 f23c 9f18 9e3d
00000090: fde2 54bd ae31 abbe 9b50 bebd ff5d e33d
000000a0: 88af 42bd 254f e0bd a438 92be 175c 53be
000000b0: 0e2c 0f3e ed71 99be be62 973e 8f19 c4be
000000c0: c0a9 4dbd 3cf7 3ebe c682 fd3c 3a85 78be
000000d0: d5c7 4cbe 0620 f93c 749e 833e ab54 9e3e
000000e0: 63c9 283e 5a1d a6bd cd83 283e 27f4 a4be
000000f0: 28cb 533d 7107 cf3c c2de 393e 5f4c b83e
00000100: d00c da3d 18d9 af3d 058c 0d3d 2899 1a3e
00000110: d921 45bd 6dcc 79be 8efb 6e3e 761c a1bc
00000120: eab0 653e 13e9 9abc 3575 0d3c 0162 09be
00000130: 9197 a33e 12ae 893d 7f83 913e f0c3 66be
00000140: a358 a83c 9e67 d93d 01a2 0f3e 27f0 dcbd
00000150: 834c 2b3e 3112 6bbe b030 f4bd 8b64 6abd
00000160: d9a7 12be cfd8 aebd 3c1b 123c f751 98be
00000170: 641e a93e 162c 7ebe 63b7 43be 68e6 2bbd
00000180: 7568 3dbd 6f36 513e d524 1f3e 8054 99bd
00000190: 3220 663d 3437 89be d444 4dbe 9143 1b3e
000001a0: 0dbb 6c3e 73ed eebd 8ad3 36be 2f9f d3bd
000001b0: dbf3 9abd a73a 90be 3e87 4dbd f275 26be
000001c0: 241c 223d 8b27 4ebe 7231 7d3d c465 aebe
000001d0: 2a19 b8be 7b94 ee3d 4744 1d3e 90b9 1e3e
000001e0: 5037 1b3e fb29 71bd a916 173e 32ff 08be
000001f0: 0719 3bbe aae9 a93e 4b24 a83c 97d9 59be
00000200: d416 ecbc 8009 dc3d d860 ed3d 501f 883e
00000210: 43f9 91bd c3c5 8dbe 09e9 c3bd c7a9 76be
00000220: 8b22 e03d dd60 773c 5774 23bd 4dcb 693e
00000230: 5568 573e a89d 20bc 4a8d 453e a992 f8bc
00000240: 600e f73d d213 793e 6bc5 873e 7640 27be
00000250: 20a6 533d f9ab 96be d604 0d3c 1401 bebd
00000260: 85bb c73d 4379 3bbe d490 2d3a a083 f9bd
00000270: af07 283e 0ba7 81be 8213 dabd fb15 b53c
00000280: a3f3 17bd 9036 243e c2ca 0cbe 4311 10bd
00000290: ed37 3ebd 3195 72be 6785 993d 59c2 063c
000002a0: c849 003e 9864 453e c165 03be 802a 0ebe
000002b0: add4 ac3d 6485 29be de7e 5e3e 71b9 8abe
000002c0: a6d6 f73b 80d3 40be 272a 263e bc24 8bbe
000002d0: fd14 31be e0e7 be3c c38a de3d 2b16 0b3e
000002e0: c220 dd3b a3d0 40be fcec 073e 7622 2ebe
000002f0: adfb 39bc aac4 cfbc 064a 89bd 2035 713e
00000300: e77e c6bd 33fb 1a3e c3aa 85bd e3bd e0bc
00000310: 1eca 02be d185 c5bd bb8a 09bd 7e80 27be
00000320: 5362 0a3e 7f85 49be 569d 55be 2538 c53c
00000330: 0eb1 803d 0958 703d f16d 553e 5d69 1ebe
00000340: fa63 323e da6e 233e 4d4e 043d 2038 4ebd
00000350: 3d7f 313e e155 ca3d b2f2 c0bc 6bce 2cbd
00000360: 29da 8e3d b3b6 2cbe df54 32bd 28fb 64bd
00000370: ab13 543e 02bb 68bd 3cb8 25bd fb18 293e
00000380: d6e6 1f3e 2a0c c4bc c7c7 bc3c 33d5 24be
00000390: 487c 10bd a1d7 1ebe 7cf9 c43c a1db 0f3e
000003a0: b6f6 1cbd b2ab a13d dc3c 113b 4f45 27bd
000003b0: 3428 19be 10a4 e2b9 a79e 5d3e 928c 99bd
000003c0: 2f69 ef3d c4d1 d13c 381d cd3d 0a9e a3bd
000003d0: f783 b7bd 1edb cabd aa25 fc3d 165f 513e
000003e0: 2500 843d b540 7c3d d6fb d53d d28d fc3c
000003f0: bcf5 83bd 4e50 bbbd 3fa7 003d e0ca ac38

lstm.bias_ih_l0 f4 [256]
0.028661221 0.116213724 0.1166918 0.019200519 0.030585796 0.097125396 0.08980031 0.11413427
-0.07198104 -0.056530237 0.069584474 0.09868546 0.040100753 -0.034202844 0.083556324 -0.05722055
-0.04949692 -0.085159615 0.039876357 -0.088408604 -0.0023261756 -0.08474225 -0.058689 -0.06631677
-0.012607843 -0.016543388 0.033921883 -0.08185284 -0.08133125 0.05374463 -0.06357595 -0.015918896
0.0315153 0.032570437 -0.032280207 -0.011014283 -0.04650724 -0.12018527 0.09400126 -0.022134572
-0.07460903 -0.05995749 0.12317926 0.09672496 0.110273734 -0.12255572 -0.05031094 -0.1093936
0.010154024 0.025868714 -0.0725089 -0.010958225 -0.078925714 0.12335916 0.08186492 -0.038047493
0.0482471 0.10126613 -0.116259485 0.11883481 -0.11084452 -0.013957009 0.10627037 -0.0056913346
0.06603156 -0.06493813 0.0869271 -0.043771654 -0.059651777 0.008806884 -0.012899086 -0.039265946
-0.06642032 0.10034679 -0.040401936 -0.034807593 -0.10037181 0.10979994 -0.119687155 0.09669827
-0.034790218 -0.08016011 -0.035341427 -0.095993966 -0.023331538 0.0921094 0.024930447 0.111332744
0.014808774 0.11940867 -0.04459341 -0.11053637 0.06775451 -0.029732317 0.077952996 0.0926213
0.037106425 -0.035564795 0.095090166 0.010024622 0.07471442 -0.08365552 0.007582709 0.0025933385
-0.06736496 -0.06869064 0.035244316 0.11043328 0.08467229 0.11231327 0.0974592 -0.05029218
0.06810935 -0.11066663 -0.040291384 -0.06835948 -0.07372707 -0.11973938 0.07787797 -0.06888549
-0.10546987 -0.04376617 0.10450685 -0.024225414 0.023810685 0.06961684 0.012356654 -0.08348818
0.12227462 0.034346983 0.11226164 0.065549314 -0.041739687 0.051270857 0.03182374 -0.012700066
0.11952779 -0.0117743015 -0.033644542 0.03810519 -0.010925084 0.123402715 0.12255517 0.058706388
0.10210712 0.009582087 0.12285496 0.09818016 0.1042662 0.039945975 -0.08268686 0.048048317
0.035189807 0.08941345 -0.08383736 -0.09593572 0.07417381 -0.013105676 0.048777297 -0.019600168
0.056559756 -0.06310701 -0.07801245 -0.067870155 -0.014621809 -0.11341973 -0.119309425 0.06316772
-0.07263367 -0.09287502 -0.095528394 0.038144276 -0.10280897 -0.10576862 0.052735746 -0.11409488
-0.11283429 -0.020023987 -0.020546243 -0.052709386 0.013116151 -0.034830034 0.0765014 -0.063907266
0.04727818 -0.028364584 0.05842316 -0.06858264 -0.07053271 -0.017885387 0.06340529 0.041671738
-0.0012073368 0.051679417 0.049541607 -0.00823243 -0.059759125 -0.04511936 -0.09035045 -0.122291625
0.116064176 -0.08480941 -0.03822151 0.106960386 -0.100708455 -0.054970413 -0.05588807 -0.07376069
-0.024702549 -0.017428666 0.073402405 0.005964443 0.063334614 0.009688124 0.0016116947 0.10562654
-0.03498645 -0.12285565 -0.12010828 -0.10623123 -0.0055847764 0.04516986 0.048163816 -0.02478309
0.103375316 -0.09555267 0.050704166 0.08515774 -0.049468517 -0.0035571754 -0.08800693 -0.08600192
0.06631191 -0.006171465 -0.0048709363 0.004553899 0.06746794 -0.015027776 -0.04461783 -0.11532776
0.10653339 -0.044862956 0.07582991 0.09176968 -0.07122481 -0.068875864 0.12073928 0.058433637
-0.081206754 -0.016744688 -0.023162723 -0.12412967 -0.10620946 0.019991666 -0.036413193 0.0035237968
00000000: f0ca ea3c 7601 ee3d 1cfc ee3d 684a 9d3c
00000010: 108f fa3c aee9 c63d 3ae9 b73d 3abf e93d
00000020: cc6a 93bd 408c 67bd 4e82 8e3d 9a1b ca3d
00000030: b040 243d 4818 0cbd 941f ab3d 1860 6abd
00000040: 48bd 4abd 2a68 aebd 6455 233d 920f b5bd
00000050: c072 18bb 588d adbd e063 70bd 16d1 87bd
00000060: 2091 4ebc 0086 87bc acf1 0a3d 76a2 a7bd
00000070: 0091 a6bd 5423 5c3d 1c34 82bd 5868 82bc
00000080: 3016 013d 9468 053d 4038 04bd 4075 34bc
00000090: 607e 3ebd b223 f6bd bc83 c03d 9053 b5bc
000000a0: 9ecc 98bd fc95 75bd 6845 fc3d bc17 c63d
000000b0: 32d7 e13d 7efe fabd d812 4ebd c009 e0bd
000000c0: 105d 263c a0ea d33c 8c7f 94bd 208a 33bc
000000d0: cea3 a1bd baa3 fc3d cca8 a73d b0d7 1bbd
000000e0: c09e 453d 9e64 cf3d 7419 eebd aa5f f33d
000000f0: 7402 e3bd f0ab 64bc 48a4 d93d 607e babb
00000100: 8e3b 873d 48fe 84bd d606 b23d e849 33bd
00000110: 6c55 74bd c04a 103c b056 53bc 54d5 20bd
00000120: 6007 88bd 9e82 cd3d 807c 25bd 6892 0ebd
00000130: bc8f cdbd cade e03d 8a1e f5bd be09 c63d
00000140: 3080 0ebd fc2a a4bd 2cc2 10bd 7c98 c4bd
00000150: c821 bfbc daa3 bc3d f03a cc3c 6c02 e43d
00000160: 80a0 723c 888c f43d 94a7 36bd e460 e2bd
00000170: e0c2 8a3d 3091 f3bc d2a5 9f3d 3cb0 bd3d
00000180: e8fc 173d 64ac 11bd a2be c23d 503e 243c
00000190: e003 993d 9653 abbd 6078 f83b 00f5 293b
000001a0: a4f6 89bd aead 8cbd 585c 103d d82a e23d
000001b0: aa68 ad3d 8004 e63d b098 c73d 2cff 4dbd
000001c0: ea7c 8b3d 30a5 e2bd 9408 25bd 0e00 8cbd
000001d0: 38fe 96bd ec39 f5bd 7c7e 9f3d d613 8dbd
000001e0: 9600 d8bd 2844 33bd b007 d63d 6074 c6bc
000001f0: a00e c33c 4693 8e3d 9073 4a3c dafb aabd
00000200: 1e6b fa3d 6caf 0c3d 6ee9 e53d b83e 863d
00000210: 3cf7 2abd 6401 523d 9c59 023d f013 50bc
00000220: fcca f43d 00e9 40bc dcce 09bd 3014 1c3d
00000230: 20ff 32bc 90ba fc3d 34fe fa3d 1c76 703d
00000240: 8a1d d13d 30fe 1c3c 629b fb3d ae12 c93d
00000250: 8489 d53d 649e 233d ba57 a9bd 50ce 443d
00000260: 3023 103d 661e b73d ecb2 abbd f279 c4bd
00000270: 70e8 973d 30b9 56bc b4ca 473d 8890 a0bc
00000280: 34ab 673d 403e 81bd fec4 9fbd 82ff 8abd
00000290: 5090 6fbc 9a48 e8bd 8058 f4bd 145e 813d
000002a0: f6c0 94bd 4235 bebd 64a4 c3bd 2c3d 1c3d
000002b0: 828d d2bd 389d d8bd 7001 583d 94aa e9bd
000002c0: aa15 e7bd 5809 a4bc 9850 a8bc cce5 57bd
000002d0: 20e5 563c f0a9 0ebd c4ac 9c3d d0e1 82bd
000002e0: c4a6 413d d85c e8bc 204d 6f3d 0e75 8cbd
000002f0: 7473 90bd 6084 92bc a2da 813d fcaf 2a3d
00000300: 803f 9eba ccad 533d 24ec 4a3d 50e1 06bc
00000310: fcc5 74bd 14cf 38bd a809 b9bd 0874 fabd
00000320: 0eb3 ed3d 8eb0 adbd 288e 1cbd 0c0e db3d
00000330: 3c40 cebd a828 61bd e4ea 64bd d80f 97bd
00000340: 005d cabc 90c6 8ebc 0054 963d 6071 c33b
00000350: 94b5 813d f0ba 1e3c 803f d33a ba52 d83d
00000360: f44d 0fbd be9b fbbd 54fb f5bd c28f d9bd
00000370: 8000 b7bb 0804 393d 6c47 453d e805 cbbc
00000380: 70b6 d33d 1eb1 c3bd 2caf 4f3d 2e67 ae3d
00000390: 809f 4abd 801f 69bb fa3c b4bd c621 b0bd
000003a0: 8ace 873d 003a cabb 609c 9fbb e038 953b
000003b0: a22c 8a3d 1037 76bc 30c1 36bd f630 ecbd
000003c0: 2e2e da3d 38c2 37bd b64c 9b3d bef1 bb3d
000003d0: 50de 91bd ca0e 8dbd 2846 f73d 1c58 6f3d
000003e0: ba4f a6bd 282c 89bc c0bf bdbc b237 febd
000003f0: 5884 d9bd 90c5 a33c 0026 15bd 80ef 663b

lstm.bias_hh_l0 f4 [256]
-0.08803576 -0.04619807 0.07444863 0.007277623 0.05697097 0.122580156 0.03882602 0.024114296
0.0847453 0.089580655 0.08889626 0.013022453 -0.07303615 0.0518914 -0.07665527 -0.09752236
-0.060060486 0.03895475 -0.060205683 0.049508393 -0.0057703704 -0.06321141 -0.078986615 -0.057600245
-0.10954961 0.022293642 0.070091724 0.09528148 0.102407664 -0.10786137 -0.092724666 0.11361842
-0.038278386 -0.041512474 -0.04410106 0.07053827 -0.100434616 -0.07186715 0.044287264 -0.032634944
-0.069266856 0.0034976304 0.108329594 0.08877306 -0.035381973 0.07176067 0.025065333 0.023011923
0.11774236 -0.098597854 -0.06424475 -0.027328223 -0.017383471 -0.028493434 0.08038345 -0.04821767
-0.08704913 -0.082098246 0.12261419 -0.1116709 0.04405412 0.037435353 -0.013909161 0.12035999
0.0048100054 0.11136243 -0.11104475 0.09438048 0.123052254 0.043538883 0.10337797 -0.062244132
-0.03930354 0.113895565 0.059030756 -0.11222881 0.040291443 0.040019497 0.06603755 -0.028114423
-0.06137772 0.10065323 0.11874847 -0.05764568 -0.041543454 0.09201339 -0.087751895 0.06301083
0.09853944 -0.010387406 -0.059859872 0.047198877 0.044606373 0.085061505 0.118575886 0.08799501
0.05945152 -0.0968889 0.066851765 0.10874918 -0.119355395 0.118718475 -0.09209323 -0.05631715
0.05926466 0.0895071 -0.063097075 0.06616174 -0.11501962 -0.024573728 -0.050343484 0.060271487
0.10334839 -0.092354685 0.031023815 -0.11211032 -0.07432267 -0.099142835 0.06960772 -0.10177685
0.10355191 -0.09211877 0.022806108 -0.12112218 0.09721413 0.08012858 -0.10636425 0.031928048
-0.115573525 0.10849434 0.040797964 -0.006725624 0.0071822703 0.06510079 0.004926607 -0.04564181
-0.091390416 0.12288804 -0.11198963 0.0008048415 0.103562385 -0.102780595 0.022773698 0.0038391054
0.088914305 -0.11714649 -0.03867857 -0.092093095 0.09376247 -0.006411642 -0.037155494 0.007015392
-0.015877888 -0.043242663 0.10241182 0.04154463 0.0534015 -0.12136446 0.059929013 0.05622992
0.11234422 0.10873407 -0.068495944 -0.014722079 -0.045604393 -0.11176708 -0.09319198 0.06570938
0.11970626 -0.009027645 -0.11174674 -0.06914514 -0.08862564 -0.06394605 0.08116843 0.0020769835
0.03768009 -0.042149276 -0.006534502 -0.097613275 0.11490716 0.0549933 0.07820879 0.11345202
0.0782775 0.046174154 -0.012724489 0.0032888055 -0.09447512 0.028042689 0.06489152 -0.12251322
-0.08007243 0.056408465 -0.061928496 0.091936484 0.008333817 -0.0423391 -0.07920997 -0.06507711
0.032167763 -0.11846283 0.0018072426 0.07798198 -0.057880238 -0.06753507 -0.11641911 -0.054677814
-0.091186866 -0.01530762 0.062900275 0.10105015 -0.011475682 -0.10530569 0.0049304664 -0.07981996
0.116341054 0.10343349 0.015597418 -0.07901506 0.06328796 -0.07881974 0.0420101 -0.068529546
-0.020530552 -0.039785236 -0.025345832 0.122015774 -0.008823454 0.00663507 0.097782984 -0.011413306
-0.11558296 0.1168945 -0.08373843 -0.0039357096 0.081009716 0.045020267 -0.081662536 -0.1024842
0.01560314 0.037309945 0.062326252 0.02032508 0.09883486 0.10198784 -0.11708522 0.11461213
-0.119905084 -0.06988643 -0.095037684 -0.113255486 -0.022774175 0.03060627 -0.063644275 0.023210019
00000000: 184c b4bd 303a 3dbd 8678 983d 2079 ee3b
00000010: 645a 693d 4e0b fb3d 0808 1f3d 588b c53c
00000020: f28e ad3d 1076 b73d 3e0f b63d 205c 553c
00000030: fa93 95bd 148c 543d 70fd 9cbd ceb9 c7bd
00000040: fc01 76bd 048f 1f3d 3c9a 76bd 50c9 4a3d
00000050: 6015 bdbb fc74 81bd bcc3 a1bd 3cee 6bbd
00000060: 8c5b e0bd 28a1 b63c 408c 8f3d f022 c33d
00000070: 1cbb d13d 6ce6 dcbd 6ee6 bdbd c6b0 e83d
00000080: ccc9 1cbd fc08 2abd 50a3 34bd 5e76 903d
00000090: aab0 cdbd 162f 93bd 9066 353d 38ac 05bd
000000a0: c8db 8dbd 8038 653b e8db dd3d a6ce b53d
000000b0: b0ec 10bd 42f7 923d d055 cd3c 8083 bc3c
000000c0: e822 f13d aced c9bd c092 83bd 70df dfbc
000000d0: c867 8ebc 106b e9bc 14a0 a43d e47f 45bd
000000e0: d046 b2bd 2023 a8bd 261d fb3d b6b3 e4bd
000000f0: 1872 343d d055 193d 40e3 63bc 4c7f f63d
00000100: 409d 9d3b fc11 e43d 6e6b e3bd 8e4a c13d
00000110: d202 fc3d d455 323d d4b7 d33d b4f3 7ebd
00000120: c0fc 20bd 1442 e93d 3cca 713d 38d8 e5bd
00000130: a408 253d 7ceb 233d b23e 873d 3850 e6bc
00000140: 3467 7bbd 4823 ce3d 6632 f33d e01d 6cbd
00000150: 7829 2abd 8471 bc3d 44b7 b3bd d20b 813d
00000160: 0ccf c93d f02f 2abc a02f 75bd 9c53 413d
00000170: 2cb5 363d ba34 ae3d ead7 f23d ba36 b43d
00000180: 7083 733d b06d c6bd 94e9 883d e4b7 de3d
00000190: 9a70 f4bd ac22 f33d 609b bcbd d0ac 66bd
000001a0: 80bf 723d 804f b73d 0a39 81bd ce7f 873d
000001b0: 688f ebbd d84e c9bc f834 4ebd 3cdf 763d
000001c0: 52a8 d33d 7424 bdbd a825 fe3c 189a e5bd
000001d0: 7c36 98bd 660b cbbd 7e8e 8e3d 6270 d0bd
000001e0: 0613 d43d c4a8 bcbd e0d3 ba3c e80e f8bd
000001f0: 3418 c73d 741a a43d 80d5 d9bd fcc6 023d
00000200: d0b1 ecbd 4832 de3d c41b 273d a062 dcbb
00000210: 4059 eb3b 9053 853d 606f a13b e8f2 3abd
00000220: e62a bbbd baac fb3d d25a e5bd 00fc 523a
00000230: 8418 d43d a27e d2bd e88f ba3c 8099 7b3b
00000240: b418 b63d 80ea efbd 6c6d 1ebd 4e9b bcbd
00000250: 8a06 c03d c018 d2bb 5c30 18bd 60e1 e53b
00000260: 5812 82bc 381f 31bd 4abd d13d b42a 2a3d
00000270: 88bb 5a3d ee8d f8bd 2078 753d 5851 663d
00000280: ba14 e63d f8af de3d 9a47 8cbd e034 71bc
00000290: accb 3abd 24e6 e4bd 70db bebd a492 863d
000002a0: 8e28 f53d b0e8 13bc 7adb e4bd f89b 8dbd
000002b0: 5c81 b5bd 26f6 82bd a23b a63d 001e 083b
000002c0: 7056 1a3d b8a4 2cbd 601f d6bb 78e9 c7bd
000002d0: 7254 eb3d a840 613d ee2b a03d 8859 e83d
000002e0: f44f a03d 1c21 3d3d 607a 50bc 0089 573b
000002f0: 2c7c c1bd c8b9 e53c d8e5 843d 36e8 fabd
00000300: 04fd a3bd 900c 673d bca8 7dbd 3249 bc3d
00000310: 908a 083c c46b 2dbd d638 a2bd 2647 85bd
00000320: 58c2 033d a49c f2bd 00e1 ec3a 04b5 9f3d
00000330: d413 6dbd d44f 8abd 246d eebd d8f5 5fbd
00000340: 2ec0 babd d0cc 7abc dcd1 803d 62f3 ce3d
00000350: 8004 3cbc 82aa d7bd c08f a13b a678 a3bd
00000360: 3844 ee3d f0d4 d33d 508c 7f3c a6d2 a1bd
00000370: 1e9d 813d 3e6c a1bd c812 2c3d 3859 8cbd
00000380: b02f a8bc d8f5 22bd 10a2 cfbc 68e3 f93d
00000390: 4090 10bc 006b d93b 7242 c83d e0fe 3abc
000003a0: c2b6 ecbd 6266 ef3d 0e7f abbd 20f7 80bb
000003b0: 6ce8 a53d 2c67 383d b03e a7bd 3ce3 d1bd
000003c0: 50a4 7f3c 50d2 183d d049 7f3d c880 a63c
000003d0: ee69 ca3d 00df d03d 60ca efbd c4b9 ea3d
000003e0: cc90 f5bd 9e20 8fbd 1ea3 c2bd 7ef2 e7bd
000003f0: e890 babc 00ba fa3c ee57 82bd f022 be3c

fc.weight f4 [1, 64]
-0.33935782 -0.54340273 -0.42140192 -0.20050833 -0.5800935 -0.38098082 -0.22866113 0.24840353
-0.14332882 0.27663225 -0.53272367 -0.48653623 -0.1429985 -0.1618118 -0.1781946 0.5010061
0.61864084 -0.055294685 0.3489952 0.27922106 0.56701285 0.37812898 0.15224405 -0.32311937
0.32773095 0.42714334 0.6757141 0.42549065 0.004592604 -0.10495229 0.2610738 0.34082177
0.13135977 -0.33827633 -0.23326436 -0.68420386 0.4971602 -0.1358311 0.16591685 0.45021826
0.3161478 0.29003114 0.15106152 0.18614691 -0.38630825 -0.058419883 0.48351023 0.08103201
0.1832349 0.28644493 0.28799942 -0.35591713 -0.027918397 0.39178202 -0.160504 0.067266576
-0.22693354 -0.47278395 -0.18452404 0.2779242 0.24608979 -0.028039578 -0.3607669 0.32145774
00000000: 4fc0 adbe 711c 0bbf fec1 d7be 0e52 4dbe
00000010: 0281 14bf eb0f c3be 2526 6abe 7f5d 7e3e
00000020: cac4 12be bea2 8d3e 9460 08bf 471b f9be
00000030: 336e 12be feb1 25be a578 36be f041 003f
00000040: 3f5f 1e3f ae7c 62bd 80af b23e 10f6 8e3e
00000050: c127 113f 1f9a c13e dde5 1b3e e76f a5be
00000060: 5acc a73e 88b2 da3e 99fb 2c3f e9d9 d93e
00000070: 8e7d 963b 3af1 d6bd 77ab 853e 3180 ae3e
00000080: 2d83 063e 8e32 adbe dadc 6ebe fc27 2fbf
00000090: c88b fe3e 4f17 0bbe 1be6 293e 0283 e63e
000000a0: 20de a13e f67e 943e dfaf 1a3e 4c9d 3e3e
000000b0: 32ca c5be b049 6fbd a78e f73e 1cf4 a53d
000000c0: eea1 3b3e e9a8 923e a974 933e c53a b6be
000000d0: 1fb5 e4bc a797 c83e 295b 24be 0fc3 893d
000000e0: 4461 68be bd10 f2be dff3 3cbe 154c 8e3e
000000f0: f6fe 7b3e 42b3 e5bc 70b6 b8be 1c96 a43e
