model/global_final.pt (torch, 196732 bytes, 7 tensors)

conv1.weight f4 [64, 78, 3]
000000 f5 aa 34 3d ec 13 20 3d e1 8e a5 bc 86 b6 75 3d
       0.04410835 0.0390815 -0.020209732 0.05998852
000010 de 36 ac bc 61 70 34 3c dc 5a fc bc ba f8 d8 3c
       -0.021022256 0.011013121 -0.030805044 0.02648579
000020 d4 9f 65 3d be 9f 50 bd 23 11 60 3d 31 44 43 3b
       0.056060627 -0.050933592 0.054703843 0.0029795284
000030 3e 0a 1e 3d 52 f7 b6 3a 3a ec 08 3d 9c 01 8e bc
       0.038583986 0.0013959205 0.03342841 -0.017334752
000040 5a 94 29 3d 8b e6 46 bb 16 26 2a bd bb 80 5e 3c
       0.041401245 -0.0030349817 -0.041540228 0.013580496
000050 ce f0 f6 bc fe 86 66 bc 71 a2 f8 bc aa 35 26 3d
       -0.030144121 -0.014070271 -0.030350896 0.04057852
000060 5c 12 68 bd 79 65 04 bd c9 ed db bc 81 75 3b bd
       -0.056658134 -0.032323334 -0.026846783 -0.045766357
000070 f4 df 60 3b 98 c4 91 bd ca 1f 31 3d 8a 0f 73 bd
       0.0034313174 -0.071175754 0.043243207 -0.05934099
000080 6a bb 42 3d 94 70 47 3b 41 8e 9c bc 92 79 1a 3d
       0.047542013 0.0030432092 -0.0191108 0.037713595
000090 67 6b c0 3b 44 7c 47 3d 59 a4 df bb 14 62 f6 bc
       0.0058721784 0.048702493 -0.0068250117 -0.030076064
0000a0 15 c0 82 3c 82 15 c6 bc bd 85 e4 3c 65 cd 58 3d
       0.015960732 -0.024180178 0.027895803 0.052930254
0000b0 04 9f 2f 3d a3 65 f8 bc a8 71 bf 3c c8 24 0a 3c
       0.04287626 -0.030321902 0.023369625 0.008431621
0000c0 fc 6d 05 3d 3a 1a 39 bd 29 a3 8b bd 73 cc 04 bd
       0.032575592 -0.045191027 -0.0681823 -0.03242154
0000d0 c2 b5 68 bd f8 9a 4e 3d 30 33 8d 3c cc 75 f9 3c
       -0.056813963 0.05044076 0.017236322 0.030451678
0000e0 3a ab b3 3c 72 63 b6 bb 7f d4 50 3d 8a c8 3c bd
       0.021932233 -0.005566054 0.050983902 -0.046089686
0000f0 64 4b 20 3a 1e 36 22 bd 16 98 d1 3c 14 20 02 bd
       0.00061147497 -0.03960239 0.025585216 -0.031768873
000100 f2 b6 45 3c dc 21 74 bc 74 bf 47 3d ab ba 48 bd
       0.012067543 -0.014900651 0.04876657 -0.049006145
000110 60 65 5d bd 6e c9 50 bd 91 2e 60 3d 33 79 03 3c
       -0.054051757 -0.05097335 0.05473191 0.008024502
000120 04 2b 53 3d 2f 02 87 bd b5 2e 96 bd 33 e3 67 bd
       0.051554695 -0.06592213 -0.073331274 -0.05661316
000130 bb 35 48 bd 92 5c db 3c 92 8e 59 3c fe 72 5c 3d
       -0.048879366 0.02677754 0.01327862 0.053820603
000140 db b6 30 bd 3e c7 31 bd 20 46 fa 3c 19 0e 27 bd
       -0.043143135 -0.043402903 0.030551016 -0.04078493
000150 ba 71 f5 3c 28 48 ae bc f0 9d e8 3c f0 e3 47 bd
       0.029961456 -0.021274641 0.028395623 -0.048801363
000160 e4 0e 03 bd 68 79 c2 3c bc 5a 83 3c 72 05 c4 bc
       -0.031996623 0.023739532 0.016034476 -0.023928378
000170 dd 16 41 3d 3e f8 13 3d 8e f4 44 bd d6 2e 54 bd
       0.047140945 0.036125414 -0.048084788 -0.05180248
000180 aa 88 57 3d a6 87 de bc c8 db bf bc 26 16 6b bd
       0.052620567 -0.027164292 -0.02342023 -0.05739417
000190 89 e5 20 bd 9e be 3b 3c 64 17 5b bc 5f 75 5d bd
       -0.0392814 0.011459021 -0.013372276 -0.054067012
0001a0 0c 14 6e 3b e9 91 3d bd 9c 1c 82 bd 6e 1d 2d bd
       0.0036327867 -0.04628173 -0.06353113 -0.042264394
0001b0 af 32 85 bd 16 6c 3e bd 66 1b 8c 3d 5c 25 1a 3c
       -0.06503808 -0.046489798 0.06841163 0.009408321
0001c0 ae 6d 6a 3c 66 3c 98 bd 6d 4c 3b bd 86 12 e1 bc
       0.014308376 -0.07433395 -0.045727182 -0.027474653
0001d0 24 15 2c bb 21 4f 5b bd 40 c7 34 bd 96 bd 2e bd
       -0.0026257718 -0.05354226 -0.044135332 -0.042661272
0001e0 92 33 49 bc 3c f4 cb bc cc 3b ad bc 5e d5 4a bd
       -0.012280362 -0.024896733 -0.021146677 -0.04951989
0001f0 cb af 4a bd 8d 9f 39 bd cc 72 8e bc 20 d0 72 bd
       -0.049484055 -0.045318175 -0.017388724 -0.059280515
000200 43 dc 61 3d 4c 94 5d bc be 87 46 3d 60 7d 98 3c
       0.0551417 -0.013524126 0.048469298 0.018614471
000210 02 cc 6d bd 8e c3 39 3d ba 9d 8e bc 52 de 10 bd
       -0.058055885 0.04535251 -0.017409194 -0.03536827
000220 cc d7 6b bd 3c 46 a6 bd 32 38 13 3c f6 4c ac bc
       -0.057578847 -0.08118865 0.008985566 -0.021032792
000230 d6 0a 00 3d ba c7 60 bd ec 1f 34 3d f2 d2 65 bd
       0.031260334 -0.054877974 0.043975756 -0.056109376
000240 56 85 45 bc fc b8 4e 3c 5a c7 df 3c e2 3d 37 3d
       -0.012055716 0.012617346 0.027316738 0.04473675
000250 44 d1 72 3d 68 d4 87 bd 7f fb 45 3c 89 b2 18 bd
       0.059281603 -0.0663231 0.012083887 -0.03727964
000260 28 63 23 bc c9 a8 52 bd 39 03 6e 3d d6 eb 6f bd
       -0.009972371 -0.051430497 0.058108542 -0.05857452
000270 bc fa 08 3d 0d 2f 33 3c 26 99 b4 3c 6f 7e 16 bd
       0.033442244 0.010936511 0.022045683 -0.03674167
000280 2f 2e 5d 3d 04 e6 1d 3c 8c 3d c9 3b ea 07 52 bd
       0.053999122 0.0096373595 0.00614137 -0.05127708
000290 9e 6b ef 3c 88 b9 3a bc 94 05 18 bd b3 00 84 3d
       0.02922612 -0.011396773 -0.037114695 0.06445446
0002a0 4a 10 5e 3c 96 af 35 bd 87 d6 09 bd 98 4f 08 bc
       0.013553688 -0.044356905 -0.033651855 -0.008319758
0002b0 00 98 e7 3c 35 4c b7 bc 76 54 25 bd f5 73 d3 bc
       0.028270721 -0.022375206 -0.04036375 -0.025812129
0002c0 45 25 6a bd 7b 4c ae 3c be 86 3c 3d d9 64 8e bd
       -0.05716445 0.021276703 0.046026938 -0.06952829
0002d0 4d 70 29 3c 01 8d f0 3c 9f 92 5a 3c 20 70 1c bd
       0.010341716 0.02936411 0.013340621 -0.03819287
0002e0 5f e2 09 3d 8c 3c 0c 3d b2 bd de 3c 5f a2 b0 bc
       0.03366315 0.03423743 0.027190063 -0.0215618
0002f0 ac 35 ee bc 26 f0 90 3b 1c b2 9d bc f7 1b d1 bc
       -0.029078327 0.004423159 -0.019249968 -0.02552603
000300 38 8f ec 3c e2 5c 5e 3d 78 d8 99 bc a7 26 d4 bc
       0.028876886 0.0542878 -0.018779978 -0.025897337
000310 78 76 24 bc 38 53 8a bb e7 56 8a 3c 64 30 5e 3c
       -0.010038011 -0.004221346 0.016887141 0.013561342
000320 1e 5d 83 bd 26 33 08 bd 9c 8b 6b 3d 8f 26 a5 3c
       -0.06414245 -0.033251904 0.05750619 0.020159988
000330 2a c9 bd bb 41 bd 0e bd 68 52 2e bd fc 99 67 bd
       -0.005791803 -0.034848455 -0.042559057 -0.056543335
000340 54 4a 02 bd 01 e0 9d 3c 2b 7b 0d 3d f2 98 f4 3c
       -0.031809166 0.019271852 0.03454129 0.029858086
000350 02 c1 9f bd ba 1d 38 bd 8e 12 b1 bb 6a 86 6e 3d
       -0.07800485 -0.044950224 -0.005403823 0.058233656
000360 da 90 2e 3b a2 e8 ba bc bc 57 c7 3c 36 39 17 bd
       0.0026636631 -0.022816006 0.024333827 -0.036919795
000370 cc 4b 51 bd f4 5c 46 3d 8a 44 2e bd ae 6e 6e bc
       -0.051097676 0.04842849 -0.042545833 -0.014552755
000380 31 3b a1 bd 77 20 e7 3c fb c0 32 3d 69 1d ca 3c
       -0.07872618 0.028213723 0.04364107 0.024672227
000390 8e cf 43 bd 72 1c 9c bd da a6 7f bd 80 d7 28 3d
       -0.04780536 -0.07622613 -0.06241498 0.04122114
0003a0 f6 d3 c2 3c 18 59 6c 3d 52 77 37 3d c0 36 66 3c
       0.023782711 0.057702154 0.044791527 0.014051139
0003b0 12 da cd 3b e2 fc 70 bd 7a 7f 87 bd 91 51 50 bd
       0.0062820995 -0.058834918 -0.06616111 -0.050859038
0003c0 5c fa d3 3c e7 92 f5 bc 84 df db bb ca 58 3b bd
       0.025876217 -0.029977275 -0.0067099947 -0.045738973
0003d0 fa 64 da bb 24 27 32 bd e1 a1 56 bd d8 34 cd 3c
       -0.0066648694 -0.04349436 -0.052400474 0.025049612
0003e0 64 21 5a bc 06 4f 11 3d ee 8d fd bc 48 db 3a bd
       -0.013313625 0.035475753 -0.030951466 -0.04561928
0003f0 c4 e4 8a bc b1 9e 24 bd d0 b5 ba bb de df 81 bd
       -0.016954787 -0.040190402 -0.0056979433 -0.063415274

conv1.bias f4 [64]
000000 2c 8c 81 bc e0 68 3b bc ae d4 73 3d 9c ea ce 3d
       -0.01581391 -0.011438578 0.059529 0.10103342
000010 fe 6f ea 3d 1c e2 98 3d 4a 30 6f 3d 1e f3 2e 3c
       0.11447142 0.07465002 0.05839566 0.010678081
000020 9c 89 bc bc 15 bd 81 3d ca fe 58 3d fd 28 52 3d
       -0.023014836 0.06334893 0.05297736 0.05130862
000030 2c 3e fd bc 5e f3 18 3d 3a ae cc bc 78 75 ae 3c
       -0.030913435 0.037341468 -0.024985421 0.021296248
000040 a2 9e 5a bc 8e b2 75 3c 6e e7 0a 3d a9 92 d3 3d
       -0.013343485 0.014996184 0.033912115 0.103307076
000050 10 6e 09 3c e6 1c 36 3d 97 05 a8 bd e4 3f 66 3d
       0.008388057 0.044461153 -0.08204191 0.056213275
000060 6a 71 d4 3d 88 6c 31 3d 92 41 a4 bc f4 66 92 3d
       0.103731945 0.043316394 -0.020050798 0.07148543
000070 62 5b 6c bd 56 c0 f4 ba 43 e3 81 bc c5 0c a3 3d
       -0.057704337 -0.0018673043 -0.015855437 0.0796142
000080 4e 33 9a bb 2d b4 a4 3c 00 4d 74 bd e0 af 7d bc
       -0.004705823 0.020105446 -0.059643745 -0.015483826
000090 fa 6e 95 bd 01 40 37 3d 6a 00 58 3d ee 4d 9a bb
       -0.07296558 0.044738773 0.05273477 -0.004708997
0000a0 aa e8 3b bb 09 ea a8 3d 53 08 ce bc 43 ed 79 3d
       -0.0028672614 0.08247764 -0.025150454 0.061017286
0000b0 94 2b bd bc 0c 9c 07 3d 3f 98 bb 3d 87 bd 16 3d
       -0.023092069 0.033107802 0.09159898 0.03680184
0000c0 76 a4 b0 3d 58 b6 63 bd 4a 7c ba 3d 86 3b b8 bd
       0.086251184 -0.05559382 0.091057375 -0.08995728
0000d0 36 a6 54 bd d0 ef ae bd 00 c2 93 bd 06 0b 14 bd
       -0.051916324 -0.08541834 -0.07214737 -0.036143325
0000e0 ba fc 62 bd 24 83 1f 3d ab 35 9c 3b 1d f1 7a 3c
       -0.0554168 0.038943425 0.00476714 0.015316275
0000f0 fc 4c 1e 3d d6 f0 4f 3d db fa 2e 3d 06 fb 14 bc
       0.038647637 0.05076679 0.042719703 -0.009093052

lstm.weight_ih_l0 f4 [256, 64]
000000 80 21 a9 3d 30 d9 29 3e 77 7b 5d 3a 9c 62 50 3e
       0.08258343 0.16586757 0.00084488787 0.20350116
000010 85 7d ee 3d 62 b3 5c bd 6e bd 1f 3d 52 e3 99 bb
       0.11645035 -0.05388201 0.038999014 -0.004696288
000020 e9 71 a0 3d 05 50 f0 3c c8 88 77 3d 57 a9 ac 3d
       0.07834227 0.029335031 0.06043318 0.084307365
000030 64 8a 82 3e be fc 5a 3d 1d 86 24 3e 67 70 a4 3e
       0.2549621 0.05346369 0.16066785 0.32117006
000040 dd 8c 53 3e b0 df 02 3c e3 bd af 3d 24 57 44 3e
       0.20659204 0.007987902 0.0858114 0.19173867
000050 a2 e1 af 3c 03 40 a4 3d 3d 55 95 3d 11 e8 a4 3e
       0.021469895 0.08020022 0.072916485 0.32208303
000060 83 90 8e 3e ed 76 5c bd de a1 3e bd a2 e4 8c 3d
       0.2784463 -0.053824354 -0.046541087 0.06879546
000070 a1 e0 bd bd b1 7a 32 3c a9 87 e4 3c 03 0b 88 3d
       -0.0927136 0.01089351 0.027896719 0.06642725
000080 21 b1 a2 3e a7 f6 8c 3b 0a 5e 4f 3e 8c ec b5 3d
       0.31775764 0.004301864 0.20250717 0.08883008
000090 f9 ff 82 3d 38 7b 83 3e 8c e1 e6 3d 1f 5b 21 3e
       0.06396479 0.25679946 0.112734884 0.15757416
0000a0 0c a7 1b 3d 0e 28 5a 3e 3d ba 7c 3e 0f 32 25 3e
       0.038001105 0.21304342 0.2468042 0.16132377
0000b0 ad 52 c5 bd ce 20 b4 3e 0a f6 10 3e 30 05 37 3e
       -0.0963491 0.35181278 0.14156356 0.17873073
0000c0 5c f8 4f 3e d5 9f ad bd 6b 65 92 3e a3 14 26 3e
       0.20309585 -0.08477751 0.28593 0.1621881
0000d0 53 96 99 3d 4a 3d e0 3c d5 34 2a 3e b6 82 17 3d
       0.07499375 0.027372975 0.16621716 0.03698989
0000e0 58 09 28 3e 11 8a 56 3e ba 62 32 3c 3c a6 5e 3e
       0.16409814 0.20951106 0.010887796 0.21743101
0000f0 e7 0a b3 bd 12 3a c9 3d 93 ce 77 3e 0d 22 72 bb
       -0.08742314 0.09825529 0.24199896 -0.0036946565
000100 5c 77 4d bd 9c 5f 9b be 3b 7f 29 be 6f 64 9d 3e
       -0.050162658 -0.30346382 -0.16552441 0.30740687
000110 94 c8 5e 3e 8c 45 8a 3d b6 e8 96 3d 49 8a 0d 3d
       0.21756202 0.06751546 0.07368605 0.034555707
000120 c8 4c b3 3d 3e 47 05 3f f1 63 7d 3d 97 af 4b 3e
       0.08754879 0.5206183 0.06186289 0.19891201
000130 9f b4 84 3b d6 6e 5f 3e f7 f7 6b bc 52 8f 82 3e
       0.004049852 0.21819624 -0.014402381 0.2549997
000140 f3 57 03 3e b9 7f 73 3d 32 43 0e 3d 47 0b 5f 3d
       0.12826519 0.059447978 0.03473205 0.054454114
000150 1f 45 06 be b1 1b 37 3e 5b d0 62 bd 99 45 a2 3e
       -0.13112305 0.17881657 -0.055374485 0.31693724
000160 9d 14 82 be cb 95 2c 3e c7 65 01 3f f7 8f 5e 3e
       -0.25406352 0.16854016 0.50545925 0.21734606
000170 81 38 5e 3e a2 34 fe bd 4a 1e be bd 72 57 ea bc
       0.21701242 -0.12412383 -0.09283121 -0.02860615
000180 e5 56 0b be 69 96 54 3e c9 74 fd 3c 8c 06 b6 bd
       -0.13607366 0.20760502 0.030939477 -0.088879675
000190 b0 0b 1b 3e 99 52 7b 3d aa 47 86 3e 1f d4 87 3d
       0.15141177 0.06135807 0.2622655 0.06632256
0001a0 1f 30 67 3d b3 e4 12 3f ab 91 3b bd 13 da 24 3e
       0.056442376 0.5738022 -0.045793217 0.16098814
0001b0 fa cf 80 be 9c 92 14 3e d2 95 a3 be 6e d0 4d be
       -0.25158674 0.14509052 -0.3195024 -0.20099041
0001c0 6d 42 d8 3d f1 fc 3b 3d 50 d7 1c 3e 32 b2 c9 3d
       0.10559545 0.04589552 0.1531651 0.09848441
0001d0 b0 dd f9 3d 99 70 32 bd c6 37 4a 3d 7c 2f 88 3e
       0.12200487 -0.043564413 0.049369596 0.26598728
0001e0 a9 e1 8c 3d 52 32 f0 bd 70 1a a7 3e 8c 9f 82 bd
       0.06878979 -0.11728348 0.32637358 -0.063780874
0001f0 ec b2 a7 3d cc 02 3f be 29 a4 d0 3e 7c 0a 22 be
       0.081884235 -0.1865341 0.40750244 -0.15824312
000200 6c 8e c0 3d 23 6b b0 3d 25 32 b3 3e 1e fe fe 3c
       0.09402165 0.08614185 0.34999195 0.031127032
000210 ff a5 23 3e 8d 5b cb 3d 72 21 70 bc 84 1a 3d be
       0.15981291 0.09929571 -0.0146564115 -0.18467146
000220 f1 26 80 3d f0 c9 ce 3c 7f 5d 33 3e e9 db 49 3d
       0.062574275 0.025242776 0.17516135 0.04928199
000230 df 2a e3 3c 08 df 60 3e 64 fb fa 3d 61 13 e7 bc
       0.027730403 0.2196008 0.1225498 -0.028207483
000240 3e 71 96 3d 19 b9 ef 3d 4f 67 bb bb 62 05 aa 3d
       0.07345818 0.117052265 -0.0057191025 0.08301808
000250 cc e6 32 bd 55 78 f2 bd 74 a8 13 3e 6a 6a ab bd
       -0.043677136 -0.11839358 0.14419729 -0.08369906
000260 50 f1 48 3e 15 f4 3e 3e 1a ea 00 bd cd 80 b0 bc
       0.19623303 0.18647797 -0.031473257 -0.021545792
000270 c6 88 a1 3d 75 96 5a 3b df f7 a9 3e c0 b8 cd 3e
       0.078874156 0.003335384 0.33196923 0.40180016
000280 2f b7 4b bd ac 20 2a be 5f bc 30 bd 17 5e 3e bc
       -0.049735244 -0.16614026 -0.043148395 -0.011619112
000290 3e 95 3d 3d 56 f7 81 bd bb 6d 1e 3d 1f dd 99 bd
       0.046284907 -0.06346004 0.038678866 -0.075128786
0002a0 3e 4d 68 3e 4b fd 9b 3d 30 58 1a 3d 0f ce 63 3e
       0.22685716 0.07616671 0.03768176 0.22246574
0002b0 ad ba 0e be 51 d5 f6 3d 9a d6 4e 3e 79 df 65 3e
       -0.13938399 0.120524056 0.20199051 0.2244853
0002c0 2e 63 dc 3d 7a eb 01 bc 03 4f 80 bd d4 3a 4b bd
       0.107611045 -0.007929677 -0.0626507 -0.04961665
0002d0 42 db 82 bd c4 3d 8d 3e 49 c4 9c 3d 51 6a 40 bd
       -0.06389476 0.27586186 0.07654626 -0.04697639
0002e0 b3 ef 62 3e 8c a7 0a bd 90 0d 91 3e 08 11 85 bd
       0.2216175 -0.03385119 0.2833066 -0.06497389
0002f0 f4 fd f0 3c 5d 31 f3 bd 96 cc 84 3e 8c 31 8a 3c
       0.02941797 -0.1187465 0.25937337 0.016869329
000300 f5 78 5f bd eb 81 4b 3e 44 e1 f0 3c eb c5 11 bd
       -0.054558713 0.19873779 0.02940429 -0.03558914
000310 d0 66 f4 3c dd e7 3d 3c 83 ca b4 bc 95 d9 0f 3c
       0.029834181 0.011590925 -0.022069221 0.008779903
000320 13 00 d8 3d 93 2e b2 bc b2 ae 42 3e d4 10 51 3d
       0.10546889 -0.021750724 0.19011953 0.05104144
000330 55 4c 9d 3b ff ad 2c 3d 24 b6 ea 3d dd 9d d4 3d
       0.0048003593 0.042158123 0.11460522 0.103816725
000340 15 1b f5 bd b1 bb b5 bd 21 b8 81 3d 9f 17 d6 3d
       -0.11968056 -0.0887369 0.06333948 0.10453724
000350 bd 4b 36 bc ed 6f 5e be 07 f9 5c bd 6f df d5 3d
       -0.011126456 -0.21722384 -0.05394843 0.10443007
000360 cc 14 52 3d a6 8f 04 3d 0f 91 b7 bc df 2f a0 3d
       0.051289365 0.032363556 -0.022408037 0.07821631
000370 63 d6 bc bd 8c ea 32 bd ea 42 2f 3c 33 63 7e 3e
       -0.092205785 -0.043680713 0.010697106 0.24842529
000380 af e9 9f 3c a7 7b f6 3d 44 69 aa 3d c0 19 b4 bd
       0.019520609 0.120353036 0.08320859 -0.08793974
000390 ce de 87 3b fe 0e b7 3d bc 9f 2c be 16 9b 5b bd
       0.0041464334 0.089384064 -0.16857809 -0.0536147
0003a0 43 33 46 3d 0f ac ea 3d 4a 81 6b bd e6 40 10 3e
       0.04838873 0.11458599 -0.057496347 0.14087257
0003b0 27 31 07 be 12 a5 ec 3d e2 de 89 bd 39 52 2f 3e
       -0.13202344 0.11554922 -0.06731965 0.17121209
0003c0 51 b3 48 bc 9a 57 19 3c 63 90 d8 bc bc d7 88 3d
       -0.012249784 0.009359265 -0.026436036 0.06681773
0003d0 ed cc 9e bd ac e7 97 bd d0 aa 83 bd 60 87 bc bd
       -0.0775393 -0.07417235 -0.06429064 -0.09205508
0003e0 af 41 0d be 15 a0 63 3d 73 71 29 bd dd dc 17 3e
       -0.13794588 0.055572588 -0.04136796 0.14830346
0003f0 95 c6 56 3d b1 e8 82 3d 0b c4 c8 3d 15 ca 15 3e
       0.052435476 0.063920386 0.09803017 0.1462787

lstm.weight_hh_l0 f4 [256, 64]
000000 eb 69 ce bd 3c 3a b1 bd 3b b1 64 3e 99 71 98 3e
       -0.10078796 -0.086536855 0.22333233 0.29774168
000010 2e 63 b5 bd 40 7e 69 be e5 0b 14 3e 96 d4 3e be
       -0.08856808 -0.22802067 0.14457662 -0.18635783
000020 33 78 3b 3e 2c 45 9c be 48 95 b7 3d 24 33 af 3e
       0.18307571 -0.30521524 0.0896402 0.34218705
000030 af 6b a9 3e 5d aa 66 3c 3e e7 01 3f 7c e7 2c be
       0.3308997 0.014078704 0.5074347 -0.1688518
000040 04 e8 4a 3e 86 54 09 3e 20 53 6c 3e 41 cc 62 be
       0.1981507 0.1341115 0.23078585 -0.22148229
000050 df b5 13 3e 08 92 8a be e9 ea 59 be 34 ca 85 3d
       0.14424847 -0.27064538 -0.21281017 0.06532708
000060 4e 35 4f be 65 de 8e be 30 9f 44 be e3 c3 68 be
       -0.20235178 -0.2790405 -0.1920135 -0.22730975
000070 61 fa c5 3e 96 cd 97 be ef c4 6c be 04 f6 ef bc
       0.38667586 -0.29649037 -0.23121999 -0.029292114
000080 47 91 7c 3a 80 36 73 3e c9 4d a9 3c ec ca 8b 3d
       0.0009634685 0.23751259 0.020666974 0.06825814
000090 44 fd 30 bd d4 ba a7 be 28 6a aa bd 03 05 f5 3d
       -0.043210283 -0.32759726 -0.08321029 0.119638465
0000a0 04 a7 32 bd 85 43 ce bd da af 8c be e9 2d 49 be
       -0.04361631 -0.10071472 -0.27477914 -0.1964642
0000b0 3f c9 16 3e b0 87 95 be 80 a7 9c 3e 14 e8 bd be
       0.14725207 -0.29205084 0.30596542 -0.37091124
0000c0 d7 c6 2b bd 20 ac 34 be 73 c4 23 3d 36 4a 74 be
       -0.041937675 -0.17643785 0.03998227 -0.23856434
0000d0 59 21 3a be 4c b8 2a 3d 9b 90 7c 3e be 0a 99 3e
       -0.18176784 0.041679665 0.24664538 0.29891008
0000e0 25 55 1c 3e cf 96 c2 bd e1 7e 1e 3e 19 5a 9f be
       0.15266855 -0.09501421 0.15478088 -0.31123427
0000f0 2f 40 7b 3d f2 58 99 3c 62 98 2f 3e b4 66 bd 3e
       0.061340507 0.01871917 0.17147973 0.3699242
000100 4e 5f f2 3d a4 52 ba 3d 67 9b 16 3d cc 95 2c 3e
       0.11834584 0.09097794 0.036769297 0.16854018
000110 26 34 74 bd 3d 81 76 be c9 0c 7b 3e c4 c2 1a bd
       -0.059620045 -0.24072738 0.24516596 -0.0377834
000120 44 36 6d 3e 1b 33 09 bd 0b 23 65 bb 14 5d f1 bd
       0.23165232 -0.033496004 -0.0034963514 -0.11785331
000130 18 a0 ac 3e ae 20 8f 3d e7 69 9b 3e a9 3f 69 be
       0.33715892 0.06988655 0.30354235 -0.2277819
000140 11 74 09 3d 69 38 fa 3d 83 58 01 3e 27 12 02 be
       0.033557955 0.12217791 0.12631421 -0.12702237
000150 78 f9 2e 3e 3b dc 7b be 42 58 0b be f8 07 55 bd
       0.17087352 -0.2459573 -0.13607886 -0.052009553
000160 62 4d 15 be 42 43 be bd a5 96 e3 3b e5 9c 9c be
       -0.145803 -0.09290172 0.0069454485 -0.3058845
000170 27 df b0 3e 27 8d 85 be fd 01 32 be c3 c9 34 bd
       0.34545252 -0.26084253 -0.17383571 -0.044137727
000180 ca fe e5 bc c7 08 61 3e 27 af 12 3e 85 fc b0 bd
       -0.028075594 0.21976005 0.14324628 -0.08641914
000190 5e b1 5d 3d 22 dc 90 be 31 9c 51 be b4 3d 29 3e
       0.05412423 -0.28292948 -0.20469739 0.16527444
0001a0 22 48 71 3e ec c9 f2 bd cd 48 46 be c5 1e f6 bd
       0.23562673 -0.1185492 -0.19363709 -0.120175876
0001b0 7e bf 9d bd 10 d2 97 be 49 ad 18 bd 7d f6 37 be
       -0.0770254 -0.29652452 -0.037274633 -0.17965122
0001c0 3d d2 55 3d cc 9e 5e be 7a e9 38 3d fc d8 af be
       0.052202452 -0.21740264 0.045144536 -0.34345233
0001d0 8f 87 c1 be 8a 80 d8 3d b7 e1 23 3e 86 38 2f 3e
       -0.37798735 0.10571392 0.16004072 0.17111406
0001e0 25 f2 2d 3e 51 e7 2f bd 01 ec 24 3e e5 87 17 be
       0.16986902 -0.04294521 0.16105653 -0.14797933
0001f0 21 3d 3e be 3c 59 a2 3e 78 57 0d 3d 1f 52 6c be
       -0.18578006 0.31708705 0.034507245 -0.23078202
000200 7e 0a 09 bd a4 ed d8 3d e8 09 05 3e d3 86 88 3e
       -0.03345727 0.10592201 0.1299206 0.26665363
000210 f8 c3 92 bd 06 85 8e be 54 38 c6 bd 78 2b 78 be
       -0.07166284 -0.27835864 -0.096787125 -0.24235332
000220 b1 14 db 3d fe ad 0d 3c f9 4c 25 bd fc 06 72 3e
       0.10697306 0.00864744 -0.04035661 0.23635477
000230 ff 95 5a 3e 63 d5 24 bc bf ce 3e 3e 27 8a f3 bc
       0.21346281 -0.010060641 0.18633555 -0.029728962
000240 e9 3f eb 3d c9 cd 7f 3e f7 40 85 3e eb 49 23 be
       0.11486799 0.24980845 0.26026127 -0.15946166
000250 eb 76 4c 3d 49 29 93 be e1 04 b6 3b 8c 1b ac bd
       0.049918097 -0.28742436 0.005554781 -0.08403692
000260 a3 08 cc 3d 36 57 37 be 46 1f ec bb 39 97 f2 bd
       0.09962585 -0.17904362 -0.0072058765 -0.1184525
000270 00 2e 2e 3e bb 8b 87 be 41 c9 ec bd 94 b8 bc 3c
       0.17009735 -0.26473793 -0.11561824 0.023037232
000280 4a cb 1c bd 0f 08 2d 3e ed 17 0e be 72 71 12 bd
       -0.03827981 0.16897605 -0.13876314 -0.03575272
000290 8c de 3d bd a3 b6 74 be 49 48 9d 3d 0a 69 d8 3b
       -0.046354815 -0.23897795 0.07679803 0.0066043185
0002a0 c5 08 f9 3d ff 0c 46 3e 06 04 0a be 5d 24 15 be
       0.12159876 0.19340895 -0.13478097 -0.14564653
0002b0 d5 02 ae 3d 40 d4 31 be cf 7e 62 3e 66 3d 8c be
       0.08496634 -0.17366123 0.22118686 -0.27390593
0002c0 eb cd a2 3c 5a e9 48 be 4b 14 23 3e f1 79 82 be
       0.01987358 -0.19620267 0.1592571 -0.2548366
0002d0 1b 4d 2c be e5 8d b8 3c 6b 6f d3 3d b5 02 10 3e
       -0.16826288 0.022528598 0.10323986 0.14063533
0002e0 46 c6 a1 3b 5e 47 38 be ee 64 10 3e 01 f0 30 be
       0.004936966 -0.17995974 0.14101002 -0.17279054
0002f0 f0 71 22 bc 0c ca 0f bd 03 9c 75 bd c7 ac 6c 3e
       -0.00991486 -0.035104796 -0.059963237 0.23112784
000300 c0 d3 af bd c6 3a 28 3e ee 51 8e bd a0 a1 5e bc
       -0.0858531 0.1642867 -0.069492206 -0.013588339
000310 0e a3 ea bd f8 09 ac bd 06 c0 93 bc 13 57 31 be
       -0.114568815 -0.08400339 -0.0180359 -0.17318372
000320 ea 1d 17 3e ed 04 51 be 6e 42 47 be 7b 69 d1 3c
       0.14757505 -0.20412035 -0.19458935 0.025562992
000330 a6 d5 9d 3d 3f b5 92 3d 19 72 67 3e ef 6b 2a be
       0.07706766 0.07163476 0.22602119 -0.16642736
000340 9e cc 21 3e d7 1d 2a 3e 93 d6 d0 3c 2b e1 85 bd
       0.15800712 0.16612945 0.025492942 -0.06537088
000350 b6 37 2f 3e b7 66 ae 3d 96 7c 0f bd f4 09 e1 bc
       0.17111096 0.08515685 -0.035030924 -0.027470566
000360 cd 8d 66 3d 56 ba 3c be 1c 02 5d bd 12 9f 8e bd
       0.056287576 -0.18430457 -0.05395709 -0.06963934
000370 3c 0f 5a 3e 39 ec 31 bd 53 66 ca bc e6 33 1c 3e
       0.21294874 -0.04343817 -0.024706995 0.15254173
000380 aa 81 2e 3e 45 4d 08 bd 68 36 14 3d d1 e5 17 be
       0.1704165 -0.033276815 0.0361847 -0.14833762
000390 f7 af 41 bd 42 95 22 be 80 8c 3e 3c f2 ff 02 3e
       -0.047286954 -0.1587725 0.0116301775 0.12792948
0003a0 4b 19 56 bd ea ad 89 3d 4f 30 9b bb 92 b3 3e bd
       -0.052270215 0.067226246 -0.0047359834 -0.04655797
0003b0 64 80 24 be df f0 a2 3b 53 ae 4f 3e 32 89 a5 bd
       -0.16064602 0.0049725617 0.20281343 -0.080828086
0003c0 0f 48 e5 3d 5f 76 ba 3c ac 8a c8 3d f3 fa b6 bd
       0.11195385 0.022761522 0.097920746 -0.089345835
0003d0 38 81 da bd 18 86 eb bd f7 ba 0b 3e cc c5 55 3e
       -0.10669178 -0.11500186 0.1364554 0.20876235
0003e0 af b1 a3 3d 65 67 8f 3d 82 0e dd 3d 08 73 0e 3d
       0.07992875 0.07002143 0.10793783 0.03477767
0003f0 35 94 9e bd ea 35 a2 bd 1b 44 11 3d df c5 87 bc
       -0.07743112 -0.079204395 0.03546534 -0.016573844

lstm.bias_ih_l0 f4 [256]
000000 90 9b a7 3c db 9b 05 3e f6 9e 00 3e 3b fe 0a 3c
       0.02045992 0.13047735 0.12560639 0.008483465
000010 38 a5 2c 3d 11 b5 00 3e 83 64 c7 3d ae ed e5 3d
       0.042149752 0.12569071 0.09735968 0.112269744
000020 2e 10 6c bd 7e 5f 80 bd 40 cb aa 3d 50 58 fd 3d
       -0.057632618 -0.06268214 0.08339548 0.1237036
000030 f2 7b 5a 3d c0 e7 1a bc f2 d7 d8 3d b2 81 4a bd
       0.05334086 -0.009454668 0.10588063 -0.049440093
000040 6c 2d ee bc 62 02 9c bd f8 27 39 3d 92 55 83 bd
       -0.029074393 -0.07617642 0.045204133 -0.064128056
000050 f2 72 52 3c fe b7 a0 bd 9e 1a 80 bd 5a 1a 3e bd
       0.012844788 -0.07847594 -0.06255077 -0.04641185
000060 78 64 18 3c 88 d2 9e 3b b0 e7 27 3d a3 09 5f bd
       0.009301297 0.0048468746 0.04099244 -0.05445255
000070 62 63 a6 bd d6 21 63 3d 96 29 3e bd ce 72 9f bb
       -0.081244245 0.05545219 -0.04642638 -0.0048659807
000080 f7 9b 4e 3d 9a 7a 45 3d 0d 38 f2 bb dc 94 c8 3b
       0.05044171 0.048212625 -0.0073919357 0.006121261
000090 60 0f ea bc 54 12 ba bd 20 18 c3 3d b0 ce b8 ba
       -0.028571784 -0.09085527 0.09526086 -0.0014099684
0000a0 f9 06 55 bd c9 40 4b bd 27 0d 07 3e e9 9b f8 3d
       -0.052008603 -0.04962233 0.13188611 0.121391125
0000b0 c4 41 f8 3d 1a 27 d9 bd e4 41 2f bd 12 cc c2 bd
       0.12121919 -0.10603161 -0.042787448 -0.095115796
0000c0 88 6a 3b 3d 98 11 2b 3d 88 69 48 bd b6 a7 0d 3c
       0.045755893 0.041764826 -0.048928767 0.008645942
0000d0 8e a6 8b bd aa 01 16 3e 9a 71 b0 3d 75 59 af bc
       -0.06818877 0.14649072 0.08615418 -0.021404961
0000e0 df a1 69 3d 6b 5f cc 3d ae 3c f7 bd 78 e4 05 3e
       0.057039138 0.09979137 -0.120721206 0.13075435
0000f0 c0 cb d0 bd 38 41 11 bd a6 99 ec 3d 4f 32 48 3c
       -0.10195112 -0.035462588 0.115527436 0.012219026
000100 fa 8a 7e 3d 6d 7e 2f bd ab 84 dc 3d 84 43 1e bd
       0.062144257 -0.04284518 0.10767492 -0.038638607
000110 98 1b a7 bc 2a 17 40 3d 8e dc 50 bb 71 3d f0 bc
       -0.0203989 0.04689709 -0.0031869742 -0.029326173
000120 74 33 71 bd 5c a2 df 3d 60 c0 ee bb 06 ae c9 bb
       -0.05888696 0.109196395 -0.0072861165 -0.0061547784
000130 a0 75 bc bd af 24 06 3e 46 e7 c9 bd da b0 e9 3d
       -0.09202123 0.13099931 -0.09858565 0.11410685
000140 48 f9 e5 3a 08 a5 83 bd 4d e8 05 bd a6 b9 87 bd
       0.0017545605 -0.064279616 -0.032692242 -0.066272065
000150 50 25 27 bc 40 6d df 3d f4 49 d5 3c 44 55 0a 3e
       -0.010201767 0.1090951 0.02603624 0.13509089
000160 63 bb 22 3d 94 26 16 3e 27 af cb bc 8f 92 a8 bd
       0.039729487 0.14663154 -0.024863793 -0.08231079
000170 e6 b7 9f 3d be 86 aa bc 9a 94 c9 3d 43 a2 eb 3d
       0.07798748 -0.020816203 0.098427966 0.11505558
000180 d0 81 97 3d e3 96 5c bc b0 76 fa 3d eb de 40 3d
       0.07397807 -0.013463709 0.12229669 0.04708759
000190 ac 53 cd 3d 72 c2 4a bd 5e 47 98 3c 82 fd 04 3d
       0.10025725 -0.049501844 0.018588718 0.032468326
0001a0 12 6f 15 bd 42 df 43 bd d0 59 38 3d 29 7b 06 3e
       -0.036482878 -0.047820337 0.045007527 0.1313292
0001b0 c2 41 ca 3d 75 3f 06 3e 94 1c df 3d 36 57 07 bd
       0.098758236 0.13110144 0.10894123 -0.033042155
0001c0 c3 53 d3 3d f4 b9 b4 bd b2 c9 52 bc 73 6e 33 bd
       0.10318711 -0.0882453 -0.012865471 -0.043806504
0001d0 c2 47 77 bd 70 71 c0 bd 91 5b b9 3d 2e 68 4b bd
       -0.060371168 -0.093966365 0.09050668 -0.0496599
0001e0 b8 3d c3 bd 52 87 7f bc bc 91 d5 3d 14 a8 4d bc
       -0.09533256 -0.015596228 0.10428187 -0.01255228
0001f0 9c 49 1c 3d 7a 0c 49 3d 26 b8 da 3c cc c1 76 bd
       0.038156137 0.049084164 0.026699137 -0.060243413
000200 74 46 f0 3d 4c 37 4e 3d 86 24 07 3e 5b 08 4a 3d
       0.11732188 0.050345704 0.13197526 0.049324375
000210 e6 0b b7 bc e5 41 99 3d fe e6 b5 3c 19 a1 4b bc
       -0.02234454 0.074832715 0.022204872 -0.012428545
000220 50 84 12 3e 02 25 8f 3c ec 80 85 bd ca f4 8b 3d
       0.14308286 0.017473701 -0.065187305 0.06833799
000230 a6 57 ae 3a f6 96 c3 3d fb 2c 18 3e 22 fc d8 3c
       0.0013301268 0.09550278 0.14860909 0.026487414
000240 88 4a 0b 3e 9e 22 97 3c 61 94 09 3e d8 88 88 3d
       0.1360265 0.018449124 0.13435508 0.06666726
000250 34 f1 07 3e da de 1d 3d 22 e3 9a bd bc 4b 8a 3c
       0.13275605 0.038542606 -0.075628534 0.016881816
000260 4e c7 44 3d c0 5b a3 3d d1 7d dc bd 44 57 05 be
       0.048041634 0.07976484 -0.10766185 -0.1302157
000270 2c c8 96 3d fc b5 c7 bc cf ba 58 3d 78 0f ce bc
       0.073623985 -0.02437877 0.05291253 -0.02515386
000280 ca 27 a2 3d 43 25 0a bd ba c2 e1 bd 5a 0c 5c bd
       0.079177454 -0.03372694 -0.11023469 -0.053722717
000290 7e 42 8d bc 22 46 17 be d0 90 ce bd 49 9e a9 3d
       -0.01724362 -0.14772847 -0.100862145 0.082821436
0002a0 98 cc 4e bd aa e1 c9 bd 4f 93 cb bd 27 9a 44 3c
       -0.050488085 -0.09857495 -0.09940206 0.011999643
0002b0 d6 69 05 be 0e d4 f5 bd 76 21 89 3d 72 85 00 be
       -0.13028654 -0.12003337 0.06695835 -0.12550905
0002c0 61 a6 b9 bd da d1 0b bd 26 3e e5 bc 61 ce 6b bd
       -0.090649374 -0.034135677 -0.027983736 -0.057569865
0002d0 41 9d 91 3b 9e d9 16 bd 73 be 7c 3d 4e 59 45 bd
       0.004443795 -0.03682863 0.061705064 -0.04818087
0002e0 aa 7d d0 3c 62 80 77 bc 56 25 60 3d c6 08 5d bd
       0.025450546 -0.015106292 0.054723106 -0.053963445
0002f0 70 5c 9b bd d4 93 75 bd f8 c3 9c 3d 9e 78 59 3d
       -0.075859904 -0.059955433 0.076545656 0.053093545
000300 14 af 28 bc e8 e5 a5 3d 5a 7c 88 3d 9a 9a d6 3c
       -0.010295648 0.08100492 0.06664343 0.026196767
000310 4a 8f 3a bd 1f 2f 44 bc e0 38 70 bd dc 11 b1 bd
       -0.045546807 -0.011974125 -0.05864799 -0.086459845
000320 dc d9 15 3e 56 41 57 bd 53 f7 71 bc 88 33 00 3e
       0.14633888 -0.052552544 -0.014768439 0.12519658
000330 ba 7a 91 bd ee 93 af bc 1a f9 c3 bc a4 1c 71 bd
       -0.07103486 -0.021432843 -0.023922492 -0.058865204
000340 84 9b 36 3c 84 04 23 3c 24 50 c8 3d 12 63 3e 3d
       0.011145476 0.009949807 0.097809106 0.0464812
000350 39 90 a1 3d 9c a3 32 3d fa f0 0a 3d c6 c0 12 3e
       0.078888364 0.04361306 0.03392122 0.1433135
000360 d3 57 55 3b 38 86 ac bd f4 a3 d4 bd 9e ed 81 bd
       0.0032553568 -0.08424038 -0.10382834 -0.0634415
000370 1c 17 c8 3c 2a 13 4b 3d 34 37 89 3d a4 b1 8b 3b
       0.024425082 0.049578823 0.06699982 0.00426312
000380 d6 70 07 3e 5d 64 7c bd 4a 82 af 3d 8e db d3 3d
       0.13226637 -0.06161915 0.085697725 0.10344611
000390 44 c5 94 bc b0 bc 04 3d fc 70 58 bd 7a 3f 5d bd
       -0.01816047 0.03240651 -0.052842125 -0.054015614
0003a0 6f 7a bd 3d 94 2d d6 3c c9 0e ac 3c f4 f4 3e 3d
       0.09251868 0.02614478 0.021003144 0.046620324
0003b0 b2 5b a0 3d 3b 51 e7 3c 22 b8 e4 bc 93 e1 a6 bd
       0.078299895 0.028236976 -0.027919833 -0.081484936
0003c0 46 49 11 3e b4 c5 17 bc 34 e3 cf 3d bc 51 ef 3d
       0.14188108 -0.009263445 0.101507574 0.116855115
0003d0 c8 c4 22 bd 32 bc d2 bc d9 76 23 3e 9e b8 c4 3d
       -0.039738446 -0.025724504 0.15963306 0.096055254
0003e0 93 a4 4a bd c1 39 d7 bb ff ac da 3b 8a 41 b9 bd
       -0.049473356 -0.006568164 0.006673455 -0.09045704
0003f0 2b c7 9a bd f6 14 e3 ba 70 89 bc bb 89 d0 35 3d
       -0.075575195 -0.0017324972 -0.0057536885 0.044388328

lstm.bias_hh_l0 f4 [256]
000000 ee 17 c5 bd aa cd 02 bd 5a ba aa 3d 08 68 61 bb
       -0.09623705 -0.031934418 0.08336325 -0.0034394283
000010 0e 5c 8c 3d e5 c5 1a 3e 9c fe 3d 3d 26 45 b6 3c
       0.068534955 0.15114553 0.046385393 0.02224977
000020 aa f1 ca 3d b2 dc aa 3d 30 58 d2 3d 78 d0 1b 3d
       0.09909375 0.083428755 0.10270727 0.03804061
000030 b4 ec 74 bd 37 f5 9c 3d 26 8a 5e bd 9c ca b7 bd
       -0.05979605 0.076639585 -0.054330967 -0.089741915
000040 6a 5b 22 bd 96 5a 44 3d ac c7 60 bd a8 1e 97 3d
       -0.03963796 0.047937952 -0.054877922 0.07378894
000050 f2 04 1a 3c 45 3f 69 bd 69 ac a9 bd 6a 66 1a bd
       0.009400593 -0.056945104 -0.08284838 -0.037695326
000060 db 7c b3 bd e6 ed 32 3d 41 07 9e 3d 94 40 fb 3d
       -0.08764049 0.04368391 0.07716227 0.12268177
000070 ba e8 d1 3d 30 67 d9 bd 16 c7 9a bd b2 53 ff 3d
       0.10249467 -0.106153846 -0.07557504 0.124671355
000080 0c 88 9e bc f2 ed d3 bc 20 64 9d bc 56 8e b3 3d
       -0.019351982 -0.025870297 -0.019212782 0.08767383
000090 54 f5 a8 bd 66 3b 2e bd 4e 8f 3a 3d 99 23 43 bc
       -0.082499176 -0.042537116 0.045546822 -0.011910343
0000a0 4c 25 3f bd f6 a2 62 3c d0 b0 ef 3d d3 52 e8 3d
       -0.04666643 0.013832798 0.11703646 0.113439225
0000b0 1c 2f c8 bc a6 ce b4 3d da 7b 05 3d 1e bd 18 3d
       -0.024436526 0.088284776 0.032588817 0.03728973
0000c0 46 06 1d 3e 88 5f a9 bd f2 8f 26 bd 15 1a fd bb
       0.15334424 -0.08270174 -0.04066462 -0.0077240565
0000d0 12 cb d9 bb be b2 af bb e2 68 ad 3d f0 54 01 bd
       -0.0066465223 -0.005361884 0.084672704 -0.031575143
0000e0 3b 45 a0 bd 53 28 ab bd ec f9 f1 3d 74 4a cc bd
       -0.07825705 -0.083573006 0.11815247 -0.09975138
0000f0 7f df 58 3d 20 7f 82 3c ea 70 98 bb ba 96 0d 3e
       0.052947517 0.015929759 -0.0046521323 0.13827029
000100 01 e2 71 3a 84 a8 08 3e 99 ed b8 bd c4 cd cb 3d
       0.00092270976 0.13345534 -0.09029693 0.09951356
000110 52 33 26 3e 28 2d a7 3d c6 9b e7 3d 18 3d 56 bd
       0.16230515 0.0816291 0.11309008 -0.052304357
000120 6e 21 02 bd d2 61 fb 3d 57 b7 bc 3d e6 29 ab bd
       -0.031770162 0.12274517 0.09214657 -0.08357601
000130 e0 3c 47 3d a6 c0 7a 3d f6 75 b2 3d 89 67 2f bc
       0.04864204 0.06121888 0.087139055 -0.010705837
000140 7a 6e cb bc 3c a9 ee 3d 54 9f f8 3d 5e c0 e4 bc
       -0.024832953 0.11653373 0.121397644 -0.02792376
000150 d8 c3 e8 bc ea 3a df 3d 82 73 b1 bd f4 b3 b1 3d
       -0.028413698 0.10899909 -0.086646095 0.086769015
000160 aa d8 fc 3d 7e ea 89 3c a6 5f 24 bd 23 78 9a 3d
       0.12346013 0.016835447 -0.04013028 0.075424455
000170 34 9f 60 3d 55 77 c0 3d 5c 63 0e 3e c1 28 e2 3d
       0.054839328 0.09397761 0.1390509 0.110429294
000180 18 45 c5 3d 5a 2a 99 bd a2 a1 c0 3d ca 4f 15 3e
       0.09632319 -0.07478781 0.09405829 0.14581218
000190 ce 20 c0 bd 89 8a 1c 3e 10 11 a6 bd 3e 9d d8 bc
       -0.09381257 0.15287222 -0.08108723 -0.026442166
0001a0 da 9e b8 3d 8f 0d e2 3d 9e 74 5a bd 44 4b b2 3d
       0.090146735 0.11037742 -0.05333387 0.08705762
0001b0 50 b6 ce bd ae 94 bd bb 2e 2d 1f bd 9c c3 9e 3d
       -0.10093367 -0.0057855463 -0.038861446 0.07752153
0001c0 96 bf 0d 3e 38 39 8f bd fc 68 6f 3d 47 51 b3 bd
       0.13842615 -0.069933355 0.05844973 -0.08755737
0001d0 4a b8 79 bd ea 42 96 bd 93 6b a8 3d a5 10 a9 bd
       -0.060966767 -0.073369816 0.08223643 -0.08255128
0001e0 e4 d5 e8 3d 9c f7 82 bd 0f fc b8 3c d4 26 e0 bd
       0.113689214 -0.06394884 0.022581128 -0.10944906
0001f0 57 79 e4 3d d4 1a 74 3d e7 75 bc bd ec fc 61 3d
       0.11155956 0.059595898 -0.092021756 0.055172846
000200 7e d6 f6 bd 37 f6 fe 3d 05 db 77 3d d0 02 bc bc
       -0.1205263 0.124493055 0.060511608 -0.02295056
000210 e0 b8 d9 3c c5 94 b5 3d 87 c1 99 bb 36 d6 39 bd
       0.026577413 0.08866266 -0.0046922597 -0.045370303
000220 43 ed 8a bd 8c c9 1b 3e 28 fa 12 be aa 42 fe 3c
       -0.06783535 0.15213603 -0.1435324 0.031037647
000230 c6 31 ed 3d 20 d1 05 be 6c ff 47 3d ec 7c e8 bc
       0.11581759 -0.13068056 0.048827574 -0.02837988
000240 40 90 fb 3d 9d c1 dd bd 82 a5 de bc 24 25 fd bd
       0.12283373 -0.108279444 -0.02717853 -0.123606
000250 72 5f fa 3d 81 0a 00 bc 4a 8e f6 bc 8c d8 c5 bc
       0.12225236 -0.007815004 -0.030097146 -0.02415111
000260 e5 50 46 bb 8e a4 58 bd 65 f2 a0 3d 28 0c ee 3b
       -0.003026062 -0.052891307 0.07858733 0.0072646327
000270 fc 7a 58 3d 25 d2 07 be 1c 34 83 3d e0 91 4f 3d
       0.052851662 -0.13263758 0.064064234 0.050676227
000280 76 33 0a 3e ce 6d 0d 3e 56 45 ce bd 16 a4 16 ba
       0.13496193 0.13811418 -0.100718185 -0.00057464966
000290 da 88 45 bd e8 94 15 be c0 13 99 bd d9 d2 ae 3d
       -0.048226215 -0.14607584 -0.0747447 0.0853631
0002a0 9e 41 11 3e f9 4b 71 bc 65 ca ec bd 4a 27 c3 bd
       0.14185187 -0.014727586 -0.11562041 -0.09528978
0002b0 84 c7 ed bd fc 2c a0 bd 62 5c c3 3d f8 fa 18 bc
       -0.1161032 -0.0782108 0.09539105 -0.009337179
0002c0 08 35 75 3d e6 71 66 bd c6 ea 64 bc c0 dd d1 bd
       0.059865028 -0.056260966 -0.01397199 -0.102473736
0002d0 a0 91 d9 3d fa 10 59 3d 62 de 81 3d 56 47 04 3e
       0.10623479 0.052994706 0.06341244 0.12917838
0002e0 f5 37 67 3d 6e 6f 73 3d ba 8c 86 bc ce b3 92 3c
       0.05644985 0.05943244 -0.016424526 0.017908003
0002f0 28 65 cc bd 05 d3 65 bc 2e cf 9f 3d e8 83 e3 bd
       -0.099802315 -0.014027362 0.07803188 -0.111091435
000300 ea 99 b6 bd 48 95 af 3d 2b 9c 37 bd 00 66 01 3e
       -0.089160755 0.08573395 -0.044826668 0.12636566
000310 a4 b2 b8 3c e3 a1 16 bc 40 97 42 bd f6 93 ef bc
       0.02254612 -0.00919387 -0.047507524 -0.029245358
000320 a8 c3 7f 3d c2 8c b0 bd b4 ee ce 3c 06 0e c5 3d
       0.06244245 -0.086205974 0.025260307 0.096218154
000330 a3 11 e7 bc fa 40 0b bd fa f5 ac bd cc f2 22 bd
       -0.028206652 -0.033997513 -0.08445354 -0.03978233
000340 00 ab 62 bd d5 c4 45 3c 00 ce b2 3d eb f6 10 3e
       -0.05533886 0.012070854 0.08730698 0.14156692
000350 4b a1 85 3b 12 30 92 bd f4 88 18 3d b0 93 2c bd
       0.0040780655 -0.07138075 0.037239984 -0.042133033
000360 fa 4a 1e 3e 3d 75 11 3e d6 91 02 3d 06 61 14 bd
       0.15458289 0.14204879 0.03187736 -0.03622534
000370 ec 12 bf 3d ae 64 98 bd c4 39 79 3d 4a b9 21 bd
       0.09329781 -0.07441078 0.060846105 -0.039483346
000380 75 fa 08 3c a8 bf bf bb 6a 11 1e 3c e2 ab 0f 3e
       0.008360495 -0.0058517046 0.0096477065 0.14030412
000390 9c 31 b8 3c 0a 7c 2e 3d 76 23 08 3e b2 88 a8 3c
       0.022484593 0.04259876 0.13294777 0.020572994
0003a0 db 0a b7 bd b4 ca 18 3e 29 03 6d bd f4 2e 1c 3d
       -0.089376174 0.14921075 -0.057864342 0.038130715
0003b0 7c 17 bc 3d c7 ce b4 3d 1c 0c 85 bd d9 93 8c bd
       0.09184167 0.08828502 -0.0649645 -0.06864137
0003c0 dc b1 50 3d 8e 51 95 3d 66 3b b4 3d 64 00 3a 3d
       0.05095087 0.07290946 0.08800392 0.04541053
0003d0 ee 72 05 3e 60 9f 14 3e d4 22 a0 bd 2c e3 1b 3e
       0.13032123 0.14513922 -0.07819143 0.15223378
0003e0 5a 93 b4 bd 68 92 74 bd 62 88 85 bd 52 fc a2 bd
       -0.088171676 -0.059709936 -0.065201536 -0.079582825
0003f0 95 c7 00 3c 44 86 11 3c 06 1b 07 bd 83 39 83 3d
       0.007860084 0.008882109 -0.032984756 0.06407454

fc.weight f4 [1, 64]
000000 23 5c b1 be 07 62 19 bf c6 cc ea be 4e 1f 82 be
       -0.34640607 -0.599152 -0.45859355 -0.2541451
000010 54 bb 22 bf b8 53 df be 3e 26 90 be 6f 96 9b 3e
       -0.6356709 -0.4361856 -0.28154176 0.3038821
000020 ce a7 4d be 26 4e a5 3e 3b 82 17 bf ca 7a 08 bf
       -0.20083544 0.32286185 -0.5918309 -0.5331236
000030 0e 75 4a be 9c e3 59 be 9a 06 74 be 58 3d 0e 3f
       -0.19771215 -0.21278232 -0.23830643 0.55562353
000040 70 8a 2a 3f 6e 6a d3 bd f4 90 c9 3e 1d 5e ad 3e
       0.6661749 -0.10323034 0.39368403 0.33860865
000050 96 08 16 3f 07 77 d9 3e d5 c5 50 3e 27 89 c3 be
       0.5860685 0.42473623 0.20387967 -0.38190576
000060 10 36 c4 3e 21 f4 f8 3e 75 42 3b 3f 68 37 f5 3e
       0.38322496 0.48623756 0.7314828 0.47893834
000070 5a 34 2b bd 88 7a 07 be 90 40 86 3e ac 5a ca 3e
       -0.041797973 -0.13230336 0.26221132 0.39522302
000080 a3 26 98 3d 03 14 c5 be 67 65 93 be cf 40 3d bf
       0.07429244 -0.3849183 -0.287883 -0.73927015
000090 61 41 0d 3f bd 35 bc bd f4 4a 62 3e d5 b0 01 3f
       0.55177885 -0.09189937 0.22098905 0.5066045
0000a0 38 98 bf 3e 9a 2d b0 3e 65 67 4b 3e ba 91 6f 3e
       0.3742082 0.3440979 0.1986366 0.23395434
0000b0 e0 43 ab be d7 7e 66 bc 6c fa 09 3f 63 7a 07 3e
       -0.33450222 -0.014068327 0.5389774 0.1323028
0000c0 a1 71 73 3e bc a1 aa 3e af ff ad 3e 60 d1 ce be
       0.23773815 0.3332652 0.33984134 -0.40394115
0000d0 f5 68 fe 3c c2 02 e6 3e fe dd 5c be 68 99 a3 3c
       0.031055907 0.4492398 -0.21569058 0.01997061
0000e0 59 57 92 be 9a f2 04 bf db 22 6b be 12 ab a4 3e
       -0.28582266 -0.5193268 -0.22962515 0.32161766
0000f0 fe 04 9a 3e e0 f7 31 bd f2 34 d0 be a6 e4 c1 3e
       0.30081934 -0.043449283 -0.40665394 0.37869757
