model/fl_checkpoints/global_round_3.pt (torch, 196820 bytes, 7 tensors)

conv1.weight f4 [64, 78, 3]
000000 a6 35 9d 3d 6a 77 5d 3d da 37 a4 ba ab f0 92 3d
       0.07676248 0.05406896 -0.0012528852 0.0717481
000010 b4 71 fb bb 72 1f 0c 3d 68 bb 6a bc 12 70 1a 3d
       -0.0076734666 0.034209676 -0.014326908 0.037704535
000020 50 12 af 3d 50 91 04 bd 06 53 6a 3d 38 5b 0f 3d
       0.08548415 -0.032365143 0.057208084 0.034999102
000030 b4 bc 6b 3d d4 2d 73 3c 7e 1b 25 3d d6 8b 99 3b
       0.05755301 0.014842469 0.04030942 0.004685859
000040 d6 eb 45 3d bf 34 03 3d d2 37 bd bc 96 1b d7 3c
       0.048320614 0.032032724 -0.023097906 0.026258271
000050 d8 2d c6 bc 54 cb 20 bc 4b ed b8 bc e9 c0 40 3d
       -0.024191782 -0.009814102 -0.022574088 0.047058973
000060 f8 a0 50 bd 12 d4 c6 bc 2e 40 55 bc ac 8f 0f bd
       -0.05093476 -0.024271045 -0.01301579 -0.035049126
000070 02 f7 63 3c 18 cf 6e bd 43 9b 92 3d 2a b7 5b bd
       0.013913872 -0.05830297 0.0715852 -0.053641476
000080 7e c6 76 3d 7e 5d a7 3c ac 41 66 bc 44 4e 41 3d
       0.06024789 0.020430323 -0.014053743 0.04719378
000090 18 fd b3 3c 6c 69 5b 3d 0a 3e a8 3c 66 07 3b bc
       0.02197127 0.053567335 0.020537395 -0.011415338
0000a0 b2 aa 8c 3c fe 1a 45 bc ca 85 0e 3d c2 94 86 3d
       0.017171238 -0.012030361 0.03479556 0.06571342
0000b0 50 8f 3d 3d 64 d2 c2 bc 61 9b 3e 3d 54 fc d1 3c
       0.04627925 -0.023781963 0.0465349 0.025633015
0000c0 d6 ca e2 3c 1c 02 31 bd 38 4c 7f bd bd d3 ee bc
       0.02768461 -0.043214902 -0.062328547 -0.029153699
0000d0 6a 13 49 bd f4 5e 6e 3d f7 12 c1 3c b0 09 d8 3c
       -0.04909078 0.058196023 0.023568613 0.026371807
0000e0 92 87 f0 3c 18 6b 61 ba bc 2a 36 3d 5b e9 2c bd
       0.02936152 -0.0008599027 0.04447435 -0.042214733
0000f0 96 5e 7e 3c cc 1e 24 bd c3 b7 2a 3d 32 ec d9 bc
       0.015525481 -0.040068433 0.041679155 -0.026601885
000100 64 4c 8c 3c d7 42 38 bc 58 47 74 3d 65 5b 08 bd
       0.01712627 -0.011246405 0.05963835 -0.033290286
000110 cc 70 f5 bc 52 e5 0e bd 8e e2 71 3d 2e a7 f4 3c
       -0.029961012 -0.034886666 0.05905395 0.029864874
000120 ff f4 6d 3d fe 3c 70 bd 30 1b 7c bd c2 b4 24 bd
       0.058094975 -0.058651917 -0.061549366 -0.040211447
000130 46 26 16 bd 3a 0a 2f 3d 2c 77 d1 3c 34 22 7d 3d
       -0.036657594 0.042734362 0.02556952 0.061800197
000140 6a 99 08 bd a6 0e 12 bd 8b 30 1e 3d 4c 1c c8 bc
       -0.033349432 -0.0356585 0.038620513 -0.024427556
000150 2a a1 45 3d a9 36 27 bc fd a6 34 3d d0 56 46 bd
       0.0482494 -0.010205903 0.044104565 -0.048422635
000160 e8 2f c8 bc ba 55 c6 3c b4 04 6f 3c 10 40 8d bc
       -0.024436906 0.0242108 0.014588524 -0.017242461
000170 eb 2c 3c 3d 42 07 36 3d dc 2c 42 bd 5c f3 0e bd
       0.045941275 0.044440515 -0.047406062 -0.034900054
000180 02 7c 9a 3d d6 21 96 bc 48 c9 44 bc 1f 8b 81 bd
       0.07543184 -0.018326681 -0.01201088 -0.06325363
000190 26 57 19 bd dc c6 85 3c 09 14 25 bc 6a fb 4f bd
       -0.037436627 0.016330175 -0.010075578 -0.050776877
0001a0 fa 6c 9a bb 26 e2 3a bd 9c 04 79 bd 9e df 21 bd
       -0.004712698 -0.04562583 -0.06079541 -0.0395199
0001b0 6f 02 46 bd ab e7 13 bd 66 31 a4 3d fb 38 b7 3c
       -0.048342165 -0.036109608 0.080172345 0.022366038
0001c0 b5 04 e1 3c c8 65 93 bd 7b f5 2b bd 1c dc 86 bc
       0.027468065 -0.071971476 -0.041982155 -0.016462378
0001d0 9e d4 64 3c a5 68 40 bd 1a 70 d1 bc 0e e2 f0 bc
       0.0139667075 -0.046974797 -0.02556615 -0.029404666
0001e0 7c 0b 1a 3c e0 34 c4 bc fc 3f 1d 3c 8e ff 14 bd
       0.009402152 -0.023950994 0.009597775 -0.03637653
0001f0 44 1b 33 bd 06 52 f0 bc 02 52 6d bc 53 72 4e bd
       -0.043727174 -0.029335987 -0.014484884 -0.050401997
000200 60 19 6c 3d ac cc 68 ba 4c 50 93 3d 1d ba b7 3c
       0.057641387 -0.0008880596 0.0719305 0.022427613
000210 2a 98 5f bd 14 f2 36 3d db 6a 34 bc 18 dc e1 bc
       -0.054588474 0.044664457 -0.011011804 -0.02757077
000220 de e8 5c bd 5a 05 76 bd e6 e2 63 3c f0 e7 a5 bc
       -0.053933017 -0.060063697 0.013909077 -0.020252198
000230 fa 3e b0 3c db 2b 45 bd 3c e9 58 3d 7a 3f 26 bd
       0.021514405 -0.048137527 0.052956805 -0.04058788
000240 c6 3b dc ba 40 21 d1 3c 02 c9 2c 3d 63 fa 8b 3d
       -0.0016802482 0.02552855 0.042183883 0.06834867
000250 a3 9a 81 3d f4 95 26 bd d5 62 64 3c 4c a3 e3 bc
       0.06328323 -0.04067035 0.013939579 -0.027787827
000260 e0 9d 12 bb 08 d1 1c bd 66 d8 97 3d ce 55 06 bd
       -0.0022371933 -0.038285285 0.074143216 -0.032796673
000270 48 1c 31 3d 32 f7 bd 3c 68 b4 0c 3d 8c 07 0e bd
       0.04323986 0.023189161 0.034351736 -0.034675166
000280 c4 b4 85 3d d5 46 a2 3c a4 6a a5 3c 5d e6 68 bd
       0.06528619 0.019809166 0.020192452 -0.056860317
000290 e6 40 27 3d fa 62 38 bc 02 49 08 bd 2d 69 4c 3d
       0.040833376 -0.011254067 -0.03327275 0.04990499
0002a0 61 ca 6e 3c bf 25 14 bd 96 86 07 bd 9a 98 4c bb
       0.014574618 -0.03616881 -0.033087336 -0.0031218887
0002b0 4e 82 15 3d 70 d8 88 bc 84 c7 18 bd 3e 63 b7 bc
       0.03650122 -0.016704768 -0.037299648 -0.02238619
0002c0 27 0a 48 bd 92 fc be 3c 92 42 4f 3d 72 15 7c bd
       -0.048837807 0.023313794 0.050600596 -0.06154389
0002d0 e0 c0 78 3c 1c 53 0a 3d be 36 42 3c f2 b6 be bc
       0.015182704 0.033770666 0.011853872 -0.023280594
0002e0 dc c1 0b 3d a6 b6 0c 3d ae cd 2b 3d f6 77 47 bc
       0.034120426 0.034353875 0.0419442 -0.012174597
0002f0 2c c6 2c 3c fe 1c 85 3c aa 28 b6 bb 60 32 2f bc
       0.010545295 0.016249176 -0.0055590468 -0.010693163
000300 2e 07 6b 3d 7d b3 67 3d c1 77 85 3c 90 ba 3c ba
       0.057379894 0.056567658 0.016292455 -0.0007199431
000310 b4 01 93 ba a1 4a 97 3c db 7d 15 3c 96 50 77 3c
       -0.0011215718 0.018468203 0.009124245 0.015094897
000320 00 b5 8e bd ad 69 6c bc 40 53 65 3d c4 d7 e5 3c
       -0.06968117 -0.014429492 0.055987597 0.028056987
000330 70 c6 cf 3b 8a df 07 bd f2 4d d0 bc ce e3 77 bd
       0.0063407943 -0.033172168 -0.025427792 -0.060519986
000340 b4 89 c2 bc 19 96 74 3c a0 1c 4c 3d 2e f2 d2 3c
       -0.023747303 0.014928364 0.049831986 0.025750246
000350 90 a5 38 bd 03 64 c3 bc b0 31 3f bc cc 6d a3 3d
       -0.045079768 -0.0238514 -0.011669561 0.079799265
000360 a1 ab b4 3c 7a 48 a6 bc 11 cd 37 3d 95 91 b0 bc
       0.022054495 -0.020298231 0.0448733 -0.021553794
000370 0f bc 33 bd 0c fe 4e 3d 76 6f c2 bc e9 4d 13 bc
       -0.04388052 0.050535247 -0.02373479 -0.008990743
000380 3e 43 54 bd a0 7c 5b 3d 2e ee 59 3d 3c 94 29 3d
       -0.05182194 0.05358565 0.05320566 0.041401133
000390 a4 0c 20 bd 66 d7 7c bd 87 a3 25 bd ed bd 5c 3d
       -0.039074555 -0.061728857 -0.040439155 0.053892065
0003a0 06 7e 14 3d e7 0d 89 3d b0 20 05 3d da f6 3a 3c
       0.036252998 0.06692105 0.032501876 0.011411393
0003b0 1e 2b 59 bb 02 f6 65 bd bd d9 84 bd 34 fa 85 bd
       -0.0033137272 -0.056142814 -0.06486843 -0.06541863
0003c0 12 c4 2b 3c 9c 62 26 bd 06 3d fe bc 38 55 58 bd
       0.0104837585 -0.040621385 -0.031034958 -0.052815646
0003d0 62 8f ba bc df 31 8d bd 94 75 63 bd f7 eb 46 3c
       -0.022773448 -0.06894278 -0.055532053 0.012141219
0003e0 cb 24 0e bd 42 a0 e9 3c e4 31 e1 bc 6a 1b 8a bd
       -0.034703057 0.0285188 -0.02748961 -0.0674351
0003f0 ee d8 c9 bc 96 1f 17 bd 76 95 02 bd 0e ff 86 bd
       -0.024639573 -0.036895357 -0.03188082 -0.065916166

conv1.bias f4 [64]
000000 47 66 3b bc 74 f5 f7 bc de 16 0d 3d 37 c5 65 3d
       -0.011437959 -0.030268408 0.034445636 0.05609628
000010 b4 70 82 3d 5a 5b 2f 3d e2 95 02 3d 92 fb 93 bb
       0.06369153 0.04281173 0.03188122 -0.0045160735
000020 08 85 07 bd d0 66 bd 3c 72 ef 42 3d b6 d2 5d bb
       -0.033085853 0.023120314 0.047591634 -0.0033847517
000030 9c 84 87 bb 92 40 a1 bb 50 6c 5b bd b3 e9 61 3b
       -0.0041356813 -0.0049210275 -0.05357009 0.003447157
000040 34 a8 20 3c fe 08 82 3d 0d 17 ad 3c c8 a1 85 3d
       0.009805728 0.063493714 0.021129156 0.06524998
000050 0d c0 04 bc d8 28 3e 3d 6b 62 e4 bc a6 14 c2 3c
       -0.008102429 0.04642567 -0.02787896 0.023691487
000060 f8 80 86 3d 00 9c 8c 3c cf 5c f1 bc 60 a6 02 3d
       0.065675676 0.01716423 -0.0294632 0.03189695
000070 9a 5e 7e bd 7e 80 fe 3c dc 9c 18 bd ac e7 4d 3d
       -0.062101938 0.03106713 -0.037258968 0.050269768
000080 2d eb 20 3c 20 11 bc 3c c6 be d3 bc 00 fc f5 38
       0.009821695 0.022957385 -0.025847804 0.00011729449
000090 40 97 0d bd 16 08 65 3d 46 2b bb 3c f2 fc 0c bc
       -0.03456807 0.055915914 0.022847783 -0.008605229
0000a0 ca 63 da bc 1c ad 3d 3d eb 00 27 bd 07 b0 d5 3c
       -0.026658911 0.046307668 -0.04077236 0.026084913
0000b0 56 8e d4 bc fb 35 02 bc 28 ea 47 3d 4e ef 00 bb
       -0.025946777 -0.00794744 0.048807293 -0.0019673887
0000c0 86 d9 43 3d f4 a2 cc bc 15 14 5b 3d 3c a7 6b bd
       0.04781487 -0.024980046 0.05348595 -0.057532534
0000d0 d0 38 84 bd 3b da 76 bd 0b ad 8b bd 44 d9 ed ba
       -0.064561486 -0.060266715 -0.06820115 -0.0018146415
0000e0 e6 db 93 bd ba 1f 13 3c cd 81 a0 bc 0f 1a 50 3c
       -0.07219677 0.008979732 -0.019593144 0.012701525
0000f0 fd 24 70 bc 34 c3 c8 3c 54 68 10 bc ce 7f 47 bd
       -0.014657256 0.024507143 -0.008813936 -0.04870587

lstm.weight_ih_l0 f4 [256, 64]
000000 b6 4d ae 3d fd b4 2f 3e c4 05 f2 ba d1 a8 5a 3e
       0.08510916 0.17158885 -0.0018464853 0.21353461
000010 76 2b df 3d bc ad 58 bd ac 3b 34 3d 12 0e 64 3b
       0.108969614 -0.05290006 0.04400222 0.0034798426
000020 d6 0f a1 3d c1 dd 1a 3d 2f 84 aa 3d 92 33 cd 3d
       0.078643486 0.037809137 0.08325993 0.10019602
000030 9c 89 79 3e ad 89 84 3d 76 3d 25 3e d1 77 a9 3e
       0.243689 0.06471572 0.16136727 0.33099225
000040 9f 1e 4b 3e 81 f9 56 3c 02 db ab 3d 23 ab 4f 3e
       0.198359 0.01312101 0.08391382 0.20280127
000050 fd 7b 00 3d 1a 51 b3 3d 23 2c aa 3d 8f fa a4 3e
       0.031368244 0.08755703 0.083092 0.3222241
000060 26 b8 8b 3e f4 0a 28 bd cb bd 10 bd 27 2b 83 3d
       0.27288932 -0.04102607 -0.03533725 0.06404715
000070 44 ce 98 bd f2 3e c7 3c a5 c7 3b 3d 10 da 6a 3d
       -0.07461217 0.024322007 0.045844693 0.057336867
000080 24 cc a5 3e f4 e9 57 3c 21 ed 52 3e 68 04 9f 3d
       0.3238231 0.013178337 0.2059827 0.07764512
000090 1f 20 87 3d 3a 00 89 3e 83 a5 e1 3d 09 b0 25 3e
       0.065979235 0.26757985 0.11017897 0.16180433
0000a0 11 fc 2f 3d 3f 34 66 3e 24 1d 7c 3e 84 ec 27 3e
       0.042965 0.22480868 0.24620491 0.16398817
0000b0 43 ba ce bd 37 3a b7 3e 59 28 1f 3e 54 98 34 3e
       -0.1009412 0.35786602 0.15542735 0.17636234
0000c0 42 f6 5b 3e ba b8 ba bd cf f2 93 3e 1d bd 32 3e
       0.21480659 -0.09117265 0.28896186 0.17454953
0000d0 4f e2 aa 3d 86 c3 3f 3d 4a 18 3a 3e 95 f2 41 3d
       0.08343946 0.046817325 0.18173328 0.047350485
0000e0 7a 0c 37 3e 10 86 67 3e 44 92 b8 3b 19 d9 49 3e
       0.17875853 0.22609735 0.0056326706 0.19711722
0000f0 26 79 ac bd a4 65 c8 3d 28 3f 88 3e 4c 74 87 bc
       -0.08421545 0.097850114 0.26610684 -0.016534947
000100 ca e3 80 bd 31 c5 a5 be 10 cb 37 be 88 7a 9c 3e
       -0.06293447 -0.32377008 -0.17948556 0.30562234
000110 14 5d 54 3e e8 e3 2c 3d fb 70 74 3d 68 2c 9b 3c
       0.20738631 0.042209536 0.05967806 0.018942073
000120 11 cc 92 3d 10 56 fc 3e 63 87 51 3d 56 77 47 3e
       0.07167829 0.4928441 0.051154505 0.19479117
000130 91 23 c4 bb b5 3e 4e 3e fc 21 0e bd 34 66 7c 3e
       -0.005985685 0.20141108 -0.03470038 0.24648362
000140 03 dd f1 3d 20 52 6f 3d 42 19 c1 3c 75 2a 17 3d
       0.11809733 0.05842793 0.023571614 0.036905725
000150 a6 48 0c be 8e 6c 2a 3e 17 d0 8b bd 0e 0e 9a 3e
       -0.13699588 0.16642973 -0.06826799 0.30088848
000160 57 1a 8c be d8 78 19 3e 1f a9 fa 3e 16 be 62 3e
       -0.27363846 0.14987504 0.48957154 0.22142825
000170 96 63 5d 3e 0f f6 0a be 19 82 e2 bd c4 cf 38 bd
       0.2162002 -0.13570426 -0.110599704 -0.045120016
000180 81 18 1e be 71 a2 43 3e 75 e0 64 3c 63 75 f8 bd
       -0.15439035 0.19104935 0.01396953 -0.12131765
000190 1b 28 03 3e c7 28 33 3d be 17 81 3e 84 23 87 3d
       0.12808268 0.04374006 0.25213426 0.06598571
0001a0 bb 86 2f 3d 18 33 13 3f 16 3b 81 bd 74 c9 19 3e
       0.0428531 0.5749984 -0.06310098 0.15018255
0001b0 c5 74 8f be 80 14 07 3e 54 30 af be b4 0e 5d be
       -0.28018776 0.13191414 -0.3421656 -0.2158764
0001c0 67 0e c1 3d c8 16 cf 3c cc 30 06 3e 63 f4 b6 3d
       0.09426575 0.025279418 0.13104552 0.08933332
0001d0 23 74 c7 3d 71 bc 38 bd 68 75 6b 3c 02 78 84 3e
       0.09738948 -0.045101587 0.014371254 0.2587281
0001e0 26 71 61 3d 0a 1d 13 be 15 bf a6 3e 9b 98 b5 bd
       0.055039547 -0.14366546 0.3256766 -0.08866998
0001f0 4d 92 9e 3d 8e 78 5d be 0d 4a c8 3e 48 4d 31 be
       0.077427484 -0.21628019 0.39118996 -0.17314637
000200 f0 eb bd 3d f7 bb b3 3d 34 09 b1 3e 64 2c d7 3b
       0.09273517 0.08776086 0.34577334 0.006566571
000210 2c 0d 29 3e 9e 8b 9d 3d d9 eb 2b bd c4 88 4c be
       0.16508931 0.076926455 -0.04197297 -0.19974047
000220 99 61 87 3d ba c3 d5 3b d2 96 25 3e a0 8a bb 3c
       0.06610412 0.0065235766 0.16170815 0.02289325
000230 bf 86 3c 3c c9 ba 4d 3e 88 98 ff 3d c5 29 09 bd
       0.011506735 0.20090784 0.12480265 -0.0334871
000240 37 a5 7d 3d ef 4a e5 3d e1 4c 98 bc 3e 81 ac 3d
       0.06192514 0.11195933 -0.018591346 0.084230885
000250 7e fd 47 bd b8 7e 00 be 12 d8 15 3e 16 af df bd
       -0.048825733 -0.1254834 0.14633206 -0.10922067
000260 b5 bb 3c 3e 31 d1 31 3e 4b e8 87 bc 34 07 54 bd
       0.1843098 0.17364956 -0.016590258 -0.051764682
000270 d0 3a 89 3d e0 10 2b bb 2f bf ab 3e f6 52 cc 3e
       0.06700671 -0.0026102588 0.335443 0.39907044
000280 d4 98 79 bd 37 e3 1a be 77 a6 34 bd de d2 f8 bc
       -0.060936764 -0.15125738 -0.044104066 -0.030373987
000290 e5 ca 29 3d 10 35 88 bd 68 1d 15 3d 80 7f ab bd
       0.04145326 -0.06650746 0.036404997 -0.08373928
0002a0 22 67 58 3e 78 f5 69 3d f3 eb c0 3c ff d4 70 3e
       0.21133092 0.057118863 0.02355001 0.23518752
0002b0 69 eb 1d be 6c 5c ed 3d f2 24 44 3e d6 84 49 3e
       -0.15421833 0.11589894 0.19154719 0.19679579
0002c0 d8 11 c2 3d 78 bf 74 bc 74 07 85 bd 9c db 53 bd
       0.0947606 -0.014938228 -0.06495562 -0.051723108
0002d0 37 e5 89 bd 03 9a 8f 3e 04 29 87 3d 7e 6b 69 bd
       -0.067331724 0.2804719 0.0659962 -0.05698728
0002e0 c0 fa 68 3e f1 d7 2d bd 97 80 86 3e 3c c1 ad bd
       0.22751904 -0.042442266 0.2626998 -0.08484122
0002f0 b0 6b ab 3b e3 90 05 be 16 09 8c 3e 3b 6d a3 bc
       0.005231343 -0.13043551 0.27350682 -0.019949546
000300 00 9c 65 bd 82 22 53 3e a4 b1 03 3d 52 1f d3 bc
       -0.056056976 0.20618632 0.032151833 -0.02577177
000310 90 10 d0 3c 6b e2 89 3c 68 43 3f bc c1 72 a4 3c
       0.025398523 0.016831597 -0.011673786 0.02007425
000320 0a c9 dc 3d b9 4b 4d bc d3 fe 46 3e 76 69 55 3d
       0.10780533 -0.012530261 0.19433145 0.05210253
000330 10 ae 84 3c a1 18 47 3d d8 29 f2 3d 72 20 ce 3d
       0.01619628 0.048607472 0.11824387 0.10064782
000340 73 fe e3 bd b8 12 a8 bd c8 c2 8c 3d 2d 1c f4 3d
       -0.11132517 -0.08206695 0.06873089 0.119194366
000350 20 84 36 bb b0 2f 5a be c2 38 54 bd b1 ea 0a 3e
       -0.0027849749 -0.21307254 -0.05181194 0.1356609
000360 54 10 5d 3d b8 eb c5 3c dd 57 02 bd e4 f9 b0 3d
       0.05397065 0.024160251 -0.031822074 0.08641413
000370 2a 6f c1 bd 8b 6c e4 bc f6 b6 60 3c ac 4c 87 3e
       -0.09445031 -0.027883789 0.013715496 0.26425683
000380 c2 ee 5e 3d 84 d4 df 3d 43 d3 b1 3d d6 84 b6 bd
       0.054426916 0.10929206 0.08682873 -0.08912055
000390 86 67 be 3b 42 11 c4 3d c0 c9 25 be 25 af 19 bd
       0.005810681 0.09573604 -0.16190243 -0.037520546
0003a0 2e 1e 66 3d d0 c2 f1 3d 77 c0 68 bd 50 de 03 3e
       0.056181125 0.11804736 -0.056824174 0.12877774
0003b0 09 6d 09 be 40 11 ea 3d b5 4d 8f bd 2e 85 40 3e
       -0.134205 0.114290714 -0.06997243 0.18800804
0003c0 3e eb 64 3b 72 8e 8c 3c 8e 66 ae bc d5 af 9e 3d
       0.0034930254 0.017157767 -0.021289136 0.07748381
0003d0 a9 c2 a3 bd d0 83 87 bd dc 8d 83 bd 1d c6 aa bd
       -0.07996113 -0.06616938 -0.06423542 -0.08338568
0003e0 17 6b 09 be e0 1e 8c 3d 2e 07 fe bc 28 b4 24 3e
       -0.13419758 0.068418264 -0.031009283 0.16084349
0003f0 b2 77 52 3d df 00 a0 3d ca 69 cb 3d 3e 73 17 3e
       0.05138368 0.07812666 0.09932287 0.14790055

lstm.weight_hh_l0 f4 [256, 64]
000000 66 ae d6 bd f7 08 9b bd 3a d2 54 3e ea 82 9e 3e
       -0.104824826 -0.07570069 0.2078332 0.30959255
000010 0c 0a b8 bd d6 5f 62 be 9c e1 1e 3e 28 c6 47 be
       -0.08986291 -0.22106871 0.1551575 -0.19509184
000020 a3 c1 4a 3e f7 b8 9a be 12 cd b3 3d 26 07 b2 3e
       0.19800429 -0.30219242 0.087793484 0.3477108
000030 cd 7e af 3e ed a2 78 3b cd 4c 08 3f da b9 3e be
       0.3427643 0.0037938908 0.5324219 -0.18625584
000040 c1 10 56 3e 79 e6 16 3e 83 81 6f 3e a4 f2 6e be
       0.20904829 0.14736356 0.23389249 -0.23334748
000050 ee 39 21 3e ae c5 8f be b7 43 61 be c7 c2 8b 3d
       0.15744755 -0.28080505 -0.21998487 0.0682426
000060 dd e7 52 be 8b 91 96 be db 0b 45 be a8 4c 63 be
       -0.20596261 -0.29407915 -0.19242804 -0.22197211
000070 f4 5f cc 3e 1b d7 9c be c0 02 5b be 7b bf 24 bd
       0.39916956 -0.30632862 -0.21387768 -0.040221673
000080 5c 23 dd 3c dd 18 85 3e 1c 8f a7 3c 19 61 75 3d
       0.0269944 0.25995532 0.020453982 0.059907053
000090 10 a7 5a bd 2c 3f b0 be 0c 77 bd bd 6a a8 f0 3d
       -0.05338198 -0.34423196 -0.09251222 0.117508724
0000a0 ce 75 2d bd 80 2f dc bd 7c 91 8f be 26 2a 46 be
       -0.042348675 -0.107512474 -0.28040683 -0.19352016
0000b0 6a b3 07 3e b8 45 9c be 99 d1 9a 3e 8a 10 c5 be
       0.13252035 -0.3052194 0.30238035 -0.3848918
0000c0 58 9d ee bc 84 59 3e be 50 ba 18 3d d0 07 85 be
       -0.029127762 -0.18588835 0.037287056 -0.25982523
0000d0 ee 2a 4d be 01 eb 17 3d de bf 86 3e 4e 80 a2 3e
       -0.20035908 0.03708935 0.26318258 0.31738514
0000e0 ef ba 24 3e e0 49 b9 bd 03 3b 25 3e c5 85 a2 be
       0.16086935 -0.09047294 0.16135792 -0.31742683
0000f0 a6 1a 52 3d 73 65 c8 3c 5b 21 30 3e 9a 89 ba 3e
       0.051294945 0.024462437 0.17200224 0.36433107
000100 77 b6 e8 3d b7 0c b7 3d 31 4e 1f 3d dd 18 12 3e
       0.113629274 0.08937972 0.03889293 0.14267297
000110 96 eb a8 bc 14 2e 71 be 9a 9e 73 3e 1a cc 82 bc
       -0.020620149 -0.23552734 0.2379097 -0.015966464
000120 46 a9 5f 3e 74 77 3a bc ad 9b 26 3c d7 89 0b be
       0.21841916 -0.011381019 0.010168952 -0.136268
000130 62 32 a0 3e 56 cb 6d 3d ac 3d 8e 3e e1 f7 77 be
       0.3128844 0.058055244 0.27781427 -0.24215652
000140 ae fd a9 3c 4b 36 cb 3d d1 44 0a 3e 40 f4 d9 bd
       0.020750847 0.09922465 0.13502814 -0.1064229
000150 27 ff 2c 3e a3 73 6a be 31 22 dc bd 30 79 65 bd
       0.16894208 -0.22895674 -0.10748709 -0.056023777
000160 2e e4 0d be f8 97 ad bd 27 b7 b7 3b 35 b6 9c be
       -0.13856575 -0.08476251 0.0056065503 -0.30607763
000170 a0 0e ab 3e 17 76 80 be e3 38 3c be e6 0e 55 bd
       0.33409595 -0.25090095 -0.18381076 -0.05201616
000180 19 49 2c bd bf 5c 4e 3e 90 24 1e 3e a2 74 7b bd
       -0.0420619 0.20152567 0.15443635 -0.061390527
000190 6a 45 5f 3d 48 66 89 be 13 6e 49 be 5c 36 1a 3e
       0.054509558 -0.26835847 -0.19670896 0.15059799
0001a0 1d 51 6c 3e 7d a2 05 be 79 2e 33 be e5 06 bf bd
       0.23077817 -0.13050266 -0.17498197 -0.09327487
0001b0 2c 46 aa bd b3 74 8d be 77 de 8a bd ec 0f 23 be
       -0.083141655 -0.27628097 -0.06780713 -0.15924042
0001c0 52 97 1b 3d 4e 03 4b be 86 6b 5d 3d 83 41 b3 be
       0.037986107 -0.1982548 0.05405762 -0.3501092
0001d0 c5 de b4 be ad 7d f7 3d 1a 5c 14 3e 7e 7e 1a 3e
       -0.3532621 0.12084518 0.14488259 0.15087315
0001e0 2c 97 10 3e b6 a8 7d bd bf 2c 0f 3e d5 13 00 be
       0.14120167 -0.061928473 0.13981913 -0.12507565
0001f0 8c 7a 49 be 7e b1 ad 3e 96 a4 5a 3c c2 0e 60 be
       -0.19675654 0.33924478 0.013344904 -0.2188063
000200 16 5c ba bc e8 10 cb 3d 59 70 d4 3d b2 aa 87 3e
       -0.022748988 0.09915334 0.10372991 0.26497418
000210 9e 56 8f bd 3c 24 90 be f8 aa c7 bd 22 89 6d be
       -0.06998943 -0.28152645 -0.097494066 -0.23196843
000220 79 8d da 3d 6e 22 a4 3c f0 56 0b bd f2 e5 67 3e
       0.10671515 0.020035949 -0.034018457 0.22646311
000230 8e 85 54 3e 20 93 ee bb 04 e4 45 3e 25 f2 12 bd
       0.20754072 -0.0072807223 0.19325262 -0.03587546
000240 04 17 01 3e c4 3a 73 3e 04 7d 8a 3e 04 24 25 be
       0.12606436 0.23752886 0.27048504 -0.1612702
000250 ef 80 4a 3d 7d 2e 96 be ce 92 a7 3b ba 25 b9 bd
       0.049439367 -0.29332343 0.005113936 -0.09040399
000260 c8 b1 b5 3d cf 95 3a be 24 df 0b bc 8a 2e 00 be
       0.088718 -0.1822121 -0.008537088 -0.12517753
000270 9f 6e 22 3e 80 ff 7a be c3 c1 f4 bd ec 3c e3 3a
       0.15862511 -0.24511528 -0.119510196 0.0017336882
000280 b3 8a 61 bd 45 cb 31 3e 8b 9f 03 be fc 0e 18 bd
       -0.055063915 0.17362697 -0.1285383 -0.037123665
000290 32 ee 2b bd b3 4f 79 be 34 e3 96 3d 9a a2 b2 3b
       -0.041975208 -0.24346809 0.07367554 0.0054515125
0002a0 4c 52 f8 3d a2 e5 2f 3e a3 a8 02 be 44 d0 10 be
       0.12125072 0.17177442 -0.12759642 -0.14141947
0002b0 aa 31 c2 3d 41 04 23 be 59 59 54 3e 1d a4 87 be
       0.09482129 -0.15919591 0.20737208 -0.26492396
0002c0 45 32 03 3c 9b 53 41 be 17 a7 33 3e 44 d2 91 be
       0.008007591 -0.18879549 0.17544208 -0.28480732
0002d0 45 4b 31 be 32 ab bf 3c d3 24 d9 3d 8f 73 05 3e
       -0.1731387 0.023397062 0.10602727 0.13032363
0002e0 fd 73 32 3c bb d5 44 be 5e fa 04 3e 9f 69 30 be
       0.010891912 -0.19222157 0.12986133 -0.17227791
0002f0 e1 b0 be bc da d3 a5 bc 8c 37 8d bd 10 3f 78 3e
       -0.023277702 -0.02024262 -0.0689536 0.24242806
000300 6f 7c c6 bd 2e bc 16 3e 1b 53 88 bd 05 32 da bc
       -0.096917026 0.14720222 -0.06656476 -0.02663518
000310 d3 db 16 be 35 f9 cb bd 98 16 28 bd 88 73 23 be
       -0.14732294 -0.09959642 -0.041037172 -0.1596204
000320 5c 51 06 3e 30 e2 38 be 7b 07 64 be a9 a3 83 3c
       0.13116974 -0.18055034 -0.22268479 0.01606925
000330 a1 7d 74 3d d2 10 5d 3d ef e4 52 3e 86 aa 0e be
       0.05969012 0.05397112 0.20595144 -0.13932237
000340 09 e3 41 3e a9 e4 25 3e a8 19 08 3d d4 3c 4c bd
       0.18934263 0.16200508 0.033227593 -0.049862698
000350 b3 f7 3e 3e 29 8f c5 3d a4 0e 99 bc f6 40 4a bd
       0.18649177 0.09646446 -0.018683739 -0.049378358
000360 02 04 aa 3d 12 d2 2b be f2 71 2d bd d7 ab 43 bd
       0.08301546 -0.16779354 -0.042344995 -0.0477713
000370 c4 76 51 3e 8d 0a 66 bd 58 35 13 bd e0 ae 36 3e
       0.20455462 -0.056162406 -0.035939544 0.17840147
000380 ea 40 29 3e ff 4a b3 bc 26 88 3e 3c f7 20 31 be
       0.16528669 -0.021886347 0.01162914 -0.17297731
000390 6c a5 d1 bc e0 89 16 be 15 f3 06 3d af 92 15 3e
       -0.025591575 -0.14701033 0.032946665 0.14606737
0003a0 82 b7 14 bd 36 a7 bf 3d de 6d d9 3b 2c 55 18 bd
       -0.03630782 0.09358065 0.0066354116 -0.0371906
0003b0 c7 35 15 be 9c 76 2e ba c5 07 6c 3e 1e 5c 9a bd
       -0.14571296 -0.00066552474 0.23049839 -0.07537101
0003c0 00 2e 08 3e ce 69 02 3d 46 2a d2 3d 8a a7 ac bd
       0.13298798 0.031839184 0.10261969 -0.08430393
0003d0 4a 27 b6 bd 9f 3c cd bd bc 78 f8 3d 4c f7 4f 3e
       -0.088942125 -0.10021328 0.12132403 0.2030918
0003e0 ea eb 81 3d 3e 4b 82 3d 45 f7 d1 3d 54 2e f8 3c
       0.06343825 0.063620076 0.10252241 0.030295528
0003f0 19 c5 50 bd 09 ec bd bd e1 90 e4 3c 30 a7 8f bb
       -0.050969217 -0.09273536 0.027901115 -0.004383944

lstm.bias_ih_l0 f4 [256]
000000 33 53 dd 3c 0d 48 f0 3d 42 9f dc 3d 95 4d 8f 3c
       0.027017212 0.117324926 0.107725635 0.017493049
000010 ef 20 06 3d 10 7a ce 3d ab 2b a5 3d 52 5c ea 3d
       0.03274625 0.10081875 0.0806497 0.1144339
000020 bc 9c ab bd 0c da 72 bd 78 36 91 3d aa 99 d2 3d
       -0.08379504 -0.059289977 0.07090467 0.10283215
000030 5b d6 21 3d df f3 27 bd 7c 34 b8 3d e3 ba 61 bd
       0.039511066 -0.041004058 0.089943856 -0.05510987
000040 7a a0 61 bd d0 92 b2 bd d5 70 0e 3d e6 7e b0 bd
       -0.055084683 -0.087194085 0.034775574 -0.08617954
000050 b5 b4 81 bc aa 91 b4 bd 0c 15 86 bd 74 c6 86 bd
       -0.015833238 -0.08816846 -0.06546983 -0.06580821
000060 0d 20 87 bc 23 ee 92 bc 5a 19 09 3d db 7c 9c bd
       -0.016494775 -0.017935818 0.033471443 -0.07641002
000070 69 1a a2 bd a2 e2 71 3d f7 2d 7c bd 9a e2 9e bc
       -0.079151936 0.059054025 -0.061567273 -0.019395161
000080 97 62 17 3d 25 62 ec 3c 62 21 11 bd 96 da cd bb
       0.036959257 0.028855393 -0.035432227 -0.006282161
000090 ce f7 3f bd 9e 94 f4 bd 2c 7e b9 3d b4 38 f4 bc
       -0.046867184 -0.11942409 0.090572685 -0.029812194
0000a0 ba 09 a2 bd 7e 4b 8a bd c0 3d 00 3e 21 c4 c6 3d
       -0.079120114 -0.0675268 0.12523556 0.09705377
0000b0 2f c4 e1 3d 9e e2 f8 bd b0 45 36 bd 9f 09 d4 bd
       0.11023747 -0.12152599 -0.044500053 -0.103533976
0000c0 09 57 89 3b b4 ff de 3c 40 0d 99 bd b6 71 66 bc
       0.0041912836 0.027221538 -0.0747323 -0.014065197
0000d0 04 81 a3 bd 13 ad fc 3d a9 99 a4 3d 17 d2 0d bd
       -0.07983592 0.12337699 0.08037121 -0.034624185
0000e0 6f 5d 46 3d 92 93 c9 3d c8 fa f8 bd 1d 8a 00 3e
       0.04842895 0.098426 -0.12157208 0.12552686
0000f0 18 fb ed bd 56 69 4c bc 05 a7 ed 3d 36 6c 2c bc
       -0.11620158 -0.012476286 0.11604122 -0.010523846
000100 a2 14 84 3d cd 79 87 bd a0 5c a6 3d e5 0c 29 bd
       0.06449248 -0.066150285 0.081231356 -0.041272063
000110 06 f5 5e bd 1f 02 ac 3b 12 be a3 bc e0 30 2d bd
       -0.05443289 0.0052492763 -0.019988094 -0.04228294
000120 c0 f4 a5 bd c4 91 bd 3d 46 d6 58 bd d0 73 21 bd
       -0.08103323 0.09256318 -0.052938722 -0.039417088
000130 84 b1 c2 bd d2 14 d3 3d 03 f9 f4 bd 26 da af 3d
       -0.09506515 0.103067055 -0.11961558 0.085865304
000140 02 07 46 bd 56 44 a0 bd c9 7c 49 bd 10 4c ca bd
       -0.048346527 -0.07825534 -0.04919127 -0.09877789
000150 8e fd 01 bd d2 58 be 3d 15 2c a1 3c 14 50 f8 3d
       -0.03173595 0.09294285 0.01967434 0.12124649
000160 fc 3f ab 3b 92 90 f4 3d 94 a1 48 bd d4 bd de bd
       0.0052261334 0.11941637 -0.048982218 -0.108760506
000170 a0 70 96 3d 96 63 dd bc 9e 73 a2 3d cf 53 b7 3d
       0.073457 -0.027025025 0.079322085 0.08951532
000180 2e d8 18 3d e1 db 2a bd 09 88 ca 3d 5a 71 50 3c
       0.03731554 -0.0417136 0.09889228 0.012722338
000190 54 28 8d 3d bc 15 b4 bd 06 93 af 3b 59 44 48 bc
       0.068924576 -0.08793208 0.0053581027 -0.012223327
0001a0 be ce 89 bd 34 ca a2 bd ba 55 22 3d c5 a2 be 3d
       -0.06728886 -0.079487234 0.039632536 0.093083896
0001b0 7a fc a0 3d fb 62 f3 3d 75 5e d1 3d 9a 12 2b bd
       0.07860656 0.118841134 0.102230944 -0.041765787
0001c0 58 90 85 3d 36 7f f1 bd 64 66 3d bd 72 ce 7b bd
       0.06521672 -0.11791842 -0.046240225 -0.06147618
0001d0 70 2c 93 bd d4 e0 f6 bd 72 f2 ae 3d 58 39 7c bd
       -0.0718621 -0.12054601 0.085423365 -0.061578125
0001e0 b6 d2 d5 bd a8 91 11 bd 11 ff d2 3d 48 b4 bd bc
       -0.104405805 -0.0355393 0.10302556 -0.023157254
0001f0 64 ca 80 3c 26 6d 8d 3d 2e 7f 6f 3c d0 89 b5 bd
       0.015721507 0.06905584 0.014617724 -0.08864176
000200 a3 de f9 3d cd 6e 1a 3d e3 28 f2 3d a1 f6 8e 3d
       0.12200668 0.037703324 0.11824205 0.069806345
000210 05 31 23 bd 71 93 50 3d f8 8d 17 3d e2 a7 61 bc
       -0.03984167 0.05092186 0.037000626 -0.013772937
000220 84 d0 db 3d 1e aa 1e bc 9a c4 0a bd 3c f9 2a 3d
       0.107331306 -0.009684114 -0.0338789 0.041741595
000230 44 e2 1a bb 44 53 08 3e 3a 04 ef 3d d9 71 70 3d
       -0.00236334 0.13313013 0.11670728 0.058702324
000240 72 88 c9 3d 97 54 33 3c 58 ab f6 3d d2 9e cf 3d
       0.09840478 0.010945461 0.120444 0.101377144
000250 34 68 bc 3d 78 50 39 3d cc 7e b1 bd b4 7d 84 3d
       0.09199563 0.045242757 -0.08666763 0.064692885
000260 cc 90 cb 3c 48 22 b0 3d bf 0f a8 bd 32 3b c6 bd
       0.024849318 0.08600289 -0.08206128 -0.09679259
000270 ad bd 99 3d cd 9c a2 bc 0a 0a 60 3d 3a d1 a1 bc
       0.07506881 -0.019850159 0.054697074 -0.019753087
000280 78 92 70 3d 9c 7b 80 bd 6e 17 5e bd ed 4c 86 bd
       0.058733433 -0.062735766 -0.054221563 -0.06557641
000290 62 e0 7a bc ba 79 ed bd ac 71 04 be 9c 32 8d 3d
       -0.015312286 -0.11595483 -0.12933987 0.068944186
0002a0 06 dc 89 bd 16 e5 c3 bd 2b 5f d2 bd 88 26 3d 3d
       -0.06731419 -0.09565179 -0.10272058 0.046179324
0002b0 ff d3 d5 bd 0e 07 d7 bd 9a a6 56 3d 4e f7 f0 bd
       -0.10440826 -0.104993924 0.052404977 -0.117659196
0002c0 35 19 e8 bd 9c 32 a4 bc 70 9d 9b bc 52 ec 36 bd
       -0.11332933 -0.020043664 -0.01899597 -0.044658966
0002d0 77 d7 06 3c 76 2a 0d bd 08 f1 aa 3d 28 8f 6f bd
       0.008230082 -0.034464322 0.08346754 -0.058486134
0002e0 f1 be 4c 3d a2 98 f5 bc 18 7e 6c 3d d5 d3 98 bd
       0.049986783 -0.029980008 0.05773744 -0.07462279
0002f0 1a 99 98 bd 1c f2 92 bc 62 e6 88 3d 2a c4 24 3d
       -0.07451077 -0.017937712 0.06684567 0.04022614
000300 ba 35 c9 ba 6d 80 4c 3d c2 56 24 3d 81 31 1d bc
       -0.0015351095 0.049927164 0.0401218 -0.009594322
000310 6c f9 4e bd f8 3c 27 bd 22 5a bb bd 14 54 01 be
       -0.050530836 -0.04082963 -0.09148051 -0.1262973
000320 08 6b ce 3d e4 bc b2 bd 67 64 19 bd be c3 e7 3d
       0.10079008 -0.08727434 -0.037449267 0.11316632
000330 9b 61 d7 bd 76 a2 86 bd 22 42 53 bd 75 db 96 bd
       -0.10516664 -0.06573956 -0.05157674 -0.07366077
000340 89 82 d5 bc de 07 9c bc 81 4f 8e 3d 6d fe f1 3b
       -0.02606322 -0.01904672 0.06948758 0.0073850662
000350 b6 84 4d 3d 00 e1 d0 3b ec 15 65 bb 44 bc c5 3d
       0.05017539 0.0063744783 -0.0034955693 0.096550494
000360 ee 55 29 bd 09 d9 fc bd b2 2f f4 bd ae 8c e2 bd
       -0.041341715 -0.12346084 -0.1192316 -0.11061989
000370 aa 87 e8 bb be 84 42 3d 3d 36 57 3d d2 3d 05 bd
       -0.0070962505 0.047489874 0.05254196 -0.03252966
000380 27 33 e6 3d 2e 75 c8 bd 50 cf 3d 3d b8 72 bb 3d
       0.11240225 -0.09787975 0.046340287 0.0915274
000390 22 a8 2c bd 61 eb e1 ba 2c 0d b9 bd f2 e9 bd bd
       -0.04215253 -0.0017236286 -0.090357155 -0.09273137
0003a0 eb 97 7f 3d 28 ea 91 bc 80 68 07 bc 83 d9 f0 ba
       0.06240074 -0.01781185 -0.008264661 -0.001837537
0003b0 94 05 8c 3d fb 8d 99 bc 1a 6c 15 bd ad 6e ec bd
       0.068370014 -0.01874446 -0.036480047 -0.11544547
0003c0 6c 75 ce 3d 9d ff 3f bd 78 f4 95 3d 36 13 b0 3d
       0.1008099 -0.04687463 0.07322019 0.08597414
0003d0 c4 92 95 bd f6 06 86 bd 61 2c f4 3d 05 1e 69 3d
       -0.07303384 -0.065442964 0.11922527 0.056913394
0003e0 48 64 a9 bd 25 3a 8f bc 00 af d1 bc 50 ca fd bd
       -0.0827108 -0.01748378 -0.025596142 -0.12392104
0003f0 64 dd e8 bd fe da ab 3c 37 b5 03 bd 4c 78 17 3a
       -0.11370352 0.020978447 -0.03215524 0.00057781185

lstm.bias_hh_l0 f4 [256]
000000 06 aa b7 bd 10 ad 38 bd ac 1b 86 3d d0 85 b6 3b
       -0.08967976 -0.04508692 0.06548247 0.005570151
000010 c8 33 72 3d d6 4d 01 3e ce 19 f3 3c aa ff c7 3c
       0.059131414 0.12627348 0.02967539 0.024413902
000020 04 5d 95 3d 2a cf b1 3d 68 c3 b8 3d 52 a6 8c 3c
       0.07293132 0.086820915 0.09021646 0.017169151
000030 27 c9 96 bd 80 b0 38 3d 88 e8 8f bd 34 67 c3 bd
       -0.073625855 0.0450902 -0.07026774 -0.09541169
000040 9c 72 86 bd be 39 17 3d 66 bf 85 bd a5 ea 53 3d
       -0.06564829 0.0369203 -0.06530647 0.051737446
000050 b7 eb 9d bc 4b 79 88 bd d6 a6 af bd f4 d8 69 bd
       -0.019277437 -0.0666376 -0.08576743 -0.05709167
000060 6d 51 e8 bd 0a 39 ab 3c 15 a0 8e 3d 8d 48 ce 3d
       -0.11343656 0.020901222 0.06964127 0.10072432
000070 b6 31 d6 3d c4 06 d2 bd 4f c9 b9 bd 2e 92 e1 3d
       0.104587 -0.10255197 -0.090716 0.1101421
000080 66 7d 06 bd 80 40 39 bd 74 8c 41 bd 5c 27 9a 3d
       -0.032834433 -0.045227528 -0.047253087 0.075270385
000090 5c 6d ce bd 01 a0 91 bd 76 5b 27 3d cb 1e 25 bd
       -0.100794524 -0.071105964 0.04085871 -0.04031257
0000a0 e5 18 97 bd f7 6b 85 bb f8 11 e2 3d 0b 7b b6 3d
       -0.07377795 -0.0040717083 0.110385835 0.08910187
0000b0 ba 12 11 bd 23 13 95 3d 1d f0 fc 3c 0a 84 ec 3c
       -0.03541825 0.07279041 0.030876214 0.028871555
0000c0 bb ec e4 3d 68 28 c7 bd 75 20 88 bd 42 53 f9 bc
       0.11177965 -0.09724504 -0.06646816 -0.030435208
0000d0 98 dc 95 bc d0 45 e9 bc f1 90 a1 3d 4c 7a 37 bd
       -0.018293664 -0.028475672 0.078889735 -0.044794366
0000e0 7c e7 b1 bd 2d f4 ad bd d8 3b f0 3d 26 ff d6 bd
       -0.0868673 -0.084938385 0.11730164 -0.104978845
0000f0 d9 80 1e 3d 78 66 1f 3d ef 9a 87 bb ae 99 ec 3d
       0.038697097 0.03891608 -0.0041383426 0.115527496
000100 24 5d 56 3b 7a 96 e1 3d a7 15 ef bd 10 69 c6 3d
       0.0032709325 0.11015029 -0.11674052 0.09688008
000110 82 59 03 3e 68 c3 23 3d 2a 33 c5 3d 9e a7 85 bd
       0.12827113 0.039981276 0.096288994 -0.06526111
000120 72 d7 5c bd 3a 51 d9 3d 79 70 3e 3d ee 48 ef bd
       -0.053916402 0.10611196 0.04649398 -0.11683832
000130 10 c5 3a 3d 8a 57 08 3d 3a 64 87 3d 50 87 1f bd
       0.04559809 0.03328661 0.066109136 -0.038947403
000140 07 77 99 bd f0 09 d2 3d 17 d5 d6 3d 0a 85 77 bd
       -0.07493406 0.10255802 0.104898624 -0.06042961
000150 22 96 4c bd 7e 26 be 3d fa 7a be bd 7c 59 95 3d
       -0.049947865 0.092846856 -0.093008 0.072924584
000160 fc 2e b6 3d bd 0f 2a bc d0 94 83 bd bf 99 48 3d
       0.0889568 -0.010379729 -0.06424868 0.04897475
000170 a6 10 4e 3d 24 c0 b3 3d b5 a5 f5 3d 4c da ad 3d
       0.050308846 0.08776882 0.11994497 0.084889024
000180 b1 5e 74 3d 6a 05 d3 bd fc b2 90 3d 49 3e e4 3d
       0.059660617 -0.10303767 0.070653886 0.111446925
000190 12 26 00 be 88 60 ea 3d b4 29 c1 bd 9c ae 91 bd
       -0.12514523 0.11444193 -0.09431782 -0.07113382
0001a0 54 0f 73 3d fd 32 a1 3d c1 78 70 bd 78 ef 47 3d
       0.05934079 0.07871053 -0.05870891 0.04881236
0001b0 9c fb f7 bd f5 d4 93 bc 6b a9 3a bd e8 e5 8c 3d
       -0.121085376 -0.018045882 -0.045571726 0.06879789
0001c0 c0 bb cd 3d 7c fe cb bd 08 6a cd 3c 44 81 d7 bd
       0.10045576 -0.099606484 0.025074974 -0.10522702
0001d0 b4 64 94 bd 4a b2 cc bd 73 02 9e 3d 39 79 c1 bd
       -0.0724577 -0.099949434 0.07715311 -0.094469495
0001e0 ea 40 d6 3d 84 cf ab bd 6c b1 ae 3c e4 de f5 bd
       0.104616 -0.0838919 0.021324836 -0.12005404
0001f0 24 87 b6 3d 56 f4 a2 3d 0c 34 d5 bd 1e 56 db 3c
       0.08912495 0.0795676 -0.10410318 0.026774462
000200 4e 3e ed bd fd 11 e5 3d a3 9a 3f 3d f2 c7 21 bb
       -0.11584149 0.111850716 0.046778332 -0.0024685827
000210 80 c5 14 3c 95 9c 84 3d 38 89 25 3c e6 57 3f bd
       0.009080291 0.06475178 0.010103516 -0.046714686
000220 60 25 d4 bd a4 f4 ff 3d ae d5 e5 bd e4 87 91 3b
       -0.10358691 0.12497833 -0.11222397 0.0044412483
000230 56 a1 e5 3d ae 92 be bd f7 a7 8a 3c 42 55 7b 3b
       0.11212413 -0.09305321 0.016925795 0.0038350378
000240 9c 83 ae 3d b0 1f ed bd 82 4d 28 bd 2a 0f b6 bd
       0.08521196 -0.115783095 -0.041089542 -0.08889611
000250 3a e5 a6 3d 74 20 92 ba 8c 7e 28 bd 7a d2 c1 3c
       0.0814919 -0.0011148588 -0.04113631 0.023659933
000260 f1 c7 d6 bc 80 17 3f bd 7a 60 d5 3d 30 a8 26 3d
       -0.026218386 -0.04665327 0.10418792 0.04068774
000270 ff 65 5e 3d 00 2f 03 be bd db 86 3d f8 b0 65 3d
       0.05429649 -0.12810898 0.065848805 0.056076974
000280 60 88 ea 3d 9c 72 df 3d a5 1c 37 bd 10 a0 4b bc
       0.11451793 0.10910532 -0.044705052 -0.012428299
000290 b5 9f 3d bd 43 17 ea bd 48 66 d3 bd 2e 67 92 3d
       -0.046294887 -0.11430218 -0.10322243 0.07148586
0002a0 bf 06 00 3e 66 67 41 bc 42 96 f3 bd 96 4e 7a bd
       0.12502573 -0.011804437 -0.11893894 -0.0611101
0002b0 d9 c7 b8 bd fa 5f 81 bd 32 8e a5 3d 0e f2 c2 ba
       -0.09022493 -0.06317134 0.08083762 -0.0014873163
0002c0 59 4f 18 3d 60 b9 2c bd bb 52 a3 bb bf 6c b7 bd
       0.037185047 -0.042168975 -0.0049842275 -0.089562885
0002d0 be 52 e1 3d 24 c0 62 3d 32 70 ae 3d bf 73 f3 3d
       0.1100211 0.05535902 0.08517493 0.11887311
0002e0 07 dc a5 3d 36 83 36 3d 8e b6 5b bc 3f 50 34 bb
       0.080986075 0.044558726 -0.013410224 -0.002751365
0002f0 d3 a1 c9 bd 10 4c e5 3c 9a f1 8b 3d 19 de fd bd
       -0.09845319 0.027990371 0.06833191 -0.123958774
000300 dd a8 a4 bd 30 df 5f 3d 11 1f 92 bd 30 7f b9 3d
       -0.080400206 0.054656208 -0.07134832 0.09057462
000310 5d de 8f 3c a9 d9 1b bd 52 89 a4 bd 3a 7b 8d bd
       0.017562086 -0.038049374 -0.08034004 -0.06908269
000320 96 64 8a 3c fc a8 f7 bd cd 0c 29 3b b6 6a ac 3d
       0.016893666 -0.12092778 0.0025794983 0.08418791
000330 98 56 7f bd f0 5d a0 bd c8 98 e5 bd 0a 8d 5f bd
       -0.06233844 -0.07830417 -0.11210781 -0.054577865
000340 93 89 bd bd b5 a7 8a bc b3 9a 71 3d 33 dc d1 3d
       -0.09254756 -0.016925672 0.058985423 0.10247078
000350 28 cf c9 bc d6 73 de bd 6c 62 39 b9 1e 0f b6 bd
       -0.024634913 -0.10861938 -0.0001767964 -0.08889602
000360 3c 40 e1 3d a6 97 d2 3d b2 f4 86 3c 92 cf aa bd
       0.1099858 0.10282831 0.016474102 -0.08340372
000370 5a 09 7d 3d e6 ab 9c bd 97 01 3e 3d a8 36 9c bd
       0.061776496 -0.076499745 0.046388235 -0.07627612
000380 b8 79 3c bc f2 7d 2c bd cf 61 f3 bc 75 77 03 3e
       -0.011503629 -0.0421123 -0.029709725 0.12838538
000390 65 96 c5 ba f2 bf 0a 3c 43 72 c3 3d 19 a0 94 bc
       -0.0015074728 0.008468615 0.09543278 -0.018142747
0003a0 5c b9 f4 bd 7a 8f d7 3d 52 72 b2 bd 31 33 29 bc
       -0.11949417 0.10525413 -0.08713211 -0.010327146
0003b0 5e c1 a7 3d f2 2d 29 3d 26 94 96 bd f2 20 d2 bd
       0.08191179 0.041303582 -0.07352476 -0.1026019
0003c0 3a de 21 3c ee 94 10 3d 59 99 74 3d 68 0d 6e 3c
       0.009879643 0.03529828 0.059716556 0.0145295635
0003d0 7c b5 c6 3d d6 e6 d7 3d 28 e4 f2 bd bb 9c e7 3d
       0.09702584 0.10542075 -0.118599236 0.11309191
0003e0 5a a5 f8 bd 1a a4 90 bd ef 9e c7 bd 1a 85 e7 bd
       -0.12140913 -0.0706255 -0.09747111 -0.11304684
0003f0 2a f5 f7 bc b6 67 01 3d 12 3f 73 bd c0 00 a6 3c
       -0.03026827 0.031593047 -0.05938632 0.02026403

fc.weight f4 [1, 64]
000000 5f 9a b0 be 3d 61 0b bf 71 a6 d9 be e2 bb 4e be
       -0.34492776 -0.5444525 -0.42509797 -0.20188859
000010 17 24 17 bf 6c e2 c5 be 7a 51 64 be 65 40 7b 3e
       -0.59039444 -0.3864931 -0.22296706 0.24536283
000020 99 9e 15 be 12 63 8e 3e bc e7 07 bf 00 df fe be
       -0.14611281 0.2780996 -0.53087974 -0.4977951
000030 09 6a 11 be 64 0e 27 be 1b 99 38 be 14 b2 01 3f
       -0.14200605 -0.16314083 -0.18027155 0.5066235
000040 d1 34 1f 3f 48 90 5e bd 0c ce b3 3e bb 7a 91 3e
       0.62189966 -0.054336816 0.3511814 0.28413948
000050 2b 52 14 3f ab a9 c7 3e 49 54 1a 3e 3f 6d a3 be
       0.5793788 0.38996634 0.15071215 -0.31919286
000060 fc 24 a7 3e 14 97 db 3e 9e d2 2f 3f e5 2e e0 3e
       0.32645404 0.428887 0.6868075 0.43785778
000070 33 c1 f5 3b 0c 60 d4 bd cf 1e 7e 3e 25 d7 a9 3e
       0.007499838 -0.10369882 0.2481644 0.33171955
000080 b9 36 f7 3d bb d0 aa be 61 c1 6a be ca 21 32 bf
       0.120709844 -0.33362374 -0.2292533 -0.6958281
000090 fb 29 02 3f f9 35 0d be 9a 08 27 3e 14 f7 e7 3e
       0.5084531 -0.1379012 0.16311875 0.45305693
0000a0 76 d2 a4 3e 5b 64 91 3e 53 dc 1a 3e 17 c8 45 3e
       0.3219182 0.28396878 0.1512311 0.1931461
0000b0 96 e0 c6 be 77 4e 71 bd c2 42 f9 3e 13 27 a6 3d
       -0.3884322 -0.05891272 0.48683745 0.081129216
0000c0 71 13 2e 3e 38 b2 93 3e 4c d0 95 3e ae ce b4 be
       0.16999604 0.28846908 0.2926048 -0.35313934
0000d0 00 15 09 bd 00 0a ce 3e 31 a0 21 be 79 e9 8a 3d
       -0.033467293 0.40242004 -0.15783764 0.067828126
0000e0 93 dc 6a be 2c 55 f7 be ca a2 3b be 01 4f 90 3e
       -0.22935705 -0.48307168 -0.18323818 0.28185275
0000f0 89 f6 77 3e 35 df 35 bc 15 f3 b7 be 8b 8f a7 3e
       0.2421514 -0.01110058 -0.35927644 0.32726702
