model/fl_checkpoints/global_round_1.pt (torch, 196820 bytes, 7 tensors)

conv1.weight f4 [64, 78, 3]
00000000: 5809 383d 6093 493d ba26 a6bc 9843 613d
00000010: 7a08 9ebc fab2 053c a775 16bd 34ec 073d
00000020: 5664 573d 0c87 57bd 0669 533d 7cde e93b
00000030: 908f 313d 2757 813b 94ed d83c 069b 6abc
00000040: e1dd 393d 5362 9c3b 86e1 10bd f8af 3f3c
00000050: f3f5 0ebd 803e 4ebc b47b 00bd 12ed 1c3d
00000060: b827 67bd f872 0fbd fd25 c1bc 3c36 33bd
00000070: 9221 913a c269 8ebd d4eb 5c3d 4881 77bd
00000080: 82f8 3a3d 1e85 c03b e7fe d5bc adf3 103d
00000090: ea24 ac3b 8601 443d 61b7 0e3b 608a d0bc
000000a0: 6850 4f3c a8ce b8bc 7c5b b73c b274 5a3d
000000b0: 76e4 063d ea95 08bd ae27 063d cb89 df3b
000000c0: 5231 e63c bcf1 35bd 4217 8dbd 4855 f7bc
000000d0: ce7b 61bd b234 463d 00d1 623c d051 b73c
000000e0: 6cb8 7e3c 4cd3 c7bb 46d7 3c3d 6a82 51bd
000000f0: fa5f 74ba 28bf 4abd 16c3 7a3c 68d0 e1bc
00000100: c19d 753c d3c6 96bc 365a 493d 10a0 32bd
00000110: 0d8c 33bd 5f97 33bd ca7f 5a3d b026 893c
00000120: 4ce9 6c3d 7037 71bd 5e6b 8ebd cba7 65bd
00000130: 8b17 48bd 1884 b03c 640a 963c 7230 4a3d
00000140: 3ea3 1ebd 6eea 4abd 536e f23c 5689 00bd
00000150: d011 0e3d faf0 a6bc 4c2f 043d 9a8f 64bd
00000160: 5259 1bbd 23f6 763c 3806 113c a653 b3bc
00000170: d8ac 0a3d 9a5c 213d 1a88 55bd 0811 26bd
00000180: 9563 603d e4ac ddbc a92c e5bc b42b 8bbd
00000190: 9a23 2dbd 2eb3 393c 024b 60bc aa8f 56bd
000001a0: 30f2 5bbb 8ab1 4abd 940e 77bd dd89 27bd
000001b0: ac25 7ebd a889 3ebd fa50 773d 1e86 ee3b
000001c0: cef1 753c 2d50 86bd 4ede 43bd 2c6f dabc
000001d0: 494e a83b aa79 7fbd b526 08bd 2cb7 32bd
000001e0: d23e 9bbb 1c54 efbc e5c7 1bbc 7a86 49bd
000001f0: aaa2 4bbd 3b04 30bd fccb debc bd07 67bd
00000200: 36e3 4b3d 8383 92bc 90bc 513d 8b4a 7b3c
00000210: 968f 76bd eed4 243d 1891 bbbc a154 f5bc
00000220: d1dd 71bd 7ef5 8ebd 5182 5f3c e49c 9dbc
00000230: 7e29 aa3c 28f2 6fbd c837 323d 3028 58bd
00000240: baa4 84bc e764 0f3c 3ccd ea3c 20de 423d
00000250: 7669 5f3d 3152 68bd 759f 3c3c 2033 07bd
00000260: 7d17 45bc 4f31 5dbd 1a73 5f3d fed2 57bd
00000270: 2543 f53c c8a0 923c 7792 843c 0a5f 24bd
00000280: e8d2 5e3d 64de 1b3c 20cf 5b3b 8f9f 7ebd
00000290: e39d b83c 69f0 70bc 2007 0fbd 9cc6 513d
000002a0: 02f9 1d3c cfc4 28bd 27fb 1abd 47e3 04bc
000002b0: e067 003d 16e3 b4bc 6e1d 2dbd dd6a dfbc
000002c0: 1013 5bbd b0d1 963c 22d7 3a3d 4854 88bd
000002d0: d41d 273c c98a ea3c 8a02 e13b 70cd e7bc
000002e0: c20b ef3c 1296 f53c 3a49 9f3c 280e 87bc
000002f0: 9bef b6bc 28ac 043b 585c 87bc 56cf c7bc
00000300: c066 163d 0e7f 513d 3a7a 40bc 9083 a1bc
00000310: 0150 84bb d4f9 0fbc 0a5e 2e3c 7f56 5a3c
00000320: 3e71 83bd 76dd edbc 1696 4c3d b0ec a73c
00000330: 0bcc 07bc 762a 1ebd c100 37bd d0bd 81bd
00000340: 28c2 d7bc 2e30 8d3c 4e14 153d f4b9 ce3c
00000350: 6639 80bd c6f2 34bd dc34 78bc 8b0c 6e3d
00000360: ddf2 913b 74eb b3bc a50e b43c 83e9 f3bc
00000370: 8093 41bd 7f35 2f3d 2027 0ebd 4e37 93bc
00000380: 6fe9 8ebd 9ade 1d3d 76ba 363d a02a 9b3c
00000390: 3e28 4ebd e825 8ebd c2fe 6cbd 1ef3 323d
000003a0: 942b d73c 85b8 4c3d 0e3a 083d 397d 1d3c
000003b0: fdb8 293b 026b 5bbd e278 56bd e2b4 50bd
000003c0: d661 c23c 784c edbc 33cb 41bc ddfa 20bd
000003d0: b3dd 2dbc a864 28bd 653a 28bd 128c 803c
000003e0: 1758 39bc e8ee 103d 9b06 aebc 147a 2bbd
000003f0: d081 85bc 24a7 14bd e8c1 41bc f63c 6fbd
0.044930786 0.049212813 -0.020282138 0.054996103 -0.019291151 0.008160347 -0.036733296 0.033184245
0.052585922 -0.052619025 0.05161383 0.007137118 0.043349802 0.003947157 0.026480474 -0.014319187
0.045377616 0.0047724633 -0.035371326 0.011699669 -0.034902524 -0.012588143 -0.031367972 0.038312025
-0.056434363 -0.035021752 -0.023577685 -0.043752894 0.0011072627 -0.069537655 0.05393584 -0.060426027
0.04564715 0.005875244 -0.026122523 0.035388637 0.005253424 0.047853015 0.0021776783 -0.025456607
0.012653448 -0.022559479 0.02238249 0.053333946 0.03293272 -0.033346094 0.032752685 0.006821846
0.02809969 -0.04441999 -0.06889202 -0.030192032 -0.05504971 0.048390098 0.013843775 0.022377878
0.015546899 -0.0060981866 0.04610374 -0.051149763 -0.0009322163 -0.049498707 0.015305301 -0.027565196
0.014991225 -0.018405354 0.049158297 -0.04360968 -0.043834735 -0.04384553 0.053344525 0.01674208
0.057839677 -0.05889076 -0.069540724 -0.056068223 -0.048850577 0.021547362 0.018315502 0.049362607
-0.0387299 -0.049539976 0.029593622 -0.031380974 0.034684956 -0.020378578 0.03227167 -0.05580101
-0.03792698 0.015073332 0.00885158 -0.021890473 0.033856243 0.039394952 -0.05213175 -0.040543586
0.05478247 -0.02705998 -0.027975397 -0.06795445 -0.04227028 0.011334224 -0.013689758 -0.052383102
-0.0033561103 -0.04948572 -0.060316637 -0.04090296 -0.062047645 -0.046517998 0.06037996 0.0072791716
0.015011264 -0.06558261 -0.04781943 -0.026664339 0.0051362854 -0.062371887 -0.03324004 -0.043631718
-0.0047377134 -0.029214911 -0.009508108 -0.049200512 -0.049715675 -0.042972784 -0.027196877 -0.056403864
0.049777232 -0.017884975 0.051205218 0.015337597 -0.060195528 0.040242128 -0.022896335 -0.02994758
-0.05904943 -0.06980418 0.01364191 -0.01923985 0.020771738 -0.058580548 0.04351023 -0.0527727
-0.016191829 0.008752084 0.028662317 0.047575116 0.054543935 -0.05671901 0.011512627 -0.03300774
-0.012029526 -0.054002102 0.05455313 -0.052691452 0.029939244 0.017898932 0.016183121 -0.0401297
0.054400355 0.009513471 0.0033540204 -0.062163886 0.022536224 -0.014705756 -0.034918904 0.0512148
0.009641888 -0.041203316 -0.037837174 -0.008110828 0.031349063 -0.02208094 -0.042264394 -0.027272636
-0.053484976 0.018410534 0.045615323 -0.066567004 0.010199983 0.028630631 0.0068667578 -0.028296202
0.029180411 0.029978786 0.019444097 -0.016486242 -0.02233105 0.0020244215 -0.016523525 -0.024390858
0.036719084 0.05114656 -0.011747891 -0.019716054 -0.0040378575 -0.008787591 0.010642538 0.013326286
-0.064180836 -0.029036265 0.04994782 0.020498604 -0.008288394 -0.038614713 -0.044678453 -0.06335032
-0.026337698 0.017234888 0.036396317 0.025235154 -0.06260948 -0.04417684 -0.015149321 0.05811743
0.0044540004 -0.021962859 0.02197964 -0.029774433 -0.047259808 0.042775627 -0.03470528 -0.017970707
-0.06978118 0.038542368 0.044611417 0.018941224 -0.050331347 -0.06940824 -0.057860143 0.043688886
0.026265897 0.04998066 0.03325849 0.009612375 0.0025897615 -0.053568847 -0.052361377 -0.050953753
0.023728292 -0.028967127 -0.011828232 -0.039301742 -0.010611939 -0.04111162 -0.041071314 0.01569179
-0.011312506 0.03538409 -0.021243384 -0.04186447 -0.016297251 -0.03629221 -0.011826016 -0.058407746

conv1.bias f4 [64]
00000000: 859e 9dbc bc6b 31bd 33de cc3c b6af 803d
00000010: 9c52 9b3d 67bb 2c3d 4853 073d c688 afbb
00000020: ae0b 0abd fed7 b13c 661f 0b3d fafe 703c
00000030: ea42 2cbc 9596 ccba 00fe 5ebd a77d fb3a
00000040: 4cf6 b93b 4e69 4f3d da8d 723c 0afa 873d
00000050: a837 3e3b a838 4e3d 089c 4cbd 2e82 c03c
00000060: 980f 8a3d b1f5 bb3c de36 ccbc a046 1e3d
00000070: b72b 6ebd 6a24 db3c a0f8 34bd c82b 363d
00000080: b8e0 a0bb 08b3 383c e86b 0cbd 06a8 d9ba
00000090: 4a2b 37bd 1010 6f3d 4631 fd3c 3c52 1bbd
000000a0: 56b3 efbc f29e 233d 3a72 3bbd d2d4 c03c
000000b0: f3e2 0abd ec32 b9bb ca2b 5f3d 90b9 a0bb
000000c0: 56a9 443d 78e9 43bd aa48 653d 92a0 93bd
000000d0: 2008 76bd 66c7 8dbd 667b 71bd 0c58 4dbc
000000e0: b60f 71bd 15d3 693b ea6e 12bd 0609 183c
000000f0: 50a1 963a 84fe e23c 65fe 583b e66f 3fbd
-0.019240627 -0.043315634 0.025008297 0.06283514 0.07584116 0.04217091 0.033038408 -0.005356881
-0.033702545 0.021709438 0.03396549 0.014709229 -0.010514 -0.0015608842 -0.054441452 0.0019187228
0.005675113 0.050637536 0.014804328 0.06639488 0.0029024873 0.050347 -0.04995349 0.023499575
0.067412555 0.022944303 -0.024928506 0.038641572 -0.05814716 0.026750762 -0.04418242 0.044475347
-0.004909601 0.011273153 -0.034282595 -0.0016605861 -0.044719018 0.058364928 0.030907284 -0.03792022
-0.029260319 0.039946504 -0.04576323 0.02353898 -0.033907842 -0.0056518223 0.05448512 -0.0049049333
0.048013054 -0.047830075 0.0559775 -0.07208361 -0.060066342 -0.06922798 -0.058955573 -0.012533199
-0.058852874 0.0035678793 -0.035750307 0.009279495 0.0011492167 0.027709253 0.0033110615 -0.046737574

lstm.weight_ih_l0 f4 [256, 64]
00000000: 015a b03d 5ff6 293e 9e13 8e3a 3e53 553e
00000010: 76ad fa3d 6751 51bd 380b 393d 7abf bd39
00000020: 0972 ac3d 9ec4 0e3d b65a 893d bb2b b73d
00000030: b254 853e b460 723d 65a2 263e 5fde a63e
00000040: 0093 593e 96ea 663c aa82 b73d 6796 493e
00000050: d6d0 d53c 0663 b03d 9a96 9b3d f8f9 a63e
00000060: 1e84 903e d4da 47bd e092 29bd 1d10 973d
00000070: b6bf b4bd c285 7f3c 6484 083d bf74 913d
00000080: 442a a53e f474 2e3c 7e9a 533e 3228 c13d
00000090: bbc2 8d3d bdb4 843e ef74 ec3d 2940 253e
000000a0: 0932 343d cb87 5e3e 26ae 803e 3459 2b3e
000000b0: 85ec bfbd ec1d b73e 1d51 163e 8ca9 3c3e
000000c0: d801 553e 899d a4bd 2be8 953e 4079 2a3e
000000d0: d7de a23d b028 f63c b972 2d3e b6d4 2c3d
000000e0: 06c9 2c3e 1be6 5a3e 18cc 6b3c 5434 653e
000000f0: 9fb4 aabd 549c d53d e688 7e3e e038 343a
00000100: 1052 68bd 8cf4 9ebe 4a35 30be aaa8 993e
00000110: 9fc7 573e 8a38 7a3d 6bb6 893d 6a9e e33c
00000120: 5197 a53d 06a1 033f ec78 623d 9036 443e
00000130: 7850 25bb 6825 583e f27f aabc e1b7 7d3e
00000140: d650 f93d 217f 583d ae41 e63c 58a7 433d
00000150: 2f5e 0ebe 1889 2f3e 79bc 7ebd 855c 9e3e
00000160: bdc4 85be fd48 253e f27a ff3e f89f 573e
00000170: eac0 553e d9a8 06be a57e cbbd cae6 0fbd
00000180: 5904 12be 0be7 4d3e ebf2 c63c 9cd7 c5bd
00000190: 854b 143e 2216 5d3d 7a58 823e 9ebe 743d
000001a0: d51e 4c3d 7cf5 103f 337d 58bd b931 1e3e
000001b0: 0b65 84be fe00 0e3e 0210 a7be 0438 55be
000001c0: baa2 c93d e84c 203d cc1e 163e e82d bc3d
000001d0: 0084 ea3d f2e6 4dbd 78cb 2d3d dfc7 843e
000001e0: c0aa 7a3d 2bcf febd 27c0 a33e 0d53 91bd
000001f0: 1a67 963d 194a 46be 5f4a cd3e 9c4f 29be
00000200: ba9f c33d 0dbb b43d 826f b33e c653 fd3c
00000210: 1b8d 233e f708 cc3d 18bc 62bc b4a4 3bbe
00000220: 106a 823d 1f3f d53c 32d4 323e 5425 4d3d
00000230: 3ede f83c 91f8 603e 172a ff3d 82f9 d9bc
00000240: 69f5 9b3d f659 f23d a6fd 90bb 6091 a83d
00000250: f4ae 30bd 2108 f1bd 8dbe 163e 4509 abbd
00000260: 31cf 483e 2c62 3f3e 14bd f9bc f9a1 b0bc
00000270: f00f 9f3d f9f1 843b 91d8 aa3e cf20 ce3e
00000280: 994d 45bd 7b1a 28be 7afb 24bd ca3a 31bc
00000290: 14c5 4a3d d032 80bd e3df 213d 3bee 95bd
000002a0: a497 693e 6fea 993d 1063 213d 5d08 653e
000002b0: 7d76 0cbe 3bb7 f83d c329 4f3e 2ad7 663e
000002c0: 840e db3d 93ad a0bb 7c65 81bd 6254 3cbd
000002d0: f335 7dbd 42b6 8e3e ec20 a33d 3cf2 35bd
000002e0: fbdd 653e cb9c 08bd 5f01 923e b8fa 82bd
000002f0: b030 ef3c a0e9 f1bd e60c 853e 01ae 953c
00000300: fa3a 3cbd 288a 533e 167e 163d f26b 01bd
00000310: 3947 163d 8d71 a43c 2ab0 6dbc 07c4 883c
00000320: f4e2 e93d 4144 74bc edb8 4b3e 4b2b 5f3d
00000330: bce5 4f3c a0ed 433d 19ce f63d cb17 da3d
00000340: c588 e3bd 159f a3bd 613c 933d 592d e63d
00000350: 5a4a 70bc 3258 60be 1591 49bd 8d05 da3d
00000360: 9ddc 653d f19d 183d 3418 5ebc a9f9 ae3d
00000370: 8d37 bfbd dca5 1fbd 1244 8e3c c3c4 833e
00000380: 00e1 c83c 18ca 023e ec76 b63d a95d bebd
00000390: 938d 2e3c 4a3d c03d 7893 2abe 98fa 46bd
000003a0: b88e 623d c902 f23d e63c 64bd 65a4 173e
000003b0: d289 05be eecd fd3d 4936 80bd a79d 343e
000003c0: b47b c8bb 72a8 713c 8a0a 94bc a3a8 923d
000003d0: 3462 a0bd 6402 87bd e4e7 78bd a1d2 aebd
000003e0: 4f74 0ebe f81e 7e3d 1def 09bd d61e 173e
000003f0: 2884 5a3d be01 913d 051d da3d bb06 1a3e
0.08610917 0.1659789 0.0010839587 0.20832536 0.12240116 -0.051103022 0.045176715 0.0003619155
0.08420188 0.034855478 0.06706755 0.08943888 0.2604118 0.059174255 0.16272886 0.3259153
0.21247482 0.014094016 0.08960469 0.1968628 0.026100557 0.08612637 0.07597084 0.32612586
0.28225797 -0.048792675 -0.041399837 0.0737612 -0.088256285 0.015595855 0.033329383 0.07102346
0.3225881 0.010648001 0.20664403 0.09431495 0.069219075 0.25919142 0.11545741 0.16137756
0.04399303 0.21731488 0.25132865 0.16733247 -0.093712844 0.35765016 0.1467938 0.18424052
0.20801485 -0.0803786 0.29278693 0.16647816 0.079526596 0.030048698 0.16938294 0.042195044
0.1687356 0.21376841 0.014391921 0.22383243 -0.08335232 0.10430208 0.2485691 0.000687493
-0.056718886 -0.3104595 -0.17207828 0.30011493 0.21072243 0.061089076 0.067242466 0.027785499
0.08085502 0.5141758 0.0552911 0.19161439 -0.0025224965 0.2110802 -0.020812962 0.24777175
0.12173621 0.052855615 0.02810749 0.047767013 -0.13903116 0.17142141 -0.06219146 0.30929962
-0.26126662 0.16141124 0.49898487 0.21057117 0.20874372 -0.13150348 -0.09936265 -0.035132207
-0.14259471 0.20107667 0.024285754 -0.09660265 0.14481933 0.053976186 0.25458127 0.0597521
0.04983409 0.5662458 -0.052853774 0.15448655 -0.2585834 0.13867566 -0.326294 -0.2082215
0.09845491 0.039135844 0.14660186 0.091884434 0.11450958 -0.050269075 0.04243037 0.2593374
0.061197996 -0.12441858 0.31982538 -0.07095919 0.07343884 -0.19364204 0.40095803 -0.16534275
0.0955195 0.088247396 0.3504601 0.030923735 0.15971796 0.099626474 -0.01383879 -0.18324548
0.06367886 0.026031075 0.17463759 0.050084427 0.03037941 0.2196982 0.124592 -0.026608232
0.07615168 0.11833565 -0.0044247685 0.08230853 -0.0431356 -0.117691286 0.14721127 -0.083513774
0.19610287 0.18689793 -0.030485667 -0.02156161 0.07766712 0.0040571657 0.33368352 0.40259406
-0.048169706 -0.16416351 -0.04027889 -0.010817239 0.049504355 -0.06259692 0.039520156 -0.073208295
0.22811753 0.07515418 0.039401114 0.22366472 -0.13717075 0.121443234 0.20230775 0.22543016
0.10696128 -0.004903504 -0.06318185 -0.04597891 -0.061819028 0.27873427 0.07965264 -0.044420466
0.2244796 -0.033352654 0.2851667 -0.06395477 0.02919802 -0.118121386 0.25986403 0.018271448
-0.045954682 0.20658171 0.03674134 -0.031597085 0.036689017 0.020073676 -0.014507333 0.016695036
0.11420241 -0.014908851 0.19894762 0.054484647 0.01268905 0.04783404 0.12051029 0.106490694
-0.11110071 -0.07989327 0.07189251 0.11239118 -0.014666164 -0.21908644 -0.049210627 0.1064559
0.056118596 0.03726 -0.013555575 0.08543713 -0.09336767 -0.038976535 0.017366443 0.25736055
0.02452135 0.12772405 0.08909401 -0.09295208 0.010653871 0.0938669 -0.16657817 -0.04857883
0.05531189 0.118169375 -0.05572214 0.14808805 -0.13040856 0.123927936 -0.06260354 0.17638265
-0.006118262 0.014749633 -0.018071432 0.07161071 -0.07831231 -0.06592253 -0.060768023 -0.08536268
-0.13911556 0.062041253 -0.0336753 0.14757857 0.05334869 0.070804104 0.10650066 0.1504163

lstm.weight_hh_l0 f4 [256, 64]
00000000: 083c bfbd 8082 a0bd 23f0 5f3e 962e 9c3e
00000010: 5692 a4bd d11f 61be 2a5e 1c3e 6577 46be
00000020: fdc8 433e bd06 a0be 1ffc c73d f417 b33e
00000030: 7e3b ad3e 9765 b33c 6cca 033f 9d4d 35be
00000040: 18c1 423e b0c9 103e 3e17 643e 1c65 6abe
00000050: 73fc 0c3e ae8d 8ebe b036 62be 2e4b 973d
00000060: 8ab0 57be d206 93be 24c8 4dbe 86ed 6fbe
00000070: 27aa c93e 6e42 94be 7fcc 65be 0cf6 18bd
00000080: acb9 093c 70ee 7b3e ff6a ed3c 5002 9d3d
00000090: a7a4 53bd 5b2e abbe 7b0e bbbd 4e20 e43d
000000a0: 26f1 4fbd 7ee7 debd c0a0 90be 85eb 50be
000000b0: 603c 0f3e df0c 99be 869e 983e 9db6 c1be
000000c0: 2c30 4bbd 9980 3cbe 73b2 063d 7482 78be
000000d0: a9ab 41be d631 093d 5c7c 823e 7980 9c3e
000000e0: b3af 243e 9baf b1bd 3fc9 263e 354e a3be
000000f0: 03f7 593d 7613 d63c 602a 383e 3f3d b93e
00000100: fb28 e53d 1e21 ac3d a63c f63c 4a72 253e
00000110: e266 5abd 6568 7dbe b112 743e d487 fbbc
00000120: 5505 663e c017 dabc 224e 663b 7620 00be
00000130: eefa a83e f1cd 823d bdb7 973e cfec 61be
00000140: f9fd d43c bc7e eb3d ad39 083e 018b f5bd
00000150: 7e5a 273e 4672 75be 8987 04be 1699 6cbd
00000160: a5a8 0ebe 08af afbd f41d 653c 8dd6 98be
00000170: 6b39 ad3e eafd 81be 027d 39be dafa 18bd
00000180: eed4 10bd 5fc4 593e 18bf 193e b06e a4bd
00000190: 595d 7a3d 8a0a 8dbe 60b6 4abe 5423 223e
000001a0: 0d2e 703e 5d11 e5bd 5d23 3fbe 8da0 e7bd
000001b0: f591 8fbd a00a 94be 0c5f 39bd acb1 30be
000001c0: 6e23 373d a649 57be 4f42 553d 34fc abbe
000001d0: a2da bdbe 02a7 e63d 21e5 1c3e 11c9 273e
000001e0: b312 273e 4c82 4cbd a001 1e3e 90d3 10be
000001f0: ec45 37be 50d0 a53e 658f e13c 588e 65be
00000200: 747f c9bc ce8c ce3d da76 e33d 802a 863e
00000210: 8803 9dbd a4f2 90be 8872 d0bd ca53 73be
00000220: d7dd d03d d094 4d3c 3211 3abd 53ba 6c3e
00000230: 386b 553e 22f7 45bc 938c 393e c7d2 c9bc
00000240: 35ea f23d 57de 7a3e 3705 863e 815f 1ebe
00000250: 9d37 3e3d 70ff 90be 7ddb 223c 8764 b5bd
00000260: b2cb d53d 9019 32be d247 c9ba 7817 e9bd
00000270: 3ab1 293e 0960 84be 78ad f0bd f341 e53c
00000280: 3637 32bd ca9d 273e 8360 12be a0e7 25bd
00000290: 97d0 28bd ac33 6fbe f34b a73d 407b 533c
000002a0: ad62 fa3d 58ff 4a3e f937 05be e823 11be
000002b0: fa87 b63d 1d1e 2dbe 8064 653e 37dc 89be
000002c0: a53a 523c 7db6 43be 9e8e 263e 8a92 88be
000002d0: a434 27be db50 e03c b86e c93d d6dd 0b3e
000002e0: 0052 f839 b63c 3dbe c384 0b3e e37c 2ebe
000002f0: 8772 a1bb e09e 0cbd 1b25 85bd 8d89 713e
00000300: 4816 bcbd ecf5 223e 839b 77bd 4651 95bc
00000310: ab24 fabd 5372 b7bd fe21 c2bc 1914 31be
00000320: f823 133e e738 4bbe f397 4fbe 6ed6 d63c
00000330: 9789 933d 69a7 873d 2cae 603e d65b 24be
00000340: ff83 293e f0db 273e d6da fc3c 1cd5 7cbd
00000350: bcfa 363e 0702 ba3d fabf f7bc e18e 0abd
00000360: 0af5 803d e47b 36be fc59 47bd 46d0 83bd
00000370: b452 563e 2de3 52bd eb35 01bd 5fe8 223e
00000380: d51c 293e 2861 d1bc bc98 e73c 3b69 1fbe
00000390: 3771 26bd 527c 1fbe fe83 883c 1cf8 0b3e
000003a0: 71da 40bd f95b 963d f8cd 3eba 7292 3ebd
000003b0: 8198 1dbe 6ceb be39 29e0 563e 84cb a9bd
000003c0: ebb3 e43d d374 bd3c 7179 c23d d44b aebd
000003d0: 034b cebd f6a4 dfbd 5a20 073e 6afd 543e
000003e0: b09e 9a3d 3a41 843d 3d48 d43d b3c6 fa3c
000003f0: bf15 92bd 44e9 b3bd 87bb 003d b0d3 2abc
-0.09337622 -0.07837391 0.21868949 0.30504292 -0.08035724 -0.21984793 0.15270296 -0.19381483
0.1911964 -0.3125514 0.09764885 0.34979212 0.3383445 0.021899028 0.51480746 -0.17705388
0.19018972 0.14139438 0.22274491 -0.22890133 0.13768177 -0.27842468 -0.22091174 0.07387386
-0.21063438 -0.2871614 -0.20095879 -0.23430452 0.39387628 -0.28956932 -0.2244129 -0.037344024
0.008406084 0.24602675 0.028981684 0.07666457 -0.051670697 -0.33433804 -0.09133621 0.11138974
-0.050767086 -0.108839974 -0.28247643 -0.20402344 0.13987875 -0.29892632 0.29808444 -0.37834635
-0.049606487 -0.18408431 0.032885026 -0.24268514 -0.1891314 0.033494793 0.25485504 0.30566767
0.16082649 -0.08676072 0.16287707 -0.31895605 0.053214084 0.026132327 0.17984915 0.3617954
0.11189457 0.08404754 0.030058216 0.16156879 -0.053320773 -0.24746855 0.23835255 -0.030704416
0.22462972 -0.026622653 0.0035141786 -0.12512383 0.33003944 0.063869365 0.2963237 -0.22062992
0.02600001 0.11498782 0.13303252 -0.119894035 0.16343114 -0.23969373 -0.12942328 -0.05776318
-0.1393152 -0.085783064 0.013984192 -0.2985119 0.3383287 -0.25389034 -0.18114093 -0.037348606
-0.035359316 0.21266316 0.15014303 -0.080289245 0.06112418 -0.27547103 -0.19796133 0.15833789
0.23455067 -0.111849524 -0.18665834 -0.113099195 -0.07010261 -0.28914356 -0.04525666 -0.17255276
0.044711523 -0.21024188 0.05206519 -0.33590853 -0.37080866 0.11262323 0.1532178 0.16385294
0.16315727 -0.04992895 0.15430307 -0.14143205 -0.17897767 0.32385492 0.027534196 -0.22417581
-0.024596907 0.1008545 0.111066535 0.262043 -0.07666689 -0.2831012 -0.10178095 -0.23762432
0.101985626 0.012547687 -0.045426555 0.23117952 0.20841682 -0.012082847 0.18120031 -0.02463664
0.11861078 0.24498878 0.26175854 -0.1546612 0.046439756 -0.28319883 0.009940025 -0.08857065
0.104392424 -0.17392564 -0.0015356487 -0.113814294 0.16571513 -0.2585452 -0.117518365 0.027985549
-0.043509685 0.16368786 -0.14294629 -0.040504098 -0.04121455 -0.23359555 0.08168783 0.012907803
0.12225852 0.19823968 -0.13009633 -0.14173853 0.08912654 -0.16906019 0.22401619 -0.26925823
0.012831365 -0.19112583 0.16265342 -0.266743 -0.16328675 0.027382305 0.09835571 0.13658842
0.0004736334 -0.1848019 0.13624863 -0.17039828 -0.004926983 -0.034331203 -0.06501218 0.23587628
-0.09183937 0.15914124 -0.060451042 -0.01822723 -0.12214025 -0.089573525 -0.02369785 -0.17292823
0.1436919 -0.19845925 -0.20272808 0.026225295 0.072039776 0.06623728 0.21941441 -0.16050658
0.16554259 0.16392493 0.030866068 -0.061726674 0.17869085 0.09082418 -0.030242909 -0.033827666
0.062967375 -0.17820698 -0.0486698 -0.064362094 0.20929986 -0.051486183 -0.03154556 0.15908955
0.16514905 -0.025559023 0.028271072 -0.15567486 -0.040635314 -0.15574768 0.016664501 0.13668865
-0.047083322 0.07341761 -0.00072786165 -0.04652638 -0.15390207 0.00036415027 0.20983948 -0.08290771
0.11167129 0.023126995 0.09495819 -0.08510557 -0.10072901 -0.10920136 0.13195935 0.20799795
0.075497985 0.064577535 0.10365341 0.030612325 -0.07133054 -0.08784726 0.03142884 -0.010426447

lstm.bias_ih_l0 f4 [256]
00000000: 269f e63c 4672 ff3d 0b39 f63d 5a67 983c
00000010: c845 093d d87b da3d 5838 cc3d 1ccc ee3d
00000020: aca0 8ebd 8eba 7bbd d18a 8d3d a2d7 e03d
00000030: 1c4f 343d 35ea ecbc 35e6 be3d 2f0d 80bd
00000040: 0db3 55bd b0d5 9fbd 20f2 303d 2c5d a7bd
00000050: 54c4 bfbb e6b5 bcbd 5eab 80bd c348 78bd
00000060: 3839 e1bb 3a5e b8bb 8f14 e33c fbb6 90bd
00000070: 060c abbd 9eea 493d 9648 73bd 02f8 01bc
00000080: 7431 1c3d f5c9 f43c f004 dabc b1f9 85bb
00000090: 1713 2abd b7ac e0bd c579 ce3d 6ba5 86bc
000000a0: c4be a5bd b86d 57bd b9b9 f43d 1245 d93d
000000b0: 2a81 d63d 68b1 e3bd 7ace 42bd ae00 c8bd
000000c0: c4b1 843c fc55 163d 5412 97bd fe65 5dbc
000000d0: 169f 97bd a075 093e a7f0 be3d f9e5 ffbc
000000e0: ad44 2f3d 939d bc3d 901d dcbd f04b ea3d
000000f0: 64c9 d6bd 25f6 a2bc 1cf0 d63d 2b6c 8d3b
00000100: 650a 883d 53b4 61bd 170a bb3d 568e 2bbd
00000110: d073 5fbd 9c3f 803c caab b9bb 3cbb 01bd
00000120: ee02 8fbd 0aa7 c43d d835 01bd 6e19 bfbc
00000130: ad74 cfbd 24f0 e13d 85d7 dfbd f41d c13d
00000140: 47e9 cabc 1a7c 8dbd 66ad fcbc 34ac abbd
00000150: 163e e0bc 5609 bc3d 74aa aa3c 4a74 ef3d
00000160: 1dd8 a63c ee40 063e 8224 4ebd d05d d0bd
00000170: 2eb7 883d 7eb0 0abd 008d b83d dba4 cb3d
00000180: 22dd 4c3d d289 05bd 9f77 cd3d b1a9 793c
00000190: f25d a43d 2814 93bd ba1d 643c 6acf 103c
000001a0: 4e48 7fbd f7dd 7dbd 6482 013d ae79 f03d
000001b0: 019a a23d 1a79 fc3d 0847 d03d 8745 1fbd
000001c0: 7ced 9b3d 79b4 cabd 16aa 1cbd e0c1 92bd
000001d0: b601 8dbd d4fb e2bd 029a b53d 8445 7fbd
000001e0: ff47 e2bd ffd6 3cbd b93a eb3d 5e8e e8bc
000001f0: ee79 f43c 08f9 843d 1ea5 263c 1e7e 98bd
00000200: ce52 023e 8a73 3b3d 2c74 dd3d 819c 8a3d
00000210: 8286 40bd 2ce8 6e3d 9087 eb3c 6ba1 c1bc
00000220: 60d8 003e e4b2 96bb 144d 35bd f07f 473d
00000230: 2883 3ebc aac6 f13d 1b09 083e e867 413d
00000240: db08 e43d 4a84 ac3c b28c f63d bc93 b03d
00000250: f07c e23d 8aab 163d f1cd 9fbd 454e 313d
00000260: 608d 213d 8f22 a43d 1d30 b2bd ce8e dcbd
00000270: 822d a13d 464f 52bc 0ab3 633d be11 edbc
00000280: 7196 793d befd 69bd c8c2 a9bd 998b 95bd
00000290: 65b2 23bc 7197 ffbd e472 f0bd 4254 953d
000002a0: 07c7 88bd 28a9 cfbd 2eb1 bebd 0b36 013d
000002b0: a035 edbd 12d6 efbd c6ac 693d a3e6 00be
000002c0: 088e dabd 649b fdbc 867e 02bd 6bec 70bd
000002d0: c461 653b 8667 f4bc f8cd 933d 5ec1 55bd
000002e0: b03d 2b3d 14d4 09bd 66b8 893d cc25 83bd
000002f0: 58e2 9cbd be0e debc 0d60 7f3d c482 373d
00000300: d59c 66bb f59f 713d f559 4e3d f692 d6bb
00000310: 2426 6fbd 4c9e 1cbd f680 a2bd 8ee6 f1bd
00000320: 5ced f33d 9ede b6bd 98c6 19bd b70d ea3d
00000330: a6fb c8bd 581d 47bd 7914 35bd 3aca 9fbd
00000340: 92be e3bc dd29 9abc c0b6 9e3d 7c88 6c3c
00000350: 6ad1 733d 13bd 6f3b 2b64 603b fa92 eb3d
00000360: 04ee dfbc 7942 e3bd 611b 05be 3edc cebd
00000370: 6c81 fdbb 9ace 263d 557a 4b3d 211a 9abc
00000380: fe44 de3d 38fd cbbd b638 653d bec1 bc3d
00000390: 3965 36bd ce3e ed3b 0d56 a3bd fdc8 a4bd
000003a0: 9088 663d 9922 bbb9 6e9a 0bbc 7da7 383c
000003b0: 2f77 7e3d 2f33 53bb 04b0 25bd 5c93 e4bd
000003c0: 919a e83d 672b 07bd 4757 973d 9c7f b33d
000003d0: bed8 82bd b03b 6abd 0056 073e 5a37 7f3d
000003e0: 1d87 a9bd d4b7 c0bc de14 bbbc 775d 03be
000003f0: a666 ccbd f005 653c 32fa e3bc 2211 7b3c
0.02815206 0.12472968 0.12022599 0.01860397 0.033513814 0.106681526 0.09971684 0.116600245
-0.069642395 -0.06145721 0.06911243 0.10978629 0.044020757 -0.028920272 0.09321252 -0.062525146
-0.05217271 -0.078044295 0.04319966 -0.08172068 -0.0058522616 -0.09214382 -0.06282686 -0.060616266
-0.006873276 -0.005626467 0.027719764 -0.07066151 -0.08351903 0.049296014 -0.059395395 -0.007932665
0.0381331 0.029881457 -0.026613683 -0.0040886034 -0.04152211 -0.10970443 0.100818194 -0.0164363
-0.08093026 -0.05259487 0.11949486 0.10608877 0.10473855 -0.11117822 -0.047560193 -0.09765755
0.016198047 0.036703095 -0.07376543 -0.013513086 -0.0740339 0.13423777 0.093232445 -0.03123759
0.042790104 0.092097424 -0.10747826 0.11440265 -0.10487631 -0.019892761 0.10495016 0.004315873
0.066426076 -0.05510361 0.09132784 -0.04188379 -0.054553807 0.015655331 -0.005666231 -0.0316727
-0.06982981 0.09602173 -0.03154549 -0.023327556 -0.10129676 0.11032131 -0.10929779 0.09429541
-0.024769438 -0.06908436 -0.030844402 -0.083824545 -0.027373355 0.09181468 0.020833232 0.11692102
0.020366723 0.13110706 -0.050327785 -0.10174143 0.06675564 -0.033859722 0.090112686 0.09943553
0.050015576 -0.03260214 0.100325815 0.0152382115 0.08025731 -0.07181579 0.013923103 0.008838514
-0.062324814 -0.06197926 0.03161849 0.117419586 0.0793953 0.12327786 0.10169798 -0.038884666
0.07613656 -0.09897704 -0.038248144 -0.07165885 -0.06885092 -0.11083189 0.08867265 -0.062322155
-0.110488884 -0.046103474 0.1148581 -0.028388198 0.029843297 0.064928114 0.010171203 -0.0744593
0.127269 0.045764484 0.10813174 0.06768132 -0.047003277 0.058326885 0.028751165 -0.02363654
0.1258254 -0.004598962 -0.04426296 0.048705995 -0.01162795 0.1180547 0.13284723 0.047218233
0.111345015 0.021059174 0.12038554 0.08621928 0.11058986 0.036784686 -0.07802952 0.043287534
0.039441466 0.08014404 -0.08700583 -0.10769425 0.07870008 -0.012836283 0.055590667 -0.028939124
0.060934488 -0.057126753 -0.08289105 -0.07302017 -0.009991263 -0.12480057 -0.11740664 0.072914615
-0.066785865 -0.10139686 -0.09311138 0.03154568 -0.11582494 -0.117107525 0.057049535 -0.12587981
-0.106716216 -0.030957885 -0.031858943 -0.058819216 0.00350009 -0.02983452 0.0721702 -0.052186362
0.041806877 -0.03364952 0.06724624 -0.064036936 -0.07660359 -0.027106639 0.06234746 0.044802442
-0.0035188694 0.058990438 0.05037876 -0.006548281 -0.058385983 -0.0382369 -0.079347536 -0.11811553
0.11910507 -0.089291796 -0.03754291 0.11428397 -0.09813623 -0.04861197 -0.044208977 -0.078022435
-0.027800832 -0.01881879 0.077497005 0.014436837 0.059525885 0.0036581203 0.0034239392 0.11502643
-0.027335174 -0.11096663 -0.12998725 -0.101006016 -0.0077363756 0.040724374 0.04967721 -0.018811287
0.10853003 -0.09960407 0.055962287 0.09216641 -0.044530127 0.007240153 -0.07975397 -0.08046148
0.05628258 -0.00035693197 -0.008520706 0.011270401 0.06212538 -0.0032226553 -0.040451065 -0.11160919
0.11357606 -0.033000376 0.07389694 0.08764574 -0.063889965 -0.05718583 0.132164 0.062308647
-0.08277724 -0.023525156 -0.022837099 -0.12828623 -0.09980516 0.013978466 -0.027829263 0.015323909

lstm.bias_hh_l0 f4 [256]
00000000: 0a57 b5bd 9158 1abd 75b5 9f3d edec da3b
00000010: a458 753d be4e 073e 46a6 473d debe d93c
00000020: 1259 b23d e85e ad3d c117 b53d 349e c53c
00000030: c58c 8dbd 422f 6a3d cf36 89bd ee96 d2bd
00000040: e17b 80bd f6b3 3c3d 80fd 68bd 1b2e 663d
00000050: 2a50 18bc 8a9d 90bd 2a3d aabd d494 54bd
00000060: fc9c d4bd cc07 083d 8ed8 823d 6b0e da3d
00000070: 1640 cd3d c802 e6bd 9c56 b5bd dc0b f93d
00000080: 88ae 01bd 970c 35bd 886d 1dbd 6aa5 9e3d
00000090: 067b c3bd 3670 7bbd a252 513d 4baa dcbc
000000a0: eecd 9abd 32ef 313c 3950 d63d fcfb c83d
000000b0: be98 27bd 5844 aa3d 88de e33c e653 0e3d
000000c0: b683 fd3d 55bd b3bd 8825 86bd 60cd f4bc
000000d0: d5a9 4cbc f84c 90bc efe7 bb3d 309b 29bd
000000e0: d873 bdbd 2bea babd 868c 063e 70c7 edbd
000000f0: 36e4 4c3d b905 013d b384 79bc fa7e 053e
00000100: bb8a aa3b 1b36 f83d 2d68 dabd 5828 c53d
00000110: d139 033e f262 4e3d ed87 e23d 9ad9 5fbd
00000120: d8f3 2ebd 8066 e03d 7208 8b3d 6155 cebd
00000130: c43e 213d 2c0e 263d b785 9c3d 5eff f9bc
00000140: a85b 52bd 2ad2 e43d 2468 fc3d 4e45 3abd
00000150: a0b7 3abd 00d7 bb3d 631b bcbd b07d 8c3d
00000160: 0231 d53d 44d5 ab3a 4956 86bd c059 653d
00000170: cb9d 323d c7c0 a53d 8cdf 053e 592b c23d
00000180: d631 943d 645c c0bd 91a2 933d 5265 e93d
00000190: 8816 e9bd 0db1 053e 309f afbd 4518 4dbd
000001a0: 3cb2 833d 330e c53d 05a6 88bd a4ce 953d
000001b0: 115e f6bd dcf8 5ebc 44d8 3cbd 70cc 923d
000001c0: e418 e43d bd33 a5bd 5171 073d ea5b ecbd
000001d0: fa39 8ebd 4ecd b8bd 04aa a43d 4eff c2bd
000001e0: 9dcb c93d 3072 c1bd 00d0 073d b44a 00be
000001f0: 0773 d33d 3680 9a3d 4f4f debd 78c2 273d
00000200: 5377 e2bd 5794 f53d 4031 163d 1286 96bb
00000210: 2a7c fb3a f5c6 933d f402 f33a a4be 67bd
00000220: 2145 aebd 572f 053e f019 fbbd c6de 3a3c
00000230: 03a8 d23d 8872 ddbd f86f 073d eda4 fabb
00000240: 0504 c93d 3369 d8bd ce8a 28bd 401a d5bd
00000250: f6f9 cc3d cad7 1cbc cc1c 05bd f6c1 133b
00000260: ea7b 3ebc e916 57bd 1940 cb3d f101 f43c
00000270: aa45 6d3d b000 f8bd 3bb0 883d bd10 403d
00000280: 570a ef3d 5aef ea3d 6445 96bd ceca a2bc
00000290: 32d4 27bd fa34 fcbd d4f5 babd d288 9a3d
000002a0: 3f91 003e f1c3 8fbc 44e8 dfbd 891f 9bbd
000002b0: 7a29 d0bd 002f 9abd 4e11 af3d 140e 1fbc
000002c0: b465 333d be6d 59bd 4b34 92bc c86c d4bd
000002d0: dca2 d73d d6b6 753d 224d 973d 542d 003e
000002e0: 6a1b 953d 757b 273d baae 7fbb 5a5c 003c
000002f0: 10eb cdbd 6a2f 9a3c 3ebb 823d d47e f4bd
00000300: ecb8 a8bd 5b7f 823d eb3a 7abd 2cbc bf3d
00000310: eb09 1f3c fc3a 11bd 24b0 8bbd 5673 79bd
00000320: f036 103d b4ca fbbd 74e9 223b afb4 ae3d
00000330: a88a 62bd 5c94 7abd f081 d6bd 9c6a 71bd
00000340: 9218 c1bd b5c9 88bc 9c34 893d 5c4d e03d
00000350: 796b 7abc f803 e4bd f4f1 dc3b 6638 90bd
00000360: b2ef fd3d 352e ec3d be61 bb3b 221f 97bd
00000370: 206a 7a3d f686 aabd b145 323d 471e 80bd
00000380: efea 7bbc 0a8e 33bd fb8e a4bc fb1e 043e
00000390: a19c 7ebb 63ce 8e3c 5f29 d93d 3471 c0bb
000003a0: 82a0 00be e04e fb3d 96f8 b2bd f03d 363b
000003b0: 61f7 9a3d bcc1 683d 18b6 9ebd a245 cabd
000003c0: b483 b93c 2169 493d f05e 773d 46b8 843c
000003d0: 806f d93d f2cf e83d 8764 d8bd 62a9 f23d
000003e0: 2fc8 f8bd 8a03 9dbd 68f8 c1bd b675 f0bd
000003f0: 231a 86bc 6877 c93c f486 61bd c866 0f3d
-0.08854492 -0.03768212 0.07798282 0.006681076 0.059898987 0.13213632 0.048742555 0.02658027
0.08708395 0.084653676 0.08842421 0.024123289 -0.06911615 0.057173975 -0.06699907 -0.10282694
-0.06273628 0.04607006 -0.05688238 0.056196313 -0.009296456 -0.07061298 -0.08312447 -0.051899746
-0.10381505 0.03321056 0.06388961 0.10647281 0.10021989 -0.11230999 -0.0885441 0.12160465
-0.031660587 -0.04420146 -0.038434535 0.07746394 -0.09544949 -0.06138631 0.051104195 -0.02693667
-0.07558809 0.010860251 0.1046452 0.09813687 -0.04091715 0.08313817 0.027816072 0.03474798
0.123786375 -0.087763466 -0.06550127 -0.029883087 -0.012491663 -0.017614827 0.09175097 -0.041407764
-0.09250611 -0.09126695 0.13139543 -0.11610305 0.050022326 0.0314996 -0.015229392 0.13036719
0.0052045262 0.12119695 -0.10664401 0.096268356 0.12815024 0.05038733 0.11061082 -0.05465088
-0.042713016 0.1095705 0.0678872 -0.100748785 0.0393665 0.04054086 0.076426916 -0.030517276
-0.05135694 0.11172898 0.12324551 -0.04547625 -0.045585275 0.09171867 -0.09184911 0.068599105
0.10409738 0.0013109823 -0.06559426 0.055993795 0.043607514 0.0809341 0.13073558 0.09480924
0.07236068 -0.09392622 0.072087415 0.113962784 -0.113812506 0.13055821 -0.085752845 -0.050071973
0.0643048 0.09621849 -0.06672291 0.07314804 -0.120296605 -0.013609137 -0.046104684 0.071678996
0.1113756 -0.08066509 0.03306705 -0.11540969 -0.06944652 -0.09023534 0.080402404 -0.09521352
0.09853289 -0.09445608 0.03315735 -0.12528497 0.10324674 0.075439855 -0.10854971 0.040956944
-0.110579155 0.11991184 0.036668062 -0.004593619 0.0019186784 0.072156824 0.0018540309 -0.056578293
-0.08509279 0.1300634 -0.122608066 0.011405652 0.10285952 -0.10812861 0.033065766 -0.007649055
0.0981522 -0.1056694 -0.041148 -0.104053974 0.10008614 -0.0095729325 -0.032498166 0.002254603
-0.011626223 -0.052512083 0.09924335 0.029786082 0.057927765 -0.12109506 0.06674238 0.046890963
0.11671894 0.11471434 -0.07337454 -0.019872095 -0.04097385 -0.12314792 -0.09128919 0.07545628
0.12555407 -0.017549487 -0.10932973 -0.07574374 -0.10164161 -0.07528496 0.085482225 -0.009707946
0.043798164 -0.053083174 -0.0178472 -0.10372311 0.1052911 0.05998882 0.07387759 0.12517291
0.072806194 0.040889222 -0.0039014057 0.007834518 -0.100546 0.018821437 0.0638337 -0.11938253
-0.08238396 0.063719474 -0.061091345 0.09362063 0.0097069545 -0.035456643 -0.068207055 -0.06090101
0.035208642 -0.12294522 0.0024858387 0.085305564 -0.055308014 -0.061176643 -0.10474002 -0.05893956
-0.094285145 -0.016697744 0.066994876 0.10952255 -0.015284413 -0.111335695 0.0067427102 -0.07042007
0.12399234 0.11532251 0.005718439 -0.07378985 0.061136365 -0.08326523 0.043523494 -0.06255775
-0.015375837 -0.04383663 -0.02008771 0.12902443 -0.0038850682 0.017432397 0.10603594 -0.00587287
-0.12561229 0.122709036 -0.0873882 0.0027807914 0.07566715 0.056825384 -0.077495754 -0.09876563
0.022645809 0.049172524 0.060393274 0.01620115 0.1061697 0.113677874 -0.10566049 0.118487135
-0.12147557 -0.07666691 -0.09471208 -0.117412016 -0.016369885 0.02459307 -0.055060342 0.03501013

fc.weight f4 [1, 64]
00000000: 1216 acbe 1008 0dbf 2650 d8be bac0 52be
00000010: 8dee 15bf a17f c6be c6eb 6ebe 61c7 823e
00000020: 052d 1cbe ecb2 8c3e 2c90 0abf 993b f8be
00000030: 68ba 18be 42bf 2bbe ec95 42be 93d2 013f
00000040: 930b 1e3f c646 61bd 2e97 b13e 6681 943e
00000050: 64dc 0f3f c993 c03e ae57 1f3e c23f aabe
00000060: a006 ab3e f5fe df3e fb05 2e3f 984b dc3e
00000070: 0a96 c43b be46 e2bd 3452 813e e097 b13e
00000080: c26d fc3d 55c6 aabe 16aa 74be a278 30bf
00000090: b694 003f c59c 0fbe 36c9 303e c8df e83e
000000a0: 85df a63e 366a 973e 27c8 193e bd93 3e3e
000000b0: c71d c3be f245 7cbd b496 fb3e bf4b ac3d
000000c0: 2332 413e 07d2 913e 9853 953e f4a4 b3be
000000d0: 6583 8cbc 003c cd3e a75c 2bbe 35cd 893d
000000e0: 1928 73be 5aef f0be 19a6 39be 184b 8c3e
000000f0: ba44 813e 5e08 0ebd 2e69 b7be 0704 a93e
-0.33610588 -0.5509043 -0.42248648 -0.20581332 -0.58567125 -0.38769248 -0.23332128 0.2554274
-0.15251549 0.27480257 -0.5412624 -0.4848297 -0.14914858 -0.16772178 -0.19002503 0.50711936
0.6173641 -0.054999135 0.34685653 0.29004973 0.56195664 0.3761275 0.15560791 -0.33251768
0.33403492 0.43749204 0.67977875 0.43026423 0.0059993314 -0.11048649 0.25258029 0.34686184
0.12325622 -0.3335444 -0.23893008 -0.6893407 0.50226915 -0.14024647 0.17264256 0.45483232
0.32592407 0.2957322 0.15017758 0.18611045 -0.38108656 -0.061590143 0.49138415 0.08412885
0.18866782 0.2848055 0.2916534 -0.35086787 -0.017152498 0.4008484 -0.16734563 0.06728593
-0.23745765 -0.4705761 -0.18129767 0.27401042 0.25247747 -0.03467595 -0.35822433 0.33010885
