model/fl_checkpoints/global_round_4.pt (torch, 196820 bytes, 7 tensors)

conv1.weight f4 [64, 78, 3]
00000000: 22ad 343d 6ab7 203d f254 a5bc e453 763d
00000010: 8e14 adbc ecda 323c c652 fdbc 748e da3c
00000020: 6b35 653d d82e 50bd 52f7 5f3d 8ca0 473b
00000030: 0e7a 1e3d 7a72 a03a f234 093d 8427 8ebc
00000040: e410 2a3d 7ef0 44bb 7e75 2abd c06f 5e3c
00000050: b56c f6bc 8336 65bc bbb7 f8bc 82a7 253d
00000060: 3784 68bd 32b9 04bd 453b dbbc ebd5 3bbd
00000070: 31a6 6d3b 7e8d 91bd 3ec2 313d 383d 73bd
00000080: 1a39 423d 4497 493b 3059 9dbc 6f5c 1a3d
00000090: 8ec5 bd3b 1ad9 473d dfbd dbbb e993 f5bc
000000a0: 8e29 823c 801e c5bc 1af4 e43c 5a47 593d
000000b0: 7044 2f3d 92f2 f8bc 7cac c03c 5c93 093c
000000c0: dd6a 053d c640 39bd e661 8bbd 8734 05bd
000000d0: 7674 68bd 0577 4e3d 52f5 8c3c 4c13 f93c
000000e0: 7695 b33c 74e8 b6bb ed89 503d d84e 3cbd
000000f0: 895c 353a 8af3 22bd d9b4 d03c c6fa 02bd
00000100: 0493 443c 95b3 72bc 4206 483d 61ec 48bd
00000110: ba83 5cbd b474 50bd 9ff6 603d aea7 033c
00000120: 4e10 543d 300f 87bd 18cd 95bd 0eaf 68bd
00000130: 47c2 48bd 2ead d93c 9ae1 5b3c 1dc7 5c3d
00000140: f12c 30bd 766a 32bd c6af fa3c e0a4 26bd
00000150: 8a5c f73c be5f afbc 6e41 e83c 7833 48bd
00000160: e466 03bd 02c4 c13c 3e1c 833c 12a7 c3bc
00000170: 361c 403d 6272 143d 1693 45bd be83 53bd
00000180: fa1e 573d 3845 debc 0430 bfbc 959b 6cbd
00000190: 2041 21bd a09c 3c3c b9e9 5abc d42c 5dbd
000001a0: 04b8 673b 7008 3ebd 420e 82bd 0453 2cbd
000001b0: 4c7e 85bd 98d8 3ebd a1d1 8b3d d195 193c
000001c0: 26e9 6d3c 0421 98bd 582a 3cbd 2cef e1bc
000001d0: 7522 23bb 2cde 5bbd 5aa1 34bd dc6e 2ebd
000001e0: 2e8b 49bc b907 cebc 982b acbc 40d4 4abd
000001f0: 0f0b 4bbd 3099 39bd e814 8fbc 5a42 73bd
00000200: 7abc 613d 2284 5fbc 8c1d 473d 3448 983c
00000210: 242e 6ebd c417 3a3d 5e31 8fbc 7cfc 10bd
00000220: 0ed0 6bbd 2ae2 a5bd 12ea 123c 5727 abbc
00000230: 8616 fe3c 6311 60bd 7a0b 343d 0ec2 65bd
00000240: ce6f 45bc 6eb8 4e3c 5e9f df3c 8130 383d
00000250: ee55 723d 6d81 87bd 6e7d 463c 076b 19bd
00000260: b4dc 22bc 6151 52bd 788b 6d3d 8854 6fbd
00000270: 84b9 083d 9a14 343c 20e2 b43c f0b8 16bd
00000280: 4488 5d3d 79e9 1c3c be10 ce3b b4a9 52bd
00000290: 84db ee3c 183e 3abc 3cc8 18bd 2ccf 833d
000002a0: 1ec2 5c3c 4b5d 35bd 3e59 0abd fc40 08bc
000002b0: 485b e83c 2b60 b7bc 8f9b 25bd 65f0 d3bc
000002c0: 64d2 69bd ec57 ae3c a6d8 3c3d 6231 8ebd
000002d0: 9851 2a3c ac2c f23c 87bf 583c 18b2 1cbd
000002e0: 20ab 093d f360 0b3d 2c59 de3c 9cae b0bc
000002f0: f4b1 edbc d82b 8d3b efa2 9dbc 326f d0bc
00000300: 2aeb ec3c 5a46 5f3d 2a32 9abc a605 d3bc
00000310: 361c 22bc 294b 8bbb 9a01 893c dff4 603c
00000320: 118b 83bd 532a 08bd 6af4 6b3d d751 a43c
00000330: 9395 b9bb d667 0ebd 4550 2ebd eb7c 68bd
00000340: 10bd 02bd 81d8 9d3c a416 0e3d 3e9d f43c
00000350: 726f 9fbd 68a2 37bd 73fc b7bb 8eac 6e3d
00000360: 5e69 263b 35f5 bbbc 12f8 c63c d0d4 16bd
00000370: 345f 52bd fedd 453d 7c63 2ebd 04a9 6ebc
00000380: 70d3 a0bd f49d e83c 1cc4 323d ac71 ca3c
00000390: bd37 44bd 5440 9cbd 0b04 7fbd d884 283d
000003a0: 1e7b c33c 6479 6b3d 3406 373d acaf 653c
000003b0: 5207 cd3b d2ca 70bd ce1d 87bd a846 50bd
000003c0: f188 d33c 063e f5bc 0611 dcbb 4a0b 3bbd
000003d0: 1a48 d9bb e421 32bd 900c 56bd d27d cd3c
000003e0: 38c6 59bc 505e 113d f62b fcbc 30c7 3abd
000003f0: 9839 8abc fef8 23bd 5ebf babb 768f 81bd
0.044110425 0.039237417 -0.020182107 0.060138598 -0.021127965 0.010916453 -0.030923259 0.026679255
0.055959146 -0.050825924 0.054679222 0.0030460684 0.03869062 0.0012241148 0.03349776 -0.017352827
0.041520014 -0.003005057 -0.041615956 0.013576448 -0.030081132 -0.013990047 -0.030361047 0.04044295
-0.056766715 -0.03240318 -0.02676166 -0.045858305 0.0036262388 -0.071070656 0.043398134 -0.059384555
0.047417738 0.0030760327 -0.019207567 0.037685808 0.0057913726 0.04879103 -0.006705984 -0.029977756
0.015888955 -0.024062395 0.027948428 0.05304656 0.042789876 -0.030389104 0.023519747 0.00839695
0.032572616 -0.04522779 -0.06805782 -0.032520797 -0.05675169 0.050406475 0.017206822 0.03040471
0.021921854 -0.00558191 0.050912786 -0.04597363 0.0006918391 -0.03978304 0.02547686 -0.031977437
0.011997942 -0.0148133235 0.048834093 -0.049053553 -0.05383656 -0.050892547 0.054922696 0.008035583
0.05177336 -0.06594694 -0.07314509 -0.05680757 -0.049013402 0.026571836 0.013420487 0.053900827
-0.04301161 -0.04355856 0.030601393 -0.04068458 0.030195493 -0.021407958 0.028351512 -0.04887721
-0.032080546 0.023653034 0.016004678 -0.023883376 0.046901904 0.036241896 -0.048235975 -0.05163931
0.052519776 -0.027132615 -0.023338325 -0.057765562 -0.03936875 0.011511952 -0.013361388 -0.05399783
0.0035357485 -0.046394765 -0.06350376 -0.042071357 -0.0651823 -0.04659328 0.06827093 0.009374098
0.014520919 -0.07428172 -0.04593882 -0.027579866 -0.0024892364 -0.053678676 -0.04409919 -0.042586192
-0.012301249 -0.025150167 -0.02101688 -0.049518824 -0.049571093 -0.045312107 -0.017466024 -0.05938945
0.055111386 -0.013642343 0.048612162 0.018589117 -0.058149472 0.04543282 -0.017479595 -0.035397038
-0.057571463 -0.08099778 0.0089669395 -0.020892782 0.0310166 -0.05470408 0.043956257 -0.056093268
-0.012050582 0.012617214 0.027297672 0.044968132 0.05916398 -0.06616483 0.012114866 -0.037455585
-0.009940315 -0.05134714 0.057994336 -0.058430225 0.033380046 0.01099124 0.022080481 -0.036797464
0.05408503 0.009577149 0.006288617 -0.051431373 0.029157408 -0.011367343 -0.037300333 0.06435999
0.0134740155 -0.044278424 -0.033776514 -0.008316275 0.028363839 -0.022384724 -0.040431555 -0.025871465
-0.05708541 0.021282159 0.04610505 -0.06943013 0.01039543 0.029562317 0.013229257 -0.03825578
0.033610463 0.034028005 0.02714213 -0.021567635 -0.029015519 0.004308205 -0.019242732 -0.025443647
0.028920729 0.05451045 -0.018822748 -0.02575953 -0.009894421 -0.004250903 0.016724396 0.013730257
-0.06423009 -0.03324349 0.05760614 0.020058556 -0.0056635826 -0.034766994 -0.04255702 -0.056759756
-0.031918585 0.019268276 0.03468956 0.029860135 -0.077849284 -0.044832617 -0.005614811 0.05827003
0.0025392394 -0.022944072 0.024288211 -0.036824048 -0.051360324 0.04830741 -0.042575344 -0.014566664
-0.078528285 0.02839563 0.043644056 0.024712406 -0.04790472 -0.07629457 -0.062259715 0.041142315
0.023862418 0.057488814 0.04468365 0.014018934 0.006256976 -0.058787175 -0.06597482 -0.050848633
0.025822135 -0.029936802 -0.0067158965 -0.045665063 -0.0066309096 -0.043489352 -0.052258074 0.02508441
-0.013291888 0.035490334 -0.030782681 -0.045600116 -0.016873166 -0.04003238 -0.0056990823 -0.06326191

conv1.bias f4 [64]
00000000: f3f4 67bc 4a2c 7abc 523f 5e3d 7e6e bf3d
00000010: 513e db3d c55b 903d f6d3 633d 50c8 f33b
00000020: 9234 b0bc b192 5d3d 866f 5a3d b01a 393d
00000030: d3ef fdbc 148f f73c 1266 e9bc da53 673c
00000040: 36bf 57bc 2805 b23c 5251 ee3c eb53 c63d
00000050: 43c3 a23b 8533 263d 7d5f a0bd 8cae 4d3d
00000060: a8bf c63d b297 293d 62b9 9ebc c8f3 893d
00000070: a82b 71bd a74e 843a ba5e 97bc 3e20 9a3d
00000080: a2b0 d7bb 5ee4 8d3c 06d1 6bbd 7662 8dbc
00000090: 35dc 8fbd f9d0 293d c075 443d dd10 0fbc
000000a0: 145e 96bb ceed 943d 817d fcbc 1610 5c3d
000000b0: 6b27 d4bc 7d0c d43c 338c ad3d 78d6 ea3c
000000c0: 0894 a13d 4ae5 68bd 15cd ae3d e469 b8bd
000000d0: 3142 62bd f80a adbd 58c2 93bd 3681 0fbd
000000e0: c4f3 69bd 1245 093d 317a 67bb 3311 4c3c
000000f0: 32ef 023d 64bb 353d b2e3 0e3d 656a 83bc
-0.014157522 -0.015269348 0.054259606 0.093472466 0.10705245 0.07048754 0.055622064 0.0074396506
-0.021509442 0.054094974 0.053329013 0.045191467 -0.030998146 0.030219592 -0.028491054 0.014119113
-0.013168147 0.021730974 0.02909151 0.09683975 0.0049671247 0.040576477 -0.07830713 0.05021529
0.09704524 0.041404434 -0.019375507 0.06735951 -0.058879524 0.0010094241 -0.018477786 0.07525681
-0.0065823356 0.017320808 -0.057572387 -0.017258864 -0.07024423 0.041459057 0.047963858 -0.008732048
-0.0045888517 0.0727192 -0.030821564 0.05372628 -0.025897702 0.025884861 0.084740065 0.02866672
0.07889563 -0.056859292 0.0853521 -0.09004572 -0.055238906 -0.08449358 -0.072148025 -0.035035335
-0.05711724 0.033513136 -0.0035320634 0.0124552725 0.031966396 0.044368163 0.034885116 -0.016041944

lstm.weight_ih_l0 f4 [256, 64]
00000000: 7c22 a93d aad9 293e ae0e 5e3a 4363 503e
00000010: 4d7f ee3d 22b0 5cbd 17c1 1f3d 4dd1 99bb
00000020: eb72 a03d 4b55 f03c 5a8c 773d 7faa ac3d
00000030: 988a 823e 01ff 5a3d 6086 243e a470 a43e
00000040: 398d 533e 03e8 023c 47bf af3d 1b58 443e
00000050: 17e5 af3c f340 a43d a255 953d 55e8 a43e
00000060: df90 8e3e 3674 5cbd a29f 3ebd f4e5 8c3d
00000070: 19e0 bdbd 4e81 323c c48b e43c 570c 883d
00000080: 4eb1 a23e 820a 8d3b 545e 4f3e 5fed b53d
00000090: 5a00 833d 747b 833e b6e2 e63d 8e5b 213e
000000a0: 5fa9 1b3d a728 5a3e 8aba 7c3e c232 253e
000000b0: 1552 c5bd 2b21 b43e c2f6 103e b305 373e
000000c0: 49f9 4f3e 5d9f adbd ff65 923e cd14 263e
000000d0: f896 993d 053f e03c 2935 2a3e d783 173d
000000e0: 9b09 283e ad8a 563e e867 323c b3a6 5e3e
000000f0: a609 b3bd 543b c93d 77cf 773e 970d 72bb
00000100: 3574 4dbd 435f 9bbe f67d 29be d264 9d3e
00000110: 86c9 5e3e e747 8a3d cdea 963d 798c 0d3d
00000120: 524e b33d 8047 053f f568 7d3d 3cb0 4b3e
00000130: ebc6 843b 846f 5f3e 8cec 6bbc 6e8f 823e
00000140: a158 033e 7082 733d 7346 0e3d 3210 5f3d
00000150: 1445 06be 441c 373e 61cf 62bd c245 a23e
00000160: 0e14 82be 2b97 2c3e 0666 013f 2391 5e3e
00000170: 7738 5e3e da33 febd 1d1d bebd 864d eabc
00000180: 7956 0bbe f396 543e 7477 fd3c 1f06 b6bd
00000190: e50b 1b3e da54 7b3d f847 863e 9dd5 873d
000001a0: 9f32 673d d6e4 123f 3491 3bbd 8bdb 243e
000001b0: e0cf 80be a193 143e 3695 a3be cdcf 4dbe
000001c0: 3443 d83d 7bfe 3b3d ebd8 1c3e dfb2 c93d
000001d0: 10de f93d 5d6f 32bd 5d38 4a3d a72f 883e
000001e0: 52e2 8c3d 3c31 f0bd c01a a73e a29e 82bd
000001f0: bbb3 a73d 2802 3fbe d2a4 d03e f909 22be
00000200: 6288 c03d bc64 b03d af2f b33e 2eca fe3c
00000210: ff9e 233e 4b50 cb3d e96e 70bc 2b1e 3dbe
00000220: 5621 803d ad9e ce3c 6758 333e cdc8 493d
00000230: aa18 e33c ceda 603e 46f6 fa3d 2e31 e7bc
00000240: 626c 963d ceb2 ef3d 38eb bbbb 92f8 a93d
00000250: 4cf4 32bd 0781 f2bd 4ea7 133e 5f73 abbd
00000260: e5ea 483e 42ef 3e3e 1ff7 00bd 0cae b0bc
00000270: 8284 a13d dcd9 593b 6ef6 a93e 28b6 cd3e
00000280: 07c2 4bbd bc24 2abe b2c3 30bd fd8d 3ebc
00000290: 2a91 3d3d 74ff 81bd 925b 1e3d d1e3 99bd
000002a0: f049 683e 62f1 9b3d 004e 1a3d 07c9 633e
000002b0: 45bd 0ebe 66cc f63d 89d0 4e3e 3ddb 653e
000002c0: 4557 dc3d b709 02bc 805c 80bd 953f 4bbd
000002d0: 8cdf 82bd 033d 8d3e f8c0 9c3d 1772 40bd
000002e0: 07ee 623e d8b9 0abd e20b 913e 2718 85bd
000002f0: a0d8 f03c e53a f3bd f3c9 843e 3615 8a3c
00000300: 0874 5fbd 1d83 4b3e 2df2 f03c a5be 11bd
00000310: d675 f43c 4c06 3e3c c7be b4bc 5bee 0f3c
00000320: 3502 d83d ae20 b2bc 69b0 423e 7f16 513d
00000330: 926c 9d3b 6db3 2c3d 0cb8 ea3d 799f d43d
00000340: cf18 f5bd 05b9 b5bd 2cbb 813d 391c d63d
00000350: 6140 36bc c36e 5ebe 5af7 5cbd e5e1 d53d
00000360: ae1c 523d d296 043d 6586 b7bc bf33 a03d
00000370: 95d5 bcbd 7fe7 32bd f054 2f3c 6465 7e3e
00000380: 02f1 9f3c bd7d f63d b16a aa3d 6518 b4bd
00000390: 62ec 873b 2b11 b73d 8b9e 2cbe 8496 5bbd
000003a0: 3c38 463d 1baf ea3d f27e 6bbd dc42 103e
000003b0: 9830 07be 46a8 ec3d cada 89bd 7e53 2f3e
000003c0: f59a 48bc c562 193c 127c d8bc c0d8 883d
000003d0: c8cb 9ebd 82e6 97bd aba9 83bd ff85 bcbd
000003e0: 1241 0dbe 64a5 633d 436d 29bd dedd 173e
000003f0: 66cb 563d 7ceb 823d 4ec7 c83d e5ca 153e
0.082585305 0.16586939 0.00084708154 0.20350365 0.116453744 -0.05387891 0.039002504 -0.00469414
0.07834419 0.029337546 0.060436584 0.08430957 0.25496364 0.053465847 0.16066885 0.32117188
0.20659341 0.007989886 0.08581405 0.19174235 0.021471543 0.080202006 0.07291724 0.32208505
0.27844903 -0.053821765 -0.046538956 0.068797976 -0.09271259 0.010895086 0.027898677 0.06642979
0.31775898 0.004304231 0.20250827 0.088831656 0.063965514 0.25680125 0.112737104 0.15757582
0.03800332 0.2130457 0.24680534 0.16132644 -0.096347965 0.35181555 0.1415663 0.17873268
0.20309938 -0.08477662 0.28593442 0.16218872 0.07499498 0.0273738 0.16621841 0.036990967
0.16409914 0.20951338 0.010889031 0.21743278 -0.08742075 0.09825769 0.24200235 -0.003693437
-0.05015965 -0.30346116 -0.16551957 0.30740982 0.21756563 0.067519955 0.073690034 0.034557793
0.08755173 0.52062225 0.061867673 0.19891447 0.004052033 0.21819884 -0.014399659 0.25500053
0.12826778 0.059450567 0.034735154 0.054458804 -0.13112289 0.17881876 -0.055373553 0.31693846
-0.25405926 0.16854541 0.505463 0.21735053 0.21701227 -0.12412234 -0.09282897 -0.02860142
-0.13607205 0.20760708 0.030940749 -0.08887886 0.15141256 0.061360218 0.26226783 0.066325404
0.05644476 0.57380426 -0.045792773 0.16099374 -0.25158596 0.14509441 -0.31949776 -0.20098801
0.10559693 0.04589699 0.15317123 0.0984857 0.12200558 -0.043563236 0.04937016 0.26598856
0.06879105 -0.11728141 0.32637596 -0.06377913 0.08188578 -0.18653166 0.40750748 -0.15824117
0.09401013 0.086129636 0.34997317 0.031102266 0.15978621 0.09927424 -0.014674881 -0.1846854
0.06256358 0.025222147 0.17514192 0.049263764 0.027721722 0.21958467 0.12254004 -0.028221693
0.07344891 0.11704026 -0.0057348274 0.08299364 -0.04369001 -0.11841016 0.1441929 -0.08371615
0.19620855 0.18645957 -0.031485673 -0.021567367 0.07886602 0.0033241427 0.33195823 0.40178037
-0.049745586 -0.16615576 -0.04315538 -0.011630532 0.046281017 -0.06347552 0.038661547 -0.07514156
0.22684455 0.076143995 0.037672043 0.22244655 -0.13939388 0.12050705 0.20196737 0.22446914
0.10758833 -0.0079368865 -0.06267643 -0.049621183 -0.063902944 0.2758561 0.07653993 -0.046983805
0.22161113 -0.03386864 0.28329378 -0.06498747 0.02940017 -0.118764676 0.25935325 0.016855817
-0.054554015 0.19874234 0.029412353 -0.035582203 0.029841345 0.011598181 -0.022063626 0.008784856
0.10547296 -0.021744099 0.19012608 0.051046845 0.0048042024 0.0421633 0.114608854 0.103819795
-0.119676225 -0.0887318 0.06334528 0.10454602 -0.011123748 -0.2172194 -0.05394683 0.104434766
0.051296882 0.032370396 -0.022402951 0.0782237 -0.09220425 -0.043677803 0.010701403 0.24843365
0.019524101 0.120357014 0.08321131 -0.087937154 0.004148052 0.089388214 -0.16857354 -0.05361034
0.048393473 0.1145918 -0.05749411 0.14088005 -0.13202131 0.11555533 -0.06731184 0.17121693
-0.012243976 0.009361927 -0.026426349 0.06681967 -0.07753712 -0.07417013 -0.06428846 -0.09205245
-0.13794354 0.05557765 -0.041363966 0.1483073 0.05244007 0.06392571 0.09803639 0.1462818

lstm.weight_hh_l0 f4 [256, 64]
00000000: 626a cebd c33a b1bd 2db1 643e 5471 983e
00000010: d064 b5bd ba7e 69be 120b 143e b2d4 3ebe
00000020: 7a78 3b3e d044 9cbe 8691 b73d c433 af3e
00000030: 906b a93e b99c 663c 2be7 013f 65e7 2cbe
00000040: ade9 4a3e b954 093e b353 6c3e 48cc 62be
00000050: c4b6 133e aa91 8abe 54ea 59be f7c6 853d
00000060: ee33 4fbe 11de 8ebe f59e 44be 08c4 68be
00000070: 67fa c53e d8cd 97be efc3 6cbe 3eec efbc
00000080: 0f84 7c3a a536 733e fa3f a93c abc9 8b3d
00000090: 42fa 30bd fcba a7be 4e68 aabd 8c08 f53d
000000a0: 3ba4 32bd 6241 cebd bdaf 8cbe 4f2e 49be
000000b0: 6ac9 163e 4588 95be 31a8 9c3e 4ae8 bdbe
000000c0: e0c0 2bbd a8ac 34be d6c4 233d 354b 74be
000000d0: f720 3abe 1fba 2a3d 1590 7c3e fe0a 993e
000000e0: 7a54 1c3e 6f97 c2bd 157e 1e3e f559 9fbe
000000f0: 9f43 7b3d bc56 993c 9398 2f3e 4167 bd3e
00000100: 765f f23d fa51 ba3d d69a 163d b095 2c3e
00000110: d634 74bd 6281 76be c20c 7b3e 13c2 1abd
00000120: d935 6d3e bd32 09bd ce15 65bb 305d f1bd
00000130: fb9f ac3e 3021 8f3d af69 9b3e 313f 69be
00000140: a272 093d 8e37 fa3d 7958 013e e511 02be
00000150: 19f9 2e3e 11dc 7bbe 5458 0bbe 2606 55bd
00000160: 5e4d 15be 9d42 bebd 4791 e33b 929c 9cbe
00000170: fcde b03e 2d8d 85be 8502 32be 4cc9 34bd
00000180: ff01 e6bc 8108 613e 71af 123e 7bfc b0bd
00000190: 15b2 5d3d dbdb 90be 369c 51be 9e3d 293e
000001a0: 0748 713e 17ca f2bd d748 46be 7d1e f6bd
000001b0: 9bbe 9dbd e0d1 97be 03ae 18bd 3ef6 37be
000001c0: 68cf 553d c39e 5ebe 75e9 383d c5d8 afbe
000001d0: 4f87 c1be a281 d83d a2e1 233e 3638 2f3e
000001e0: 3ef2 2d3e 22e8 2fbd ebeb 243e 0288 17be
000001f0: fa3c 3ebe 6659 a23e 1957 0d3d 1a52 6cbe
00000200: f7e8 08bd b493 d83d 58df 043e d273 883e
00000210: 5914 93bd 5999 8ebe 978f c6bd a703 78be
00000220: 4bbd da3d 4da7 0f3c 32d9 25bd 15d9 713e
00000230: 0a6b 5a3e 66e1 25bc bca1 3e3e a920 f2bc
00000240: c876 eb3d 2da5 7f3e 434c 853e 4622 23be
00000250: 5b6d 4c3d 6e18 93be ce9a ba3b 9460 acbd
00000260: fb57 cc3d fa2a 37be 68ae e6bb 6849 f2bd
00000270: 150a 2e3e 2a8b 87be dbb2 ecbd 4610 be3c
00000280: 2c6f 1dbd 02df 2c3e ed37 0ebe 2905 13bd
00000290: 5b2e 3dbd eb8c 74be d99b 9d3d e24f dd3b
000002a0: b02d f93d 1237 463e dbdc 09be 7503 15be
000002b0: e931 ae3d 8cae 31be f097 623e 022a 8cbe
000002c0: 6e48 a33c a5bd 48be f72e 233e d085 82be
000002d0: 2e22 2cbe eddd b93c 521a d33d 9ce1 0f3e
000002e0: a23b 9d3b d970 38be 653c 103e 96d9 30be
000002f0: eab9 1fbc 867b 0fbd c74e 76bd 13d5 6c3e
00000300: 90d4 afbd 473b 283e f84f 8ebd 28a2 5ebc
00000310: fca3 eabd ac09 acbd 58c2 93bc 3a58 31be
00000320: 591f 173e 7204 51be 2844 47be 7984 d13c
00000330: ccd6 9d3d a2b3 923d 6b72 673e d26c 2abe
00000340: 55ce 213e 0e1f 2a3e 34d7 d03c dee2 85bd
00000350: d838 2f3e d467 ae3d 927c 0fbd c613 e1bc
00000360: 1393 663d 30ba 3cbe 0e06 5dbd b3a0 8ebd
00000370: 0610 5a3e abef 31bd 6362 cabc f034 1c3e
00000380: 5482 2e3e 5748 08bd d12f 143d eae5 17be
00000390: f8ae 41bd 8996 22be 4f93 3e3c bf01 033e
000003a0: 1717 56bd 37af 893d ba44 9bbb 52b9 3ebd
000003b0: 3c80 24be 1097 a23b afaf 4f3e 788c a5bd
000003c0: 964a e53d 6765 ba3c 8689 c83d acfb b6bd
000003d0: 9081 dabd ef85 ebbd 0ebb 0b3e 4ac7 553e
000003e0: a7b1 a33d 5968 8f3d ca0d dd3d 3f72 0e3d
000003f0: 2593 9ebd 3e37 a2bd 294a 113d 68bf 87bc
-0.10078885 -0.08653786 0.22333212 0.29773962 -0.08857119 -0.22802249 0.14457348 -0.18635824
0.18307677 -0.3052125 0.08963303 0.34219182 0.33089876 0.0140754515 0.5074336 -0.16885145
0.19815703 0.13411225 0.23078804 -0.2214824 0.14425188 -0.27064258 -0.21280795 0.0653209
-0.20234653 -0.27903798 -0.19201262 -0.2273103 0.38667604 -0.29649234 -0.23121618 -0.029287454
0.00096327154 0.23751314 0.02066039 0.068255745 -0.043207414 -0.32759845 -0.08320676 0.11964521
-0.043613654 -0.100710645 -0.27477828 -0.19646572 0.14725271 -0.29205528 0.3059707 -0.37091285
-0.041931987 -0.17643988 0.03998264 -0.23856814 -0.18176638 0.041681405 0.24664338 0.298912
0.152666 -0.0950154 0.15477784 -0.3112332 0.061343785 0.018718116 0.17148046 0.3699284
0.11834614 0.09097667 0.036768757 0.16853976 -0.0596207 -0.24072793 0.24516585 -0.03778274
0.23165073 -0.033495653 -0.0034955624 -0.11785352 0.33715805 0.06988752 0.30354068 -0.22778012
0.033556588 0.122176275 0.12631406 -0.12702139 0.1708721 -0.24595667 -0.13607913 -0.052007817
-0.14580294 -0.09290049 0.0069448086 -0.30588204 0.34545124 -0.2608427 -0.17383774 -0.044137284
-0.028077124 0.219759 0.14324738 -0.08641907 0.05412491 -0.28292736 -0.20469746 0.16527411
0.23562633 -0.11854952 -0.19363724 -0.12017534 -0.07702371 -0.2965231 -0.037275326 -0.17965028
0.05219975 -0.2174025 0.045144517 -0.3434507 -0.37798545 0.105716005 0.16004041 0.17111287
0.1698694 -0.04294599 0.1610562 -0.14797977 -0.18577948 0.3170883 0.03450689 -0.23078194
-0.033425298 0.10575047 0.12975824 0.26650864 -0.071816154 -0.2785137 -0.09695356 -0.24220143
0.10680636 0.008767915 -0.040490337 0.23617966 0.21329895 -0.01012454 0.18616384 -0.02955659
0.11497265 0.24965353 0.26034746 -0.15931043 0.049908977 -0.28729576 0.0056947237 -0.08416858
0.099777184 -0.17887488 -0.007039834 -0.118304074 0.16996033 -0.2647336 -0.115575515 0.02320112
-0.0384361 0.16881946 -0.13888521 -0.035893593 -0.046186786 -0.23881881 0.07695741 0.0067539075
0.12166917 0.19356945 -0.13463156 -0.145521 0.08505613 -0.1735174 0.22128272 -0.273758
0.019931998 -0.19603594 0.15935884 -0.25492716 -0.16809914 0.02268883 0.103077546 0.14050907
0.0047983686 -0.18011798 0.14085539 -0.17270502 -0.009748915 -0.03502991 -0.06013372 0.23128156
-0.08585465 0.16428863 -0.069488466 -0.013588466 -0.11457059 -0.08400282 -0.018037006 -0.17318812
0.14758052 -0.20411852 -0.19459593 0.025575863 0.07706985 0.071631685 0.2260224 -0.16643074
0.15801366 0.16613409 0.025493242 -0.06537412 0.17111528 0.085158974 -0.03503091 -0.027475249
0.056292605 -0.184304 -0.053960852 -0.06964245 0.21295175 -0.043441456 -0.024705118 0.15254569
0.17041904 -0.033272114 0.036178414 -0.14833799 -0.047286004 -0.15877737 0.011631801 0.12793635
-0.052268114 0.06722873 -0.0047384175 -0.046563454 -0.16064543 0.0049618557 0.20281862 -0.08083433
0.11195867 0.02275343 0.097918555 -0.08934721 -0.10669243 -0.11500155 0.13645574 0.20876804
0.07992869 0.070023246 0.10793646 0.034776922 -0.07742909 -0.07920693 0.035471115 -0.016570762

lstm.bias_ih_l0 f4 [256]
00000000: 20cf a73c bda5 053e ef6c 003e fdfe 0b3c
00000010: 0aa5 2c3d aa5d 003e b486 c73d d937 e63d
00000020: dc3d 6cbd 8cc5 80bd e69e aa3d 7822 fd3d
00000030: 9497 5a3d dfc4 26bc 92df d83d caae 4abd
00000040: deda f4bc f2c0 9bbd e27c 383d 7faf 83bd
00000050: 30a8 4d3c 44c2 a0bd 1e8e 7fbd cdee 3ebd
00000060: 6a07 163c 5856 a13b 3c9a 273d de70 5fbd
00000070: c30c a6bd 4e11 633d f5c4 3ebd e8fd 9fbb
00000080: 5c1f 4f3d df0d 453d 7017 02bc b668 c83b
00000090: 5e0f eabc 5e5f babd 6e49 c33d 5c22 c6ba
000000a0: 780e 5abd cc16 4bbd bc17 073e 6f52 f83d
000000b0: e12d f93d 3cfa d8bd 349a 30bd 7291 c2bd
000000c0: 73a4 323d ca44 2b3d 7e15 4dbd 994b 023c
000000d0: 8674 8bbd 12f3 153e fcc1 b03d dae9 aebc
000000e0: 783d 693d eb5d cc3d c30e f7bd e4d6 053e
000000f0: b2ae d0bd feb9 11bd db9c ec3d c41b 493c
00000100: 7294 7e3d ff92 2fbd f6ba d93d b233 1ebd
00000110: a28b c6bc 8ff5 323d 6a62 4fbb 4ee5 efbc
00000120: e35a 71bd 7a4e df3d 93bf 07bc dcf5 d0bb
00000130: 3079 bcbd ce36 053e 3fea c9bd be13 e93d
00000140: c6eb 6e39 d69c 83bd be96 06bd d22b 88bd
00000150: 64af 2abc c86b df3d 5491 d53c 3a02 0a3e
00000160: fc58 213d dc2a 163e 62f6 d0bc 7633 a9bd
00000170: 1eb9 9f3d 6c5e abbc 2aca c43d 621e eb3d
00000180: fed6 953d a66c 5ebc 2ec4 f83d e299 333d
00000190: 1faa cc3d aa9e 4dbd a203 983c 1f9c 013d
000001a0: 788a 1abd 223a 44bd dc33 383d b763 063e
000001b0: c4f8 c93d 3d41 063e 7f7b dc3d 3844 07bd
000001c0: 08ed ce3d ddac b4bd c8d1 67bc 4cf6 3cbd
000001d0: 223e 77bd 7aeb c0bd 966f b93d ec95 4bbd
000001e0: ad51 c3bd 226a 94bc 9499 d53d cc61 4fbc
000001f0: b644 1c3d f764 483d dc7c da3c 5cb6 76bd
00000200: 6062 eb3d 2aaa 4f3d 3539 063e 969a 4c3d
00000210: e593 b7bc 3680 993d 6a25 c53c 0344 55bc
00000220: fd50 123e 80bb 893c 22c8 7dbd fb71 8a3d
00000230: 1c1d c03a da1f c63d b660 183e 3895 e03c
00000240: 76b6 093e 4246 9c3c 2171 083e 2cf8 883d
00000250: 8930 073e 7a5d 1d3d be9a 9dbd 9e72 a83c
00000260: 78eb 3a3d b8de a03d 0195 dabd c22a 04be
00000270: 9239 983d a297 c8bc 950e 553d 1cfd dbbc
00000280: 9c29 a33d aa39 0fbd 3250 dbbd 9d22 5bbd
00000290: 31a9 90bc a49b 16be 4ab5 d2bd 780c a43d
000002a0: 2aa9 4ebd 60d0 cebd 5969 ccbd 6abf 523c
000002b0: fd76 06be d757 f6bd a9a1 8b3d 83d7 00be
000002c0: 20d8 bbbd 9a76 0cbd 9680 efbc 0e3d 69bd
000002d0: a07c 7a3b d309 15bd 70ee 823d 204c 44bd
000002e0: 5a4b d43c fe64 78bc 4a27 663d 50a9 63bd
000002f0: c45b 9dbd 60d5 65bd 44f0 9c3d 020f 4a3d
00000300: 6163 28bc fc82 a43d 4217 833d 48d2 b83c
00000310: 4cb7 3abd daff 5ebc ec76 73bd c886 b7bd
00000320: 0e04 143e a5ba 6bbd 6675 7fbc 2fd2 ff3d
00000330: ea07 95bd 1d68 c3bc c669 c7bc cc86 72bd
00000340: bc29 a63b ca77 fa3b 7e2c be3d aef7 303d
00000350: 36d5 a03d 803a 1c3d 72b2 fd3c 3928 113e
00000360: 3865 1f3a 14d6 afbd dee5 d5bd 4e3f 8dbd
00000370: cc2c ab3c 6ede 4a3d 0e56 883d c86a 5a3b
00000380: 6a63 063e b7fe 86bd 441d aa3d 79cc d33d
00000390: 1295 9ebc 160c ff3c cdb2 5fbd 8051 62bd
000003a0: ac45 b53d 6a32 c83c 86fe 963c 7a9b 2b3d
000003b0: 00e6 a03d bf7e cc3c 0c45 f6bc 22a7 acbd
000003c0: a5ff 0e3e a633 2abc 6a23 cb3d 4dda ea3d
000003d0: 96fe 26bd c9b8 ecbc 48ae 213e ae1a bc3d
000003e0: 42e6 58bd f80b e0bb 7c54 893b c6b4 c3bd
000003f0: 0b1e 9dbd 372b 19bb d670 d1bb 3f5e 2c3d
0.020484507 0.13051505 0.12541555 0.008544681 0.04214958 0.1253573 0.097424895 0.11241121
-0.05767618 -0.06287679 0.08331089 0.1236009 0.053367212 -0.010178774 0.10589518 -0.049483098
-0.02988952 -0.07605161 0.045040973 -0.064299576 0.012552306 -0.07849553 -0.062391393 -0.046614457
0.009157041 0.004923623 0.040918574 -0.054550998 -0.08107903 0.055436425 -0.04657455 -0.004882563
0.050567016 0.04810893 -0.007940158 0.006115998 -0.02857178 -0.09100221 0.0953549 -0.0015116441
-0.053236455 -0.049582288 0.13192648 0.12125098 0.12166954 -0.105946034 -0.04311581 -0.09500398
0.043613862 0.04181365 -0.050069325 0.007952594 -0.068093345 0.14643505 0.086307496 -0.021351743
0.056943387 0.09978851 -0.120633624 0.13070256 -0.101895705 -0.035577767 0.11553355 0.012274686
0.062153287 -0.042864796 0.10631363 -0.03862352 -0.024236504 0.043691214 -0.0031644353 -0.029284146
-0.058924567 0.1090364 -0.008285421 -0.006376965 -0.09202802 0.13009188 -0.09859132 0.11380719
0.00022785281 -0.064263985 -0.032858603 -0.06648983 -0.010417793 0.109092295 0.026070274 0.13477412
0.039391503 0.14664787 -0.02550811 -0.082617685 0.0779898 -0.020919047 0.09608872 0.114804044
0.07316397 -0.0135757085 0.12146793 0.043847926 0.099933855 -0.050200142 0.01855642 0.03164303
-0.03772971 -0.047907002 0.044971332 0.13123976 0.098619014 0.13110824 0.107657425 -0.033024043
0.10103804 -0.088220336 -0.014149137 -0.046133325 -0.06036199 -0.094199136 0.090544865 -0.049703524
-0.09537063 -0.018117014 0.10429683 -0.012657594 0.038151465 0.048924413 0.026670866 -0.060232505
0.11493373 0.05069939 0.1310776 0.049952112 -0.022409389 0.074951574 0.024065692 -0.013016704
0.14288707 0.01681304 -0.06195844 0.06760021 0.0014657113 0.09674044 0.14880642 0.027414903
0.1344851 0.01907647 0.13324405 0.0668796 0.13202108 0.038419224 -0.0769553 0.020562466
0.045634717 0.0785498 -0.106729515 -0.12906936 0.07432856 -0.024486367 0.05201586 -0.02685409
0.07966921 -0.034967102 -0.107086554 -0.053499807 -0.017658802 -0.1470781 -0.102884844 0.08010191
-0.050454296 -0.10098338 -0.09981031 0.0128630195 -0.13131328 -0.12028473 0.068179436 -0.12582211
-0.09172082 -0.034292795 -0.02923612 -0.056942992 0.0038221255 -0.036386322 0.063931346 -0.04792416
0.025914837 -0.015160797 0.056189813 -0.05558139 -0.076835185 -0.056111693 0.076630145 0.04933072
-0.0102776 0.08032796 0.064009205 0.022561207 -0.04558496 -0.013610804 -0.059439585 -0.08961254
0.14454672 -0.057551045 -0.015591955 0.12491261 -0.072769 -0.023853356 -0.024342429 -0.059210584
0.005070893 0.0076436745 0.0928583 0.043204956 0.07853167 0.038141727 0.030968878 0.141755
0.00060804514 -0.08585754 -0.10444234 -0.0689684 0.020895384 0.04952853 0.06657039 0.0033327807
0.13123861 -0.06591552 0.08306363 0.103417344 -0.019358192 0.031133693 -0.054613877 -0.055253506
0.088511795 0.024438102 0.018431913 0.04189632 0.07856369 0.024962781 -0.030062221 -0.084303156
0.13964708 -0.0103882905 0.09918864 0.11467419 -0.040770136 -0.028896706 0.1578914 0.09184776
-0.052953966 -0.0068373643 0.0041909795 -0.09555964 -0.07671746 -0.0023371705 -0.006391625 0.042082068

lstm.bias_hh_l0 f4 [256]
00000000: 0a0b c5bd 20a6 02bd 4a56 aa3d 0265 5dbb
00000010: f55b 8c3d 7e6e 1a3e fe42 3e3d d56d b73c
00000020: d1da ca3d a476 aa3d d62b d23d c664 1b3d
00000030: 12d1 74bd 9279 9b3d e37a 5ebd 26e1 b7bd
00000040: 22b2 25bd 72dd 443d c372 61bd bbc4 963d
00000050: 303a 153c d453 69bd da58 a9bd dd3a 1bbd
00000060: 7dc8 b3bd 5f3e 333d 87e0 9d3d f60c fb3d
00000070: 593f d23d 736f d9bd c614 9bbd 004b ff3d
00000080: 4481 9dbc 68c7 d4bc d6e1 a1bc 928b b33d
00000090: 54f5 a8bd 7bd5 2ebd ebf1 3a3d 0ece 44bc
000000a0: cb2c 44bd e84a 633c f8c5 ef3d 5909 e83d
000000b0: a47e c4bc 84fb b43d 8a23 043d 5d32 193d
000000c0: c0d4 1a3e ef45 a9bd e83b 2bbd 28e9 09bc
000000d0: 88aa d6bb c685 b1bb 44b9 ad3d 221d 01bd
000000e0: 6f77 a0bd d329 abbd d727 f23d 9f65 ccbd
000000f0: 9b19 593d 948d 813c 8a3d 98bb 51a5 0d3e
00000100: 2640 743a 60a3 083e 4eb7 bbbd acd5 cb3d
00000110: 5045 223e 5a9c a03d 97a7 e73d 0611 56bd
00000120: de48 02bd f00d fb3d 6aab ba3d 649e abbd
00000130: be35 473d 2509 773d fd72 b23d 6650 34bc
00000140: 36f0 d7bc 6eb1 ee3d 1e48 f83d 1289 e6bc
00000150: e288 eabc 7239 df3d aa61 b1bd de0d b13d
00000160: 7827 fc3d cf0c 8a3c 4303 27bd 3cd7 993d
00000170: a6a1 603d 6a41 c03d 22fe 0b3e e0a4 e13d
00000180: 469a c33d 1265 99bd 20ef be3d 88fe 113e
00000190: 5bca c0bd 7bd3 1b3e fe21 a6bd 0460 dfbc
000001a0: 2811 b63d 1fe0 e13d 929a 5abd 621c b23d
000001b0: 4eff cebd 725b bdbb 5a6f 24bd 1acd 9e3d
000001c0: 388c 0b3e 212c 8fbd f626 6a3d 3215 b8bd
000001d0: aaae 79bd f4bc 96bd 987f a83d 8427 a9bd
000001e0: efc1 e83d 3a21 88bd 6e1b b93c 095e e0bd
000001f0: e576 e43d 5173 733d ba84 bcbd 5c08 623d
00000200: 91ba fbbd a6af ff3d be2d 743d 58de b6bc
00000210: e130 d93c 16d3 b53d c28f 39bb ef3e 3cbd
00000220: e853 8bbd 5c1c 1b3e bcab 0fbe 7137 f83c
00000230: dd78 ed3d ae8c 04be 59ce 483d d6e3 e0bc
00000240: 1d68 f83d b478 dcbd 7abf e7bc d0b5 fcbd
00000250: 1ade f83d 0210 02bc 5eb6 00bd aab1 a7bc
00000260: 1807 b2bb 9a9e 5dbd 35db a23d 42ce 093c
00000270: c85d 5b3d 58ee 07be ff5d 813d 0e9b 483d
00000280: 5eb4 0a3e b428 0c3e ced2 c7bd 4a6a b8b9
00000290: 333c 47bd 6aea 14be 3a38 9dbd 0841 a93d
000002a0: 794a 113e d960 8cbc 6fa0 edbd a262 c1bd
000002b0: d2e1 efbd c5b0 a0bd 95dc c53d fa1b 1ebc
000002c0: 8cd1 703d a616 67bd a86f 79bc 1695 d0bd
000002d0: b14b d83d c5e0 5a3d 9a6d 863d a28a 043e
000002e0: cd1e 693d 4636 733d a911 75bc bc72 853c
000002f0: 7c64 cebd 38d9 26bc 7afb 9f3d b638 ebbd
00000300: 7490 b6bd 5c32 ae3d 5866 42bd eb59 fb3d
00000310: a362 b83c 9e72 31bc 4cd5 45bd d0b3 04bd
00000320: 6c6c 783d 69c9 babd ad2f c83c 2679 c43d
00000330: 6046 f5bc 102b 15bd 26d2 adbd f45c 24bd
00000340: a88c 7bbd 36fc 1f3c 59aa a83d 129c 0d3e
00000350: 10e2 733b a064 9dbd 3471 0c3d e3f5 32bd
00000360: 0095 1b3e 4ecd 0f3e 020e 003d 6404 2bbd
00000370: 5ad8 b73d 0b7f 98bd 7877 773d d288 25bd
00000380: 6a47 f03b 1a44 26bc 70d2 e53b 58a4 0f3e
00000390: ce61 ae3c 6445 293d 0253 063e a664 9e3c
000003a0: 9e3f bfbd 4e0b 173e 4b8b 77bd 7ad5 083d
000003b0: caa1 bc3d 281a ae3d 566f 89bd 6859 92bd
000003c0: 528b 473d cf03 933d 9c7b af3d 8611 313d
000003d0: 7964 043e cd5f 113e f4b3 a3bd 3494 173e
000003e0: 32b4 bbbd acac 75bd ea9d 8abd 8e6f adbd
000003f0: 1c21 dc3b 149e 073c f4b7 09bd bd00 7d3d
-0.09621246 -0.03189671 0.083172396 -0.003378213 0.06853477 0.15081212 0.046450607 0.02239124
0.09905017 0.0832341 0.10262267 0.037937902 -0.059769697 0.07591547 -0.054316413 -0.089784905
-0.040453084 0.04806275 -0.055041086 0.07361742 0.009108111 -0.05696471 -0.082689 -0.037897933
-0.087784745 0.043760654 0.07708841 0.122583315 0.10265989 -0.106169604 -0.075723216 0.12465477
-0.019226678 -0.02597399 -0.019761007 0.08766855 -0.082499176 -0.04268406 0.045640867 -0.012012018
-0.04789428 0.0138728395 0.117076814 0.11329908 -0.023986168 0.08837035 0.032260455 0.037401546
0.1512022 -0.08265292 -0.041805178 -0.008417405 -0.0065510906 -0.0054175584 0.08482602 -0.031521924
-0.0783528 -0.08357587 0.11824005 -0.0998032 0.053002935 0.01581458 -0.004646008 0.13832594
0.000931742 0.13343573 -0.09165822 0.09952864 0.15846753 0.07842322 0.11311262 -0.05226233
-0.031807773 0.12258518 0.09114726 -0.0837982 0.048635237 0.060311455 0.087133385 -0.011005497
-0.026359659 0.11654936 0.1212313 -0.028141532 -0.028629724 0.10899629 -0.08661206 0.08645223
0.123122156 0.01685181 -0.040774595 0.07511756 0.05484166 0.09387477 0.13671163 0.110177755
0.0955091 -0.07489981 0.09322953 0.14257252 -0.09413596 0.15217392 -0.08111952 -0.027267464
0.08889991 0.11029076 -0.053370066 0.0869682 -0.10107289 -0.0057787234 -0.040145256 0.07753964
0.13627708 -0.06990839 0.057166062 -0.08988418 -0.06095759 -0.07360259 0.082274616 -0.0825949
0.11365115 -0.066469625 0.022596087 -0.10955436 0.1115549 0.059436146 -0.09205003 0.055183753
-0.12291444 0.12484674 0.059613936 -0.022322819 0.026512565 0.08878152 -0.0028314446 -0.045958456
-0.06803113 0.15147537 -0.14030355 0.030299874 0.115953185 -0.1294429 0.049024913 -0.02745239
0.12129233 -0.1076521 -0.028289545 -0.123393655 0.121517375 -0.007938387 -0.03142392 -0.020470459
-0.0054329745 -0.054106332 0.07951967 0.008410992 0.053556234 -0.13274515 0.063167565 0.048975997
0.13545367 0.13687402 -0.09757005 -0.00035174406 -0.048641395 -0.14542547 -0.0767674 0.08264357
0.14188565 -0.017136024 -0.11602866 -0.09442641 -0.11712994 -0.07846216 0.09661213 -0.009650225
0.05879359 -0.056418084 -0.015224375 -0.10184686 0.10561312 0.053437013 0.065638736 0.12943509
0.05691414 0.05937793 -0.014957824 0.016290061 -0.100777596 -0.010183625 0.07811637 -0.11485426
-0.08914271 0.08505699 -0.047460884 0.1227301 0.022507971 -0.0108305495 -0.04829912 -0.032398045
0.060650274 -0.09120447 0.024436796 0.0959342 -0.029940784 -0.03641802 -0.08487348 -0.04012771
-0.061413437 0.009764722 0.08235616 0.13829067 0.0037213601 -0.07685208 0.034287646 -0.043691527
0.15193558 0.14043161 0.03126336 -0.041752234 0.08976813 -0.074461065 0.06041667 -0.040413685
0.007332732 -0.010148073 0.0070136115 0.14027536 0.021286871 0.04132594 0.13117602 0.019335102
-0.09338306 0.14750406 -0.060435575 0.033406712 0.09210546 0.08501083 -0.06710689 -0.07145959
0.04871685 0.07178461 0.085684985 0.043229602 0.12928952 0.14196701 -0.07993308 0.14802629
-0.09165229 -0.059979126 -0.06768401 -0.08468543 0.006717814 0.008277435 -0.033622697 0.061768282

fc.weight f4 [1, 64]
00000000: 0c33 b0be a00d 16bf a730 e4be 9537 77be
00000010: f671 1fbf 96c1 d8be 9382 89be 9c04 953e
00000020: db69 40be 0afd 9e3e 9431 14bf 8a25 05bf
00000030: a532 3dbe a845 4fbe 42b4 66be 7de8 0a3f
00000040: 246c 273f 9b2a b9bd 364d c33e 33d3 a63e
00000050: 6416 163f d61f d33e b2cf 433e 57e8 bcbe
00000060: 88a0 bd3e b34f f23e 4fee 373f 16bf ee3e
00000070: cea1 efbc 063f 07be 91c1 7f3e 47b5 c33e
00000080: 2261 b23d bd89 bebe 45e4 8cbe 6800 3abf
00000090: 54ee 093f 6827 d6bd 8e14 553e dfbe fc3e
000000a0: 10a0 b93e d38c a93e f552 3e3e 3af9 623e
000000b0: 4c00 b1be d4f5 d9bc a7d7 063f d8e6 f43d
000000c0: 3200 673e dafd a33e c3d0 a73e fd7b c8be
000000d0: 7272 943c 4771 df3e 40a2 4fbe 8559 043d
000000e0: 04db 8bbe 18a3 01bf a502 5ebe 8fcf 9e3e
000000f0: 6762 933e 26a3 5bbd e88c c9be f448 bb3e
-0.34413946 -0.5861454 -0.4456837 -0.24142297 -0.62283266 -0.42335194 -0.26857433 0.2910508
-0.1879038 0.31052428 -0.5788815 -0.52010405 -0.1847635 -0.20241416 -0.225297 0.54261
0.65399384 -0.090413295 0.38144845 0.32583007 0.58627915 0.41235226 0.19122198 -0.3689601
0.37036538 0.4732643 0.71848005 0.46630162 -0.02925196 -0.13207635 0.24976183 0.3822424
0.08709933 -0.3721446 -0.27517906 -0.7265687 0.53879285 -0.10456735 0.20808622 0.49364373
0.3625493 0.33115253 0.18586333 0.22165385 -0.3457054 -0.026606478 0.5267281 0.119580925
0.22558668 0.3202961 0.3277646 -0.39157096 0.018120978 0.4364111 -0.20276737 0.032311935
-0.27315533 -0.50639486 -0.21680696 0.3101773 0.28786013 -0.053622387 -0.39365315 0.36579096
