model/fl_checkpoints/global_round_4.pt (torch, 196820 bytes, 7 tensors)

conv1.weight f4 [64, 78, 3]
0.08538839 0.053371042 -0.0027035286 0.06825708 -0.0035166563 0.03764139 -0.018173192 0.04016303
0.07760182 -0.037149027 0.0598294 0.024547286 0.052994244 0.023735989 0.033738416 0.0026755785
0.046303548 0.025183406 -0.026125394 0.037625484 -0.0251663 -0.018075682 -0.021196492 0.053102423
-0.054866187 -0.01477141 -0.01004712 -0.036641844 0.025544059 -0.058476258 0.0716659 -0.05564429
0.053667683 0.013536232 -0.015260339 0.048518047 0.023477279 0.050814185 0.0151612125 -0.010897535
0.013441281 -0.017024234 0.03535783 0.06253974 0.046759494 -0.026066083 0.039973836 0.026889708
0.026996879 -0.042262148 -0.052620962 -0.030083932 -0.044677906 0.065024555 0.023196232 0.032516614
0.035735138 -0.0011872652 0.039410368 -0.038486414 0.012389746 -0.036020752 0.04526467 -0.026767556
0.018841926 -0.003944465 0.060963176 -0.02634052 -0.023254033 -0.035064653 0.06565417 0.03557158
0.052054774 -0.064552836 -0.06308432 -0.04612851 -0.033617064 0.04393041 0.02314119 0.062559925
-0.03041263 -0.038016997 0.043103278 -0.017812332 0.046049517 -0.004582396 0.04818344 -0.05524057
-0.031900458 0.015832098 0.0059803184 -0.014943933 0.044232838 0.044440515 -0.047406062 -0.034900054
0.078194454 -0.018247906 -0.015477153 -0.06325363 -0.037436627 0.016330175 -0.012383282 -0.050980214
-0.0059703393 -0.04545381 -0.058326922 -0.042617127 -0.0524605 -0.040619574 0.08171283 0.024856513
0.023937602 -0.082020715 -0.047581278 -0.01483448 0.020981355 -0.046423774 -0.020852827 -0.035232827
0.009578267 -0.020845082 0.0060833786 -0.036387734 -0.041025154 -0.03464236 -0.013314579 -0.046968244
0.051093288 -0.0039565926 0.06718081 0.017029444 -0.063196674 0.046962976 -0.012720242 -0.029601326
-0.05550229 -0.061980534 0.012320799 -0.015537487 0.021284435 -0.03782297 0.054376412 -0.041572586
0.0083633615 0.033040553 0.04483533 0.07111129 0.063362 -0.04413663 0.014528602 -0.029357094
-0.0041540344 -0.041171536 0.07367125 -0.037486214 0.043445513 0.025929669 0.03174822 -0.038606595
0.07478583 0.022777833 0.02169846 -0.05961346 0.03545719 -0.013561772 -0.033476092 0.048647344
0.014574617 -0.03616881 -0.033087336 -0.0031218887 0.03650122 -0.016704768 -0.037299648 -0.02238619
-0.048837803 0.023313794 0.050600596 -0.061543886 0.015182703 0.033770666 0.011853872 -0.023280594
0.034120426 0.034353875 0.038097903 -0.009716097 0.0026629807 0.011690377 0.0033344808 -0.017264165
0.05259601 0.05918898 0.005840644 -0.0027319253 -0.0031384437 0.011619482 0.013143441 0.017856788
-0.069821745 -0.008735428 0.064400166 0.040594876 0.000665119 -0.029994367 -0.036375098 -0.058528826
-0.023331564 0.014611367 0.053342503 0.03209277 -0.049729638 -0.02779176 -0.013497676 0.07609687
0.021806534 -0.016755417 0.038736064 -0.018282425 -0.039246935 0.044885285 -0.024287313 -0.00416366
-0.046223633 0.054437727 0.057235897 0.04018478 -0.039017636 -0.05655272 -0.035132308 0.05289697
0.04034903 0.07235272 0.041153986 0.02739181 -0.008727112 -0.06269914 -0.081096895 -0.07125121
0.0033797133 -0.06116127 -0.041411564 -0.06408803 -0.044188194 -0.08103006 -0.06170836 -0.005770734
-0.044606663 0.019604806 -0.04065834 -0.07636336 -0.032360468 -0.046539135 -0.04036031 -0.06937659
00000000: 1ce0 ae3d 989b 5a3d af2d 31bb 5eca 8b3d
00000010: b477 66bb dc2d 1a3d f2df 94bc fd81 243d
00000020: b4ed 9e3d 9429 18bd ac0f 753d 6417 c93c
00000030: 7e10 593d fa71 c23c 4b31 0a3d c258 2f3b
00000040: caa8 3d3d 6e4d ce3c ec04 d6bc 2e1d 1a3d
00000050: 8e29 cebc 7413 94bc 44a4 adbc ed81 593d
00000060: 5ebb 60bd c903 72bc ad9c 24bc c215 16bd
00000070: c641 d13c cd84 6fbd 92c5 923d 44eb 63bd
00000080: a5d2 5b3d 12c7 5d3c 8006 7abc dcba 463d
00000090: 6c53 c03c 8922 503d bc66 783c 938b 32bc
000000a0: d238 5c3c 6876 8bbc 5fd3 103d d614 803d
000000b0: e286 3f3d 8a88 d5bc 9bbb 233d ce47 dc3c
000000c0: 8f28 dd3c 131b 2dbd 1489 57bd 9472 f6bc
000000d0: 2e00 37bd 982b 853d 0606 be3c 2430 053d
000000e0: 025f 123d 029e 9bba c46c 213d eea3 1dbd
000000f0: 5cfe 4a3c 7f8a 13bd 7267 393d a247 dbbc
00000100: 625a 9a3c 9240 81bb 86b4 793d 13c8 d7bc
00000110: 3e7f bebc f49f 0fbd b275 863d 81b3 113d
00000120: 6337 553d 4734 84bd 5a32 81bd 40f1 3cbd
00000130: 0cb2 09bd 60f0 333d 9892 bd3c 6b1f 803d
00000140: e823 f9bc b6b7 1bbd 108d 303d 2beb 91bc
00000150: 6b9e 3c3d ec27 96bb 005c 453d f043 62bd
00000160: 0eaa 02bd 51b2 813c 8cf6 c33b 66d7 74bc
00000170: 7e2d 353d 4207 363d dc2c 42bd 5cf3 0ebd
00000180: 6a24 a03d a27c 95bc e293 7dbc 1f8b 81bd
00000190: 2657 19bd dcc6 853c 40e3 4abc a1d0 50bd
000001a0: d6a2 c3bb c62d 3abd 36e8 6ebd 4c8f 2ebd
000001b0: d2e0 56bd b660 26bd 0e59 a73d e39f cb3c
000001c0: ca18 c43c 7afa a7bd 96e4 42bd 520c 73bc
000001d0: 17e1 ab3c db26 3ebd 8cd3 aabc 4c50 10bd
000001e0: 2aee 1c3c 4ec3 aabc 1457 c73b 4e0b 15bd
000001f0: fe09 28bd 26e5 0dbd 6425 5abc c661 40bd
00000200: 3247 513d 4ea6 81bb 1896 893d 5581 8b3c
00000210: 426d 81bd 405c 403d 9068 50bc 7b7e f2bc
00000220: 5f56 63bd 4ddf 7dbd 2ddd 493c f290 7ebc
00000230: b25c ae3c 42ec 1abd cdb9 5e3d 0448 2abd
00000240: 7b06 093c 8855 073d 40a5 373d cca2 913d
00000250: f0c3 813d 9cc8 34bd 6009 6e3c 4a7e f0bc
00000260: 911e 88bb 7ca3 28bd f4e0 963d 258b 19bd
00000270: ecf3 313d 756a d43c 6c0a 023d f321 1ebd
00000280: 5029 993d 9498 ba3c f8c0 b13c 3e2d 74bd
00000290: 8f3b 113d 3232 5ebc 3a1e 09bd 7042 473d
000002a0: 60ca 6e3c bf25 14bd 9686 07bd 9a98 4cbb
000002b0: 4e82 153d 70d8 88bc 84c7 18bd 3e63 b7bc
000002c0: 260a 48bd 92fc be3c 9242 4f3d 7115 7cbd
000002d0: dfc0 783c 1c53 0a3d be36 423c f2b6 bebc
000002e0: dcc1 0b3d a6b6 0c3d 8c0c 1c3d 4430 1fbc
000002f0: 6785 2e3b ff88 3f3c 4e87 5a3b 946d 8dbc
00000300: ea6e 573d 2570 723d df62 bf3b 1a0a 33bb
00000310: 59ae 4dbb a45f 3e3c 9657 573c 6648 923c
00000320: b4fe 8ebd 0a1f 0fbc 3ce4 833d d046 263d
00000330: 615b 2e3a bfb6 f5bc 0efe 14bd ecbb 6fbd
00000340: d621 bfbc 8464 6f3c ab7d 5a3d b573 033d
00000350: 4eb1 4bbd 8cab e3bc 5b25 5dbc add8 9b3d
00000360: 9ea3 b23c a842 89bc b5a9 1e3d 06c5 95bc
00000370: 65c1 20bd a2d9 373d 30f6 c6bc 506f 88bb
00000380: fe54 3dbd 18fa 5e3d 3070 6a3d cc98 243d
00000390: f5d0 1fbd d3a3 67bd e5e6 0fbd 7eaa 583d
000003a0: 0645 253d aa2d 943d 1591 283d ca64 e03c
000003b0: 29fc 0ebc 6868 80bd 2116 a6bd 28ec 91bd
000003c0: 2e7e 5d3b 3d84 7abd 2c9f 29bd 9640 83bd
000003d0: aefe 34bd 17f3 a5bd e8c1 7cbd 6d18 bdbb
000003e0: 7ab5 36bd 429a a03c 5c89 26bd 6564 9cbd
000003f0: 698c 04bd d29f 3ebd da50 25bd 5015 8ebd

conv1.bias f4 [64]
-0.009868574 -0.020869728 0.034292035 0.05976191 0.05922757 0.04074853 0.037549388 -0.010923156
-0.035501488 0.03241347 0.058352254 -0.0007083998 -0.006465381 0.004508591 -0.05398448 0.0059276214
0.015099892 0.06092387 0.023368802 0.070392504 -0.0073369932 0.049085647 -0.035428792 0.029425977
0.07108981 0.021443674 -0.03289526 0.035623617 -0.05792759 0.029874802 -0.03112421 0.047615755
0.017669002 0.01499584 -0.023602765 0.00023456212 -0.04160521 0.05342959 0.015896944 -0.0074850204
-0.026976418 0.04903651 -0.047646217 0.024890386 -0.02212208 -0.0144114755 0.04572672 0.002843054
0.043608025 -0.029123368 0.061039813 -0.06423485 -0.062668815 -0.06134546 -0.065814376 -0.006536793
-0.07268827 0.012012569 -0.01375507 0.01524739 -0.009712977 0.028446345 -0.0088765435 -0.042295028
00000000: cdaf 21bc fef6 aabc ce75 0c3d e8c8 743d
00000010: 9c98 723d eee7 263d 63cd 193d 09f7 32bc
00000020: 026a 11bd fdc3 043d c602 6f3d e8b3 39ba
00000030: 8cdb d3bb cdbc 933b d51e 5dbd 7e3c c23b
00000040: 8a65 773c 4f8b 793d ee6f bf3c f229 903d
00000050: 296b f0bb 080e 493d c81d 11bd bf0e f13c
00000060: 8997 913d a5aa af3c 2ebd 06bd 12ea 113d
00000070: 7b45 6dbd 00bc f43c 33f8 febc bd08 433d
00000080: 95be 903c 1db1 753c 965a c1bc caf4 7539
00000090: 3a6a 2abd fcd8 5a3d 4f3a 823c e744 f5bb
000000a0: a6fd dcbc 82da 483d ae28 43bd ece6 cb3c
000000b0: 5d39 b5bc 1c1e 6cbc f14b 3b3d 8852 3a3b
000000c0: 549e 323d 2194 eebc e204 7a3d 908d 83bd
000000d0: 8258 80bd 6145 7bbd b0c9 86bd 9832 d6bb
000000e0: 96dd 94bd 5ed0 443c f25c 61bc 30d0 793c
000000f0: 2e23 1fbc 4f08 e93c ec6e 11bc 8d3d 2dbd

lstm.weight_ih_l0 f4 [256, 64]
0.07514177 0.17382926 -0.007042027 0.21803112 0.10712451 -0.052460264 0.040874105 -0.004226146
0.07391199 0.028211625 0.0815828 0.103407286 0.24014191 0.06133 0.16320239 0.3236846
0.19422886 0.0056822775 0.08468295 0.20377822 0.020080563 0.08325506 0.07681466 0.31644648
0.27120453 -0.04857072 -0.034102146 0.055867366 -0.08039238 0.016077667 0.048085548 0.05557445
0.3256108 0.010462634 0.20163251 0.07857354 0.06565136 0.26633778 0.10927211 0.14955778
0.035482407 0.20932227 0.24682657 0.15731166 -0.09861675 0.35177845 0.15813749 0.1695913
0.20571402 -0.09208264 0.28957352 0.16664304 0.08156585 0.045381583 0.17363048 0.043174855
0.17051646 0.21964014 -0.0003271927 0.19778673 -0.0833648 0.08504264 0.25797862 -0.019961355
-0.07743149 -0.3367356 -0.18108484 0.30709803 0.2015255 0.037560087 0.049746685 0.004955575
0.0635002 0.48882908 0.039768435 0.19754098 -0.011507215 0.1937324 -0.03901023 0.2366051
0.10999219 0.048792705 0.014675888 0.0207474 -0.14808837 0.16325998 -0.079689704 0.29623553
-0.27674773 0.14323288 0.4856436 0.20885661 0.2167937 -0.14802258 -0.11423561 -0.053445935
-0.16109203 0.18601207 0.0039435895 -0.12265668 0.12023074 0.038336232 0.24580117 0.06773236
0.030670252 0.5695503 -0.07273828 0.13536215 -0.28119922 0.124062926 -0.34565544 -0.22475289
0.091334924 0.023279473 0.12074321 0.08172536 0.09087819 -0.053359073 0.004790729 0.2525223
0.0546923 -0.14935082 0.3199187 -0.09347267 0.073137306 -0.22126219 0.38551927 -0.18137106
0.08379232 0.09027687 0.3473194 0.0063862517 0.16559012 0.07268891 -0.043604933 -0.21713366
0.06475935 0.006232581 0.15935735 0.023082417 0.017922666 0.20319752 0.12710382 -0.035113245
0.05527549 0.11898516 -0.016660957 0.086113885 -0.053775273 -0.12752713 0.14475138 -0.1150199
0.18895784 0.17079501 -0.01038208 -0.045815393 0.052044857 -0.006800374 0.33409247 0.40736338
-0.0540032 -0.14227054 -0.041577015 -0.030415054 0.047087472 -0.058216535 0.041161776 -0.09819116
0.21625057 0.0524586 0.025631066 0.23370637 -0.1507423 0.12858716 0.1896946 0.20149845
0.07844704 -0.010249466 -0.06906662 -0.05203027 -0.06701182 0.27208626 0.05677744 -0.05178436
0.21533757 -0.041185986 0.26158476 -0.079579815 0.003960491 -0.13600737 0.27940458 -0.021678908
-0.056800526 0.21269879 0.032241333 -0.029712735 0.021937946 0.016890256 -0.0143926535 0.02295554
0.10788461 -0.007471295 0.19452427 0.05256922 0.0081008915 0.04703561 0.11900556 0.09401544
-0.118308835 -0.090302154 0.06906087 0.124202505 0.0061595626 -0.2162468 -0.055672012 0.13951373
0.046114124 0.018994305 -0.040308323 0.08093675 -0.09513729 -0.026322383 0.0152251795 0.26496837
0.05669024 0.10389014 0.08367369 -0.08910938 -0.0022179 0.095124885 -0.16677001 -0.036535136
0.051210973 0.11842386 -0.06420111 0.11965757 -0.13076033 0.11020076 -0.06371294 0.19218396
0.00204121 0.016563818 -0.013522536 0.07453032 -0.07773415 -0.064880386 -0.058198083 -0.088861376
-0.13276584 0.07173452 -0.034050114 0.16232565 0.05033138 0.083568014 0.09556648 0.14219701
00000000: eee3 993d 4c00 323e cec0 e6bb 8d43 5f3e
00000010: 1864 db3d 93e0 56bd 9b6b 273d 7b7b 8abb
00000020: 2b5f 973d 111c e73c e214 a73d 33c7 d33d
00000030: c3e7 753e 2b35 7b3d 871e 273e fdb9 a53e
00000040: eee3 463e 6632 ba3b 416e ad3d 3dab 503e
00000050: fe7f a43c a181 aa3d 0151 9d3d 4605 a23e
00000060: 52db 8a3e 17f2 46bd b1ae 0bbd 2ed5 643d
00000070: c3a4 a4bd 50b5 833c 5af5 443d 09a2 633d
00000080: 75b6 a63e 786b 2b3c c178 4e3e 2aeb a03d
00000090: 3874 863d 6d5d 883e 0eca df3d ad25 193e
000000a0: 0056 113d 9458 563e 1bc0 7c3e 4f16 213e
000000b0: 94f7 c9bd 4e1c b43e cbee 213e 57a9 2d3e
000000c0: b2a6 523e d395 bcbd fb42 943e 79a4 2a3e
000000d0: ff0b a73d 0ae2 393d 30cc 313e 1ed8 303d
000000e0: de9b 2e3e 58e9 603e 108b abb9 9b88 4a3e
000000f0: 2abb aabd d62a ae3d c615 843e ff85 a3bc
00000100: 6794 9ebd 9c68 acbe 4e6e 39be f43b 9d3e
00000110: b35c 4e3e 9bd8 193d 2ec3 4b3d 6062 a23b
00000120: 650c 823d ce47 fa3e 3ae4 223d 2f48 4a3e
00000130: c288 3cbc c961 463e 31c9 1fbd 9b48 723e
00000140: 9643 e13d dcda 473d 2373 703c 74f6 a93c
00000150: 7aa4 17be a02d 273e 5b34 a3bd 2fac 973e
00000160: e1b1 8dbe a4ab 123e 47a6 f83e 82de 553e
00000170: 2bff 5d3e 3b93 17be 5cf4 e9bd 20ea 5abd
00000180: 4ff5 24be f379 3e3e 3a39 813b 6d33 fbbd
00000190: 893b f63d 7406 1d3d 4db3 7b3e 43b7 8a3d
000001a0: 2e40 fb3c 0cce 113f cff7 94bd 609c 0a3e
000001b0: 58f9 8fbe b414 fe3d c0f9 b0be 9f25 66be
000001c0: ce0d bb3d 98b4 be3c 3748 f73d a05f a73d
000001d0: 581e ba3d 0b8f 5abd 8cfb 9c3b 9a4a 813e
000001e0: 0805 603d 6cef 18be 62cc a33e 996e bfbd
000001f0: 03c9 953d 8e92 62be c862 c53e 56b9 39be
00000200: 4f9b ab3d 14e3 b83d d9d3 b13e c343 d13b
00000210: 7590 293e ecdd 943d 169b 32bd 4958 5ebe
00000220: 8da0 843d ae3a cc3b 932e 233e 5617 bd3c
00000230: 8ed2 923c 0313 503e 8127 023e e8d2 0fbd
00000240: 8d68 623d 7eae f33d 8f7c 88bc 7a5c b03d
00000250: 7643 5cbd 7996 02be b539 143e 8e8f ebbd
00000260: 2a7e 413e e3e4 2e3e 9a19 2abc eca8 3bbd
00000270: fd2c 553d acd5 debb 2b0e ab3e ef91 d03e
00000280: 7632 5dbd 5eaf 11be a94c 2abd fe28 f9bc
00000290: cbde 403d 7674 6ebd 4099 283d 7218 c9bd
000002a0: ca70 5d3e d4de 563d 3ef8 d13c b950 6f3e
000002b0: 315c 1abe 5aac 033e 4d3f 423e 9c55 4e3e
000002c0: d7a8 a03d 60ed 27bc cd72 8dbd b11d 55bd
000002d0: 7e3d 89bd e44e 8b3e 768f 683d d61b 54bd
000002e0: 7481 5c3e a3b2 28bd 70ee 853e befa a2bd
000002f0: 02c7 813b 8445 0bbe 1e0e 8f3e f797 b1bc
00000300: aba7 68bd b6cd 593e 7d0f 043d 1f68 f3bc
00000310: 35b7 b33c 6f5d 8a3c 2acf 6bbc 420d bc3c
00000320: 9bf2 dc3d c4d1 f4bb 5f31 473e d352 573d
00000330: 9ab9 043c 69a8 403d 30b9 f33d 2b8b c03d
00000340: e74b f2bd 56f0 b8bd c96f 8d3d e25d fe3d
00000350: 28d6 c93b cd6f 5dbe 5608 64bd b0dc 0e3e
00000360: 2ae2 3c3d f299 9b3c 571a 25bd 2bc2 a53d
00000370: 57d7 c2bd 0aa2 d7bc 0873 793c efa9 873e
00000380: 0634 683d 5bc4 d43d 1d5d ab3d fb7e b6bd
00000390: 305a 11bb d6d0 c23d c2c5 2abe dea5 15bd
000003a0: 99c2 513d 3588 f23d df7b 83bd 070f f53d
000003b0: 09e6 05be f0b0 e13d ee7b 82bd dfcb 443e
000003c0: d2c5 053b d8b0 873c a08d 5dbc 5aa3 983d
000003d0: 1533 9fbd 02e0 84bd 1d61 6ebd f4fc b5bd
000003e0: c5f3 07be 8ce9 923d 2278 0bbd b238 263e
000003f0: 4728 4e3d b525 ab3d 5cb8 c33d 189c 113e

lstm.weight_hh_l0 f4 [256, 64]
-0.1025834 -0.07204574 0.21156083 0.30150643 -0.09407709 -0.21260647 0.1488008 -0.19449274
0.19223554 -0.3078799 0.09345753 0.35665968 0.3382315 -0.0024883857 0.5336594 -0.18860006
0.21600114 0.14578782 0.22982934 -0.22294918 0.15567061 -0.28294832 -0.21861292 0.06316987
-0.20229784 -0.29455718 -0.19553222 -0.21634676 0.39883804 -0.3040244 -0.21436943 -0.041849915
0.032403883 0.25940216 0.018385293 0.05527763 -0.057384763 -0.33478394 -0.087349355 0.116531126
-0.051081322 -0.10947681 -0.27457204 -0.19108665 0.12926693 -0.30342487 0.30817944 -0.38194352
-0.03243396 -0.18843454 0.04083719 -0.25455016 -0.19683057 0.031816345 0.26163462 0.3157569
0.15520975 -0.089245535 0.15955761 -0.31096137 0.049716156 0.021012928 0.17363243 0.3690434
0.12570642 0.093462065 0.040560924 0.13092184 -0.021963691 -0.22796106 0.22851717 -0.008994181
0.21144907 0.00021240022 0.0021437043 -0.1431966 0.30511907 0.051188096 0.2835706 -0.24403593
0.028611902 0.09286784 0.13564287 -0.095181726 0.17756 -0.23136762 -0.10101781 -0.0662748
-0.13124737 -0.08577697 0.004151034 -0.3078964 0.32941836 -0.24462755 -0.18593685 -0.047375277
-0.03613764 0.19345348 0.14619532 -0.06664698 0.052777283 -0.260557 -0.18804893 0.14844216
0.22779715 -0.12667833 -0.16621092 -0.08287664 -0.09829694 -0.26978055 -0.06421005 -0.15309216
0.042024426 -0.18825413 0.058482468 -0.35514972 -0.34666425 0.12203283 0.13834466 0.14574888
0.13331744 -0.0659765 0.13294716 -0.11440549 -0.19473529 0.3309568 0.0055968263 -0.21581969
-0.020276776 0.097376466 0.11132595 0.2679627 -0.06829221 -0.28488743 -0.096310854 -0.2350985
0.11113313 0.021832496 -0.031762 0.22556217 0.21192808 -0.008179039 0.20191668 -0.040279247
0.12785465 0.24285935 0.274879 -0.16720454 0.050495908 -0.29849243 0.0026503555 -0.09058113
0.085457236 -0.18973593 -0.009444264 -0.12160369 0.16297652 -0.2546403 -0.11383262 -0.000329823
-0.051706668 0.17737025 -0.13089529 -0.039732166 -0.041216955 -0.24687578 0.07123595 0.0014433805
0.11637905 0.17253979 -0.13072985 -0.14358763 0.09844831 -0.16325992 0.20923503 -0.27165514
0.014582729 -0.18826911 0.17205288 -0.28668654 -0.1766209 0.028560488 0.1063928 0.1395814
0.012662314 -0.19263457 0.13291858 -0.17796443 -0.021474056 -0.014130348 -0.06721629 0.2432052
-0.09370384 0.14682165 -0.07408798 -0.02700524 -0.15716037 -0.0948611 -0.04184275 -0.15587576
0.13640986 -0.18106832 -0.21991716 0.018674918 0.059919022 0.06533438 0.19956337 -0.13880919
0.19342065 0.16005068 0.025961239 -0.045448612 0.18690522 0.099422246 -0.027329877 -0.046051417
0.08083669 -0.16558667 -0.048769444 -0.044089776 0.2004868 -0.051822588 -0.039935883 0.170826
0.15986298 -0.019470366 0.016883308 -0.1776632 -0.024340354 -0.14147311 0.030396305 0.14538087
-0.039915144 0.08571717 0.0040017366 -0.039642483 -0.14475918 0.0030564878 0.23324518 -0.0694695
0.12450608 0.032304667 0.105154365 -0.08173588 -0.09258959 -0.10789039 0.11953735 0.19659305
0.07176345 0.06524307 0.11068439 0.032258887 -0.05473817 -0.093107074 0.029781789 -0.0011274545
00000000: 3f17 d2bd b88c 93bd 67a3 583e 0d5f 9a3e
00000010: 7dab c0bd 83b5 59be 3d5f 183e 1b29 47be
00000020: 65d9 443e 6fa2 9dbe a966 bf3d 199c b63e
00000030: ae2c ad3e 2f14 23bb e79d 083f 6020 41be
00000040: 672f 5d3e 6749 153e 6258 6b3e ca4c 64be
00000050: 1e68 1f3e 9ade 90be 11dc 5fbe 345f 813d
00000060: 2a27 4fbe 33d0 96be 9939 48be 018a 5dbe
00000070: 8034 cc3e 16a9 9bbe a983 5bbe d16a 2bbd
00000080: efb9 043d 5cd0 843e c19c 963c cc6a 623d
00000090: 490c 6bbd cd68 abbe 38e4 b2bd dfa7 ee3d
000000a0: a63a 51bd 6135 e0bd b594 8cbe 38ac 43be
000000b0: 8d5e 043e 815a 9bbe b2c9 9d3e 1a8e c3be
000000c0: 79d9 04bd fcf4 40be e644 273d 6654 82be
000000d0: f48d 49be db51 023d f9f4 853e e3aa a13e
000000e0: 4eef 1e3e 5dc6 b6bd 1263 233e 5436 9fbe
000000f0: 2ba3 4b3d 4e23 ac3c b3cc 313e 42f3 bc3e
00000100: 2fb9 003e 0a69 bf3d 3623 263d 6010 063e
00000110: 33ed b3bc a06e 69be 6800 6a3e 545c 13bc
00000120: 1b86 583e c0b7 5e39 647d 0c3b 21a2 12be
00000130: 9138 9c3e 9caa 513d 2a30 913e 8ee4 79be
00000140: 8263 ea3c 7e31 be3d f7e5 0a3e a3ee c2bd
00000150: 4ad2 353e a2eb 6cbe 6de2 cebd 15bb 87bd
00000160: b665 06be d6ab afbd 6605 883b 99a4 9dbe
00000170: 86a9 a83e a57f 7abe 3b66 3ebe 940c 42bd
00000180: 1005 14bd ab18 463e 3ab4 153e 367e 88bd
00000190: fe2c 583d ba67 85be e68f 40be 3901 183e
000001a0: a843 693e f7b7 01be 3233 2abe 3abb a9bd
000001b0: e84f c9bd ad20 8abe 8f80 83bd 31c4 1cbe
000001c0: ce21 2c3d b1c5 40be 508b 6f3d 2fd6 b5be
000001d0: fa7d b1be 59ec f93d 39aa 0d3e 323f 153e
000001e0: 5e84 083e b01e 87bd 4d23 083e 6d4d eabd
000001f0: b068 47be 2b73 a93e 9565 b73b d6ff 5cbe
00000200: 7b1b a6bc 506d c73d dcfe e33d 6832 893e
00000210: c9dc 8bbd c4dc 91be a03e c5bd a9bd 70be
00000220: c499 e33d 10da b23c df18 02bd c5f9 663e
00000230: ad03 593e 6001 06bc 3fc3 4e3e dafb 24bd
00000240: 54ec 023e 1fb0 783e f1bc 8c3e ab37 2bbe
00000250: ccd4 4e3d 00d4 98be 96b1 2d3b 9982 b9bd
00000260: 3404 af3d 234a 42be 1dbc 1abc 5b0b f9bd
00000270: 51e3 263e 3760 82be 1421 e9bd 18ec acb9
00000280: 5fca 53bd 8ca0 353e 6a09 06be 32be 22bd
00000290: 1cd3 28bd 01cd 7cbe 27e4 913d d02f bd3a
000002a0: 2458 ee3d 45ae 303e 0cde 05be a308 13be
000002b0: 449f c93d 9c2d 27be b541 563e 6216 8bbe
000002c0: 66ec 6e3c 9ec9 40be a12e 303e 94c8 92be
000002d0: 1cdc 34be aff7 e93c 78e4 d93d 6dee 0e3e
000002e0: 9875 4f3c ff41 45be cf1b 083e 4f3c 36be
000002f0: 5cea afbc fa82 67bc b2a8 89bd c90a 793e
00000300: cde7 bfbd 6a58 163e 70bb 97bd 183a ddbc
00000310: a6ee 20be 8946 c2bd 4e63 2bbd e59d 1fbe
00000320: 07af 0b3e f969 39be f731 61be 24fc 983c
00000330: a66d 753d 08ce 853d 575a 4c3e ff23 0ebe
00000340: 1010 463e 53e4 233e aaac d43c 5328 3abd
00000350: 1564 3f3e e49d cb3d e8e2 dfbc 69a0 3cbd
00000360: b58d a53d 8d8f 29be 78c2 47bd 7b97 34bd
00000370: 694c 4d3e ec43 54bd cf93 23bd 03ed 2e3e
00000380: 1fb3 233e 5180 9fbc dd4e 8a3c 58ed 35be
00000390: 6c65 c7bc 54de 10be ac01 f93c b9de 143e
000003a0: 107e 23bd 7c8c af3d 0021 833b 2860 22bd
000003b0: c03b 14be 5b4f 483b d3d7 6e3e 0646 8ebd
000003c0: 0bfd fe3d e651 043d 2c5b d73d 2465 a7bd
000003d0: 9c9f bdbd a3f5 dcbd 00d0 f43d b04f 493e
000003e0: b7f8 923d 299e 853d 7fae e23d e521 043d
000003f0: 2235 60bd ecae bebd f0f8 f33c 18c7 93ba

lstm.bias_ih_l0 f4 [256]
0.025618428 0.11049916 0.11330859 0.013131968 0.04329695 0.09918691 0.07263924 0.11411137
-0.077482216 -0.057707574 0.077456534 0.10560155 0.033054575 -0.04227329 0.0791962 -0.043878037
-0.049317952 -0.084235065 0.032284684 -0.08115033 -0.01612591 -0.08926946 -0.061512172 -0.07430139
-0.020452356 -0.016301237 0.03140548 -0.07332952 -0.08194394 0.058612056 -0.054582916 -0.019573113
0.033564053 0.036465652 -0.034303155 0.00684334 -0.048861198 -0.12372696 0.09199275 -0.032599322
-0.08650033 -0.06365991 0.12613446 0.109394416 0.10744001 -0.1259762 -0.036894895 -0.10722435
0.009829657 0.02980287 -0.07479173 -0.014130474 -0.08606404 0.11423513 0.07963155 -0.034865424
0.047577746 0.09826805 -0.11717241 0.1232247 -0.11763312 -0.014353082 0.124819025 -0.00816434
0.058967065 -0.075243324 0.0812577 -0.04334765 -0.055167217 0.002746772 -0.028764077 -0.042482838
-0.08106361 0.09222705 -0.05552991 -0.044227056 -0.09755348 0.10835553 -0.12180285 0.084254086
-0.056989774 -0.07134644 -0.057248957 -0.09123339 -0.029012535 0.09268836 0.023039976 0.11447312
0.005259731 0.115765646 -0.05710428 -0.10357559 0.07391876 -0.024360908 0.082781635 0.0881612
0.036312222 -0.036528435 0.101598784 0.015738858 0.06387843 -0.09590446 0.007349457 -0.019059006
-0.07774156 -0.079480514 0.045814864 0.092605844 0.07569074 0.11677548 0.10052103 -0.039322235
0.07430372 -0.12213528 -0.045454986 -0.060108654 -0.07236128 -0.12745589 0.09251367 -0.059138454
-0.102365404 -0.03942384 0.11117312 -0.026979554 0.015003702 0.06721133 0.017295614 -0.08240615
0.12291656 0.034603827 0.11803326 0.06580442 -0.042520266 0.056004167 0.03423654 -0.018861365
0.11574048 -0.01414286 -0.030976232 0.048733827 -0.0063783433 0.13200039 0.1163988 0.059778504
0.10107343 0.01592623 0.11349979 0.098254465 0.09098175 0.0386586 -0.08793153 0.06114149
0.027202394 0.08623646 -0.08987948 -0.08431788 0.07251646 -0.018796928 0.05745844 -0.017349143
0.06735863 -0.060997576 -0.048576616 -0.06760469 -0.021054946 -0.1118005 -0.12703174 0.06350085
-0.06947536 -0.0913954 -0.100215614 0.033700883 -0.10429174 -0.102014035 0.0535005 -0.114896744
-0.10667094 -0.025158769 -0.027032133 -0.047582466 0.015087564 -0.034205902 0.08225092 -0.060013544
0.0496025 -0.024462853 0.05515661 -0.07674897 -0.06883355 -0.0161949 0.06333132 0.037444904
-0.004544957 0.043749917 0.046727493 -0.009355041 -0.039445005 -0.043393478 -0.093129724 -0.12854964
0.09994976 -0.08446704 -0.03477826 0.11818698 -0.108956456 -0.06558819 -0.05454577 -0.06612495
-0.023650069 -0.018571595 0.06648261 0.010907885 0.053508863 0.010833459 -0.004809623 0.09203617
-0.045190264 -0.123711236 -0.12382333 -0.10812175 -0.011146226 0.046590023 0.05885136 -0.0340048
0.1146369 -0.08811707 0.047206886 0.10358772 -0.04236898 -0.012369188 -0.09378576 -0.09163354
0.053503003 -0.016384378 -0.010199852 -0.0034796079 0.06784997 -0.020777436 -0.03037452 -0.11822907
0.10240115 -0.047135003 0.07370256 0.08895065 -0.07613641 -0.07008559 0.11995534 0.056564175
-0.0756513 -0.020411963 -0.018730566 -0.12426452 -0.11643784 0.015732905 -0.030443909 0.004550461
00000000: bddd d13c 624d e23d 560e e83d 7727 573c
00000010: 2558 313d 8222 cb3d e2c3 943d 39b3 e93d
00000020: ffae 9ebd c75e 6cbd 88a1 9e3d a045 d83d
00000030: 3c64 073d c226 2dbd 9e31 a23d 75b9 33bd
00000040: 9f01 4abd 6f83 acbd f23c 043d 2532 a6bd
00000050: 7c1a 84bc e8d2 b6bd 30f4 7bbd 542b 98bd
00000060: b38b a7bc 2c8a 85bc 08a3 003d ca2d 96bd
00000070: 39d2 a7bd 3213 703d 5692 5fbd cb57 a0bc
00000080: 767a 093d 025d 153d 7781 0cbd 193e e03b
00000090: ae22 48bd 8f64 fdbd b266 bc3d de86 05bd
000000a0: 1627 b1bd 2060 82bd 6429 013e 2e0a e03d
000000b0: 8209 dc3d e8ff 00be 1a1f 17bd 7198 dbbd
000000c0: 920c 213c 2625 f43c 682c 99bd 8183 67bc
000000d0: 5842 b0bd 1cf4 e93d de15 a33d 0ccf 0ebd
000000e0: e2e0 423d c240 c93d 17f8 efbd 3b5d fc3d
000000f0: a2e9 f0bd 3029 6bbc 1ea1 ff3d b9c3 05bc
00000100: 7387 713d 2c19 9abd 706a a63d 4e8d 31bd
00000110: 05f7 61bd 3003 343b a4a2 ebbc 7c02 2ebd
00000120: ae04 a6bd 89e1 bc3d 5573 63bd 6e27 35bd
00000130: 1eca c7bd 81e9 dd3d c673 f9bd 688d ac3d
00000140: 1c6e 69bd 151e 92bd e27d 6abd 92d8 babd
00000150: b2ab edbc 65d3 bd3d 55be bc3c e270 ea3d
00000160: d259 ac3b 8a16 ed3d 2de6 69bd 701f d4bd
00000170: b862 973d 8790 c7bc 6b89 a93d dc8d b43d
00000180: 20bc 143d d79e 15bd 0613 d03d c7ee 803c
00000190: b2d2 823d 8f69 c4bd b7d3 f03b a221 9cbc
000001a0: f836 9fbd aec6 a2bd 5ea8 3b3d 22a8 bd3d
000001b0: bf03 9b3d fc27 ef3d f8dd cd3d 5a10 21bd
000001c0: 8c2c 983d 1022 fabd 022f 3abd 7e34 76bd
000001d0: 2732 94bd cc83 02be cf77 bd3d 2a3b 72bd
000001e0: f4a4 d1bd e47a 21bd bcae e33d 3a04 ddbc
000001f0: 16d2 753c 18a6 893d 88af 8d3c 8ec4 a8bd
00000200: adbb fb3d bebc 0d3d 6cbb f13d 78c4 863d
00000210: bb29 2ebd a064 653d 9d3b 0c3d 2683 9abc
00000220: 5809 ed3d 74b7 67bc dec1 fdbc 1f9d 473d
00000230: 6c01 d1bb 1c2b 073e 7e62 ee3d 4eda 743d
00000240: 96ff ce3d ba77 823c 9472 e83d a339 c93d
00000250: a454 ba3d 7b58 1e3d 7215 b4bd 806f 7a3d
00000260: 8ed7 de3c be9c b03d bc12 b8bd daae acbd
00000270: 8383 943d 04fc 99bc 8b59 6b3d ca1f 8ebc
00000280: 52f3 893d 98d8 79bd 46f8 46bd 5474 8abd
00000290: 6c7b acbc a9f7 e4bd 9c14 02be bc0c 823d
000002a0: 1949 8ebd 832d bbbd d83d cdbd f009 0a3d
000002b0: e896 d5bd bcec d0bd 5723 5b3d fc4e ebbd
000002c0: 4b76 dabd c319 cebc 7e72 ddbc d5e5 42bd
000002d0: d431 773c 7d1b 0cbd 2c73 a83d c3d0 75bd
000002e0: fe2b 4b3d 5266 c8bc e6eb 613d 902e 9dbd
000002f0: 9bf8 8cbd 2bab 84bc dab3 813d d45f 193d
00000300: dded 94bb 1d33 333d 5465 3f3d e345 19bc
00000310: 1691 21bd 5cbd 31bd ccba bebd 84a2 03be
00000320: 76b2 cc3d 0efd acbd a673 0ebd 040c f23d
00000330: 9024 dfbd 1a53 86bd 636b 5fbd 856c 87bd
00000340: cabd c1bc 7523 98bc 0928 883d fcb6 323c
00000350: 1c2c 5b3d d27e 313c 0b9a 9dbb 767d bc3d
00000360: 6d19 39bd 515c fdbd 1697 fdbd f06e ddbd
00000370: a99e 36bc 2ed5 3e3d 200e 713d 9e48 0bbd
00000380: c0c6 ea3d b976 b4bd 025c 413d cc25 d43d
00000390: 188b 2dbd 22a8 4abc c012 c0bd 5eaa bbbd
000003a0: f725 5b3d 8838 86bc 481d 27bc 220a 64bb
000003b0: edf4 8a3d 7135 aabc fcd3 f8bc 1522 f2bd
000003c0: b2b7 d13d a210 41bd 5ef1 963d c22b b63d
000003d0: 68ed 9bbd 0989 8fbd 25ab f53d d6af 673d
000003e0: 12ef 9abd fd36 a7bc d870 99bc 667e febd
000003f0: f676 eebd 4be2 803c 8165 f9bc 091c 953b

lstm.bias_hh_l0 f4 [256]
-0.091078535 -0.051912673 0.07106543 0.0012090704 0.069682114 0.12464165 0.021664929 0.024091382
0.07924414 0.0884033 0.09676832 0.019938553 -0.08008234 0.043820962 -0.08101539 -0.08417987
-0.05988156 0.039879315 -0.06779736 0.05676665 -0.019570109 -0.067738585 -0.081809774 -0.06558484
-0.11739412 0.022535803 0.067575306 0.10380481 0.101794995 -0.10299392 -0.08373165 0.10996413
-0.03622964 -0.03761726 -0.04612402 0.088395886 -0.10278854 -0.075408824 0.042278767 -0.0430997
-0.081158176 -0.00020478852 0.111284725 0.101442516 -0.038215704 0.06834016 0.03848137 0.025181178
0.11741802 -0.09466371 -0.06652759 -0.03050049 -0.02452181 -0.03761752 0.07815007 -0.045035604
-0.08771848 -0.08509633 0.1217013 -0.107281014 0.037265547 0.03703929 0.0046394747 0.11788699
-0.0022544889 0.10105725 -0.116714165 0.094804496 0.1275368 0.037478764 0.087513 -0.065460995
-0.053946774 0.10577582 0.04390279 -0.12164828 0.043109737 0.038575083 0.063921854 -0.040558606
-0.08357732 0.10946691 0.09684093 -0.052885137 -0.047224455 0.092592366 -0.089642346 0.06615121
0.088990405 -0.014030438 -0.07237074 0.054159686 0.050770618 0.09043292 0.12340448 0.0835349
0.058657285 -0.0978525 0.07336039 0.11446343 -0.13019136 0.10646954 -0.09232646 -0.07796951
0.048888072 0.07871725 -0.05252658 0.048334293 -0.12400119 -0.020111518 -0.047281653 0.07124143
0.10954276 -0.10382335 0.025860205 -0.103859514 -0.07295688 -0.10685931 0.08424342 -0.09202981
0.106656395 -0.08777644 0.029472396 -0.1238763 0.088407144 0.077723086 -0.10142528 0.033010047
-0.11493161 0.10875121 0.046569556 -0.006470506 0.0064016916 0.06983408 0.0073394305 -0.05180311
-0.095177725 0.12051959 -0.10932131 0.011433486 0.10810913 -0.09418294 0.01661731 0.004911216
0.08788061 -0.11080234 -0.048033737 -0.09201878 0.08047803 -0.0076990183 -0.04240022 0.020108536
-0.023865305 -0.04641971 0.09636971 0.053162448 0.051744156 -0.12705576 0.06861016 0.058480915
0.12314312 0.110843495 -0.039060105 -0.014456565 -0.052037537 -0.11014785 -0.100914314 0.06604253
0.12286456 -0.007548039 -0.11643397 -0.073588535 -0.09010841 -0.060191482 0.081933156 0.0012751252
0.043843456 -0.047284085 -0.013020393 -0.09248637 0.116878584 0.055617437 0.08395831 0.11734569
0.080601804 0.050075885 -0.015991058 -0.004877547 -0.09277597 0.02973317 0.06481756 -0.12674002
-0.08341005 0.04847896 -0.06474262 0.09081389 0.028647915 -0.040613227 -0.08198926 -0.07133501
0.016053364 -0.11812046 0.005250505 0.08920857 -0.06612827 -0.078152806 -0.115076825 -0.047042042
-0.09013439 -0.016450549 0.055980444 0.1059936 -0.021301435 -0.104160376 -0.0014908505 -0.093410335
0.106137246 0.10257791 0.011882371 -0.08090559 0.057726517 -0.077399574 0.052697636 -0.07775127
-0.009269003 -0.032349646 -0.028843133 0.14044565 -0.0017239195 -0.0021769435 0.092004165 -0.017044913
-0.12839192 0.106681585 -0.08906728 -0.011969217 0.08139175 0.03927061 -0.067419246 -0.1053855
0.011470907 0.035037905 0.060198948 0.017506093 0.09392326 0.10077812 -0.11786915 0.11274266
-0.114349626 -0.07355369 -0.09060553 -0.1133903 -0.033002596 0.026347497 -0.05767499 0.024236673
00000000: 6287 babd 62a2 54bd c18a 913d ac79 9e3a
00000010: 7fb5 8e3d 1f44 ff3d a67a b13c 4a5b c53c
00000020: c04a a23d ca0c b53d 782e c63d 2d56 a33c
00000030: 3602 a4bd 9c7d 333d 66eb a5bd 7f66 acbd
00000040: 5e46 75bd 7e58 233d 58d9 8abd 2684 683d
00000050: 7e51 a0bc 87ba 8abd e28b a7bd 5851 86bd
00000060: 546c f0bd 019d b83c ec64 8a3d 9e97 d43d
00000070: e579 d03d 7aee d2bd 807b abbd e034 e13d
00000080: 8865 14bd 8e14 1abd 8aec 3cbd e708 b53d
00000090: cc82 d2bd f16f 9abd 802c 2d3d 5089 30bd
000000a0: 4236 a6bd 80bc 56b9 3fe9 e33d 18c1 cf3d
000000b0: 1288 1cbd edf5 8b3d a49e 1d3d c248 ce3c
000000c0: dc78 f03d 0cdf c1bd 9e3f 88bd 2adc f9bc
000000d0: f6e1 c8bc d414 1abd 250d a03d 4177 38bd
000000e0: bfa5 b3bd fc46 aebd 883e f93d 26b6 dbbd
000000f0: c2a3 183d 83b6 173d bc06 983b bc6e f13d
00000100: 0cc0 13bb 1af7 ce3d d607 efbd dc28 c23d
00000110: 0299 023e 5583 193d 043a b33d 6a10 86bd
00000120: 4bf7 5cbd fea0 d83d 69d3 333d bc22 f9bd
00000130: d693 303d e800 1e3d 76e9 823d c820 26bd
00000140: 962a abbd 3030 e03d 8a54 c63d 169e 58bd
00000150: 6e6e 41bd 11a1 bd3d 6896 b7bd 497a 873d
00000160: 9a40 b63d ecdf 65bc 1c37 94bd 8cd6 5d3d
00000170: daf4 4f3d e534 b93d 7dbb fc3d 5814 ab3d
00000180: 9f42 703d e466 c8bd f93d 963d ce6b ea3d
00000190: e250 05be b40c da3d a815 bdbd 7aae 9fbd
000001a0: dc3e 483d 8236 a13d 1c26 57bd 2efa 453d
000001b0: 56f4 fdbd e9c0 a4bc 68aa 41bd 07e7 913d
000001c0: f457 e03d 56a1 d4bd c8d8 d33c 4cb4 d4bd
000001d0: 6b6a 95bd 0ed9 dabd d087 ac3d 207a bcbd
000001e0: ab6e da3d 22c4 b3bd 1870 f13c dcb2 fdbd
000001f0: ce0e b53d 482d 9f3d 0fb8 cfbd 8b35 073d
00000200: 4461 ebbd f4b8 de3d b8bf 3e3d 8a06 d4bb
00000210: 48c5 d13b 2c05 8f3d 9b7f f03b 7f2f 54bd
00000220: 8aec c2bd fad2 f63d dae3 dfbd 8453 3b3c
00000230: 5268 dd3d fce2 c0bd 0621 883c 44ee a03b
00000240: c0fa b33d 56ec e2bd 06bf 44bd 5874 bcbd
00000250: aad1 a43d 0c48 fcbb daab 2dbd a8ba a43c
00000260: 2c81 c3bc 9822 3ebd 7c5d c53d dec0 593d
00000270: aef1 533d e81a 02be 7c83 8c3d af89 6f3d
00000280: 7632 fc3d ea01 e33d 7dfd 1fbd 3adb 6cbc
00000290: 5025 55bd 3295 e1bd 2aac cebd 4e41 873d
000002a0: 6aa0 fb3d 8a55 f7bb ef74 eebd 96b5 96bd
000002b0: c28a b8bd 588b 76bd 92cc a73d 1a22 a73a
000002c0: 3295 333d f5ac 41bd 7d53 55bc 7e69 bdbd
000002d0: 0a5e ef3d 1ccf 633d 56f2 ab3d f052 f03d
000002e0: 8f12 a53d 5f1c 4d3d aeff 82bc d4d3 9fbb
000002f0: 5401 bebd fa92 f33c 12bf 843d 23c8 01be
00000300: e3d2 aabd e091 463d c797 84bd a2fc b93d
00000310: 08af ea3c 0e5a 26bd fce9 a7bd 1718 92bd
00000320: 5882 833c 24e9 f1bd 6e0c ac3b fcb2 b63d
00000330: 426e 87bd 940e a0bd 66ad ebbd 28af 40bd
00000340: 6198 b8bd 4dc3 86bc c04b 653d 2c13 d93d
00000350: 5980 aebc 0952 d5bd a468 c3ba eb4d bfbd
00000360: 7c5e d93d 5e14 d23d 47ae 423c d4b1 a5bd
00000370: a472 6c3d ab83 9ebd 7ad9 573d 0f3c 9fbd
00000380: 04dd 17bc 1081 04bd 6f48 ecbc fcd0 0f3e
00000390: 24f5 e1ba 0dab 0ebb ae6c bc3d c6a1 8bbc
000003a0: 2c79 03be e07b da3d e868 b6bd 891a 44bc
000003b0: b8b0 a63d 38da 203d 1a13 8abd 5ad4 d7bd
000003c0: 79f0 3b3c e883 0f3d 2c93 763d f068 8f3c
000003d0: d75a c03d c264 ce3d 6265 f1bd a0e5 e63d
000003e0: 2330 eabd 51a3 96bd 648f b9bd 2c39 e8bd
000003f0: bb2d 07bd b5d6 d73c 9c3c 6cbd fd8b c63c

fc.weight f4 [1, 64]
-0.34394735 -0.54808205 -0.4243768 -0.20628239 -0.5939776 -0.39116997 -0.22286128 0.24638726
-0.14407825 0.28306592 -0.52941024 -0.50002277 -0.141573 -0.16396476 -0.17654192 0.51276433
0.6208274 -0.053073272 0.3486352 0.29090157 0.57768774 0.38510892 0.14983884 -0.31947467
0.3254509 0.42650875 0.6850408 0.44036707 0.006238003 -0.093574464 0.24454851 0.3306301
0.1186363 -0.33106524 -0.23066208 -0.70125484 0.51645905 -0.1322738 0.161432 0.45277882
0.3199389 0.2882011 0.15227467 0.19277585 -0.3881887 -0.059153754 0.4891862 0.0844489
0.17081247 0.28762177 0.29452586 -0.35075295 -0.03563811 0.4022125 -0.15687959 0.06518047
-0.23095873 -0.4836937 -0.18370375 0.28303653 0.24018595 -0.011550734 -0.35819393 0.33301428
00000000: de19 b0be 1b4f 0cbf ea47 d9be b13b 53be
00000010: ea0e 18bf 6e47 c8be bf35 64be f14c 7c3e
00000020: 4089 13be 04ee 903e 6e87 07bf 7e01 00bf
00000030: 83f8 10be 61e6 27be 68c7 34be 8644 033f
00000040: 8bee 1e3f 5c63 59bd 5080 b23e 0df1 943e
00000050: 58e3 133f ff2c c53e 5a6f 193e 2f92 a3be
00000060: 80a1 a63e 5b5f da3e d55e 2f3f cb77 e13e
00000070: 2968 cc3b f8a3 bfbd ed6a 7a3e 5948 a93e
00000080: 97f7 f23d 6281 a9be ae32 6cbe 7085 33bf
00000090: a936 043f c872 07be 6e4e 253e a0d2 e73e
000000a0: 08cf a33e 188f 933e e4ed 1b3e 0867 453e
000000b0: abc0 c6be 354b 72bd 9d76 fa3e 8bf3 ac3d
000000c0: 77e9 2e3e 2943 933e 18cc 963e e495 b3be
000000d0: 44f9 11bd ccee cd3e 0ba5 20be 577d 853d
000000e0: 7280 6cbe b3a6 f7be d61c 3cbe 2aea 903e
000000f0: 4ef3 753e 4a3f 3dbc 3265 b7be d980 aa3e
