model/fl_checkpoints/global_round_5.pt (torch, 196820 bytes, 7 tensors)

conv1.weight f4 [64, 78, 3]
00000000: aaea b03d be63 7f3d 0028 9ab9 c21e 853d
00000010: a2bb dfbb 127d 323d 1803 d4bc c35a 003d
00000020: ae80 953d 0a41 35bd a6c5 593d f90c 8a3c
00000030: d262 303d a617 963c 4631 cd3c 1a81 58bb
00000040: bab0 1f3d 2cd9 9b3c 417a f1bc 78ec 243d
00000050: d7bb f3bc dc25 99bc e937 c8bc c0a9 4e3d
00000060: ae10 76bd 7608 69bc ea86 7fbc 78cc 1dbd
00000070: 39eb e13c 4752 72bd a6bb 943d 54ee 57bd
00000080: 504b 4c3d 7c83 843c 887a 30bc 622f 483d
00000090: 9b39 ca3c ac56 583d e278 483c 6c25 23bc
000000a0: b297 783c 8a03 a5bc 4536 283d 5063 8b3d
000000b0: 32e5 4a3d 07f9 8fbc 8223 543d 096e 0e3d
000000c0: cc56 f63c 7d7f 31bd 11d5 4ebd 8d87 debc
000000d0: 9ac3 3abd a4b1 903d 3a23 b13c fdd7 f13c
000000e0: 44b2 263d 5dde 1abb 6241 203d 13f6 33bd
000000f0: 0ced 1b3c c500 22bd 0a6a 533d 50d8 afbc
00000100: 6cba 823c b294 f3ba db58 673d d693 e9bc
00000110: 3d47 8cbc 62cd 15bd c437 803d c19d 233d
00000120: ca4e 733d 673b 85bd af47 86bd 904a 56bd
00000130: b8d9 19bd 7a3b 453d fa26 c63c 6531 813d
00000140: 34fa f7bc b7a5 3ebd 4641 1c3d 2413 92bc
00000150: 777a 2a3d da30 0bbc b80e 523d 7af2 43bd
00000160: e60b d8bc f18e 673c 54b4 333c 1e20 61bc
00000170: 5bae 403d 4207 363d dc2c 42bd 5cf3 0ebd
00000180: a9fa 9e3d c8bf 7fbc 74ce 59bc 1f8b 81bd
00000190: 2657 19bd dcc6 853c b414 8cbc 144b 60bd
000001a0: ffe9 0cbc a557 58bd 7fbc 81bd 0441 3dbd
000001b0: ba00 33bd 7c15 f6bc 60b4 b73d 3393 e43c
000001c0: 08b4 143d c2c4 acbd d808 42bd 4cca 9bbc
000001d0: 5c09 963c accb 39bd 1f0f 97bc d6fa 20bd
000001e0: dd76 1b3c dadb a7bc 7d0d bf3a bc89 11bd
000001f0: 7314 1fbd 27b0 1cbd 2daf 34bc 4dfc 36bd
00000200: face 3f3d b0af 55ba b776 843d 6f26 9a3c
00000210: 426c 6ebd 114a 453d 1865 22bc d717 efbc
00000220: f4c2 5cbd 126c 83bd db11 903b a8bf 88bc
00000230: f978 b23c 0c21 03bd aed0 763d 4f73 2bbd
00000240: 71f4 913b 749c 1d3d 34aa 2a3d 0b79 903d
00000250: 1f2b 873d 3ed7 2bbd 1eea 743c 7857 e3bc
00000260: eab0 cfbb 80db 35bd 663b b03d ac08 23bd
00000270: 9d14 313d 1c1f d43c d208 db3c 4277 33bd
00000280: b948 9a3d 7623 8d3c 28a7 bb3c 16f9 6bbd
00000290: 1940 053d 2dbc 95bc ae98 18bd 487c 3c3d
000002a0: 60ca 6e3c bf25 14bd 9686 07bd 9a98 4cbb
000002b0: 4e82 153d 70d8 88bc 84c7 18bd 3e63 b7bc
000002c0: 260a 48bd 92fc be3c 9242 4f3d 7115 7cbd
000002d0: dec0 783c 1c53 0a3d be36 423c f2b6 bebc
000002e0: dcc1 0b3d a6b6 0c3d f2f5 f83c 93e6 97bc
000002f0: 4c36 feba 1d91 e63a 864b 08bb f29e d4bc
00000300: 7457 3a3d 2026 573d 231b f3ba 29b5 0ebc
00000310: 5d49 2bbc 80ea b23b e61c f83b 18ad 623c
00000320: 7d7f 8fbd 0241 1bbc e62e 843d b30b 393d
00000330: e2a1 1bbc 1e92 09bd cd56 31bd 04b2 80bd
00000340: 9c25 ddbc 0aba 443c 82df 4e3d f410 f33c
00000350: 9fe9 5dbd 3098 ddbc f1d9 4ebc b0ee 8c3d
00000360: 58ed b23c 8f7a a0bc f3ad 073d 253e a9bc
00000370: 2fbb 38bd b21a 303d 2ba1 c5bc 8925 13bc
00000380: c723 21bd 1ec8 433d 07e8 6c3d 7a30 093d
00000390: 8ba4 21bd 9056 77bd 4ac0 f1bc 7004 5c3d
000003a0: 1de3 133d 1f7b a33d 2054 433d f6ad 373d
000003b0: 4448 b53b 7a98 6dbd ef52 a9bd 1e3f 8fbd
000003c0: 307e 003c 0075 79bd 21b0 31bd 9e63 7abd
000003d0: 5820 41bd 482d adbd fabb 76bd a944 b1bb
000003e0: f8f2 46bd a3a3 b33c ec15 1ebd a05f 9abd
000003f0: cef2 fdbc 1dd7 3ebd fd87 28bd 360a 90bd
0.086385086 0.06235098 -0.0002940297 0.06500007 -0.0068277875 0.043576308 -0.025880381 0.031336557
0.07299934 -0.04425148 0.053167008 0.016851889 0.043062992 0.018321823 0.02504791 -0.0033035935
0.0389869 0.019024454 -0.02947724 0.040264577 -0.029752655 -0.01869481 -0.024440723 0.050454855
-0.0600745 -0.014223209 -0.015596131 -0.038525075 0.027577983 -0.059160497 0.072623536 -0.05271752
0.04987651 0.016175978 -0.010771401 0.048873313 0.024685672 0.05281703 0.012235852 -0.009957653
0.015172886 -0.02014329 0.04106738 0.06806052 0.049534984 -0.0175748 0.051791675 0.034772906
0.030070685 -0.043334473 -0.050496165 -0.027164245 -0.045596696 0.07065132 0.021623243 0.029521937
0.04069735 -0.0023631074 0.039124854 -0.043935847 0.009516966 -0.039551515 0.0516148 -0.02146545
0.015958034 -0.0018583743 0.056481224 -0.028512876 -0.017123813 -0.03657282 0.062606364 0.039945368
0.05940131 -0.06505471 -0.06556641 -0.052317202 -0.03756115 0.048152424 0.024188507 0.063082494
-0.030270673 -0.046544757 0.038148187 -0.017831393 0.041620698 -0.008495534 0.05128357 -0.047838666
-0.026372861 0.014133201 0.010968287 -0.0137405675 0.04704128 0.044440515 -0.047406062 -0.034900054
0.077626534 -0.015609689 -0.013293851 -0.06325363 -0.037436627 0.016330175 -0.017099716 -0.0547591
-0.008600711 -0.05281796 -0.06334781 -0.04620458 -0.043701865 -0.030039541 0.08969951 0.027902221
0.036304504 -0.08435966 -0.047371715 -0.019017361 0.01831501 -0.045360252 -0.018439827 -0.039301716
0.009488788 -0.020490576 0.0014576163 -0.035531744 -0.03883786 -0.03825393 -0.011028093 -0.044674207
0.046828248 -0.00081514847 0.064679556 0.018817155 -0.05820871 0.04816634 -0.009911798 -0.029186172
-0.05389686 -0.06417097 0.00439666 -0.016692951 0.0217862 -0.032013938 0.060257606 -0.041858014
0.0044541885 0.038479283 0.041666225 0.07054337 0.066000216 -0.041953318 0.014948396 -0.02775167
-0.0063382285 -0.044398785 0.08605079 -0.039803192 0.04323255 0.02589374 0.026737604 -0.043814905
0.07533402 0.017228823 0.022906855 -0.057610594 0.03253183 -0.018278206 -0.03725498 0.04601696
0.014574617 -0.03616881 -0.033087336 -0.0031218887 0.03650122 -0.016704768 -0.037299648 -0.02238619
-0.048837803 0.023313794 0.050600596 -0.061543886 0.015182702 0.033770666 0.011853872 -0.023280594
0.034120426 0.034353875 0.030390713 -0.018542564 -0.0019394844 0.0017590855 -0.0020796969 -0.025954697
0.045493558 0.052526593 -0.0018547516 -0.008710184 -0.010454503 0.0054600835 0.0075718043 0.013835214
-0.07006738 -0.009475948 0.06454258 0.045177173 -0.009499045 -0.033586614 -0.04329567 -0.06283954
-0.026995473 0.012007246 0.050506122 0.02967117 -0.054177877 -0.027050108 -0.0126252035 0.068814635
0.02184169 -0.01958969 0.033124875 -0.020659516 -0.045100387 0.04299421 -0.024124702 -0.008981117
-0.03934076 0.04779827 0.057838466 0.033493496 -0.03946356 -0.060385287 -0.029510636 0.05371517
0.036105264 0.07982468 0.04768765 0.044843636 0.0055322964 -0.05800674 -0.082677715 -0.069944605
0.007842585 -0.060902596 -0.04338086 -0.06113016 -0.047149986 -0.08455902 -0.060237862 -0.0054097963
-0.048571557 0.021928614 -0.038595125 -0.0753777 -0.030999567 -0.046591867 -0.041145314 -0.070331976

conv1.bias f4 [64]
00000000: 76fe 3bbc e83d bbbc 227d 083d 60f9 753d
00000010: 7677 733d c0a3 1e3d 55e8 0d3d e898 44bc
00000020: a587 17bd f8d5 fc3c 70e1 793d 0da0 933a
00000030: 4976 81bb 325d d2b9 ecc0 75bd 82aa 1e3c
00000040: 2bda 783c a6b4 723d 4266 a03c 5ff6 883d
00000050: 63c3 9dbb 1e8d 343d 2134 2dbd 82b5 083d
00000060: e081 923d fc7a cd3c 1e14 c9bc aec9 1f3d
00000070: ec63 5cbd 951a fd3c b845 17bd b8b4 3a3d
00000080: 9153 683c d607 8a3c f3c1 e0bc d68f 25bb
00000090: 4c9a 44bd 22f8 593d ee76 953c ed0d 6ebb
000000a0: 281c 03bd c5ca 653d 088f 58bd d2cc ab3c
000000b0: 1ebb c5bc c639 9bbc 09d9 5c3d d61a 80b8
000000c0: 9588 0a3d a278 dabc a2d6 6a3d f5a4 84bd
000000d0: 7e60 84bd cf4c 86bd 1e12 84bd 70dc 03bc
000000e0: de92 93bd 76b7 2f3c 3732 26bc ca40 343c
000000f0: 8897 f2bb 008a d73c 6ac0 2cbc c23d 32bd
-0.011474242 -0.022856668 0.03332246 0.060052276 0.0594401 0.038730383 0.034645397 -0.011999346
-0.036994595 0.030863747 0.06100601 0.0011262909 -0.0039508683 -0.00040123757 -0.059998438 0.009684207
0.015188734 0.05925431 0.01958001 0.066876166 -0.0048145517 0.044079892 -0.042286042 0.033376224
0.07153678 0.025083058 -0.024545725 0.039010696 -0.05380623 0.030896464 -0.036931723 0.045582503
0.01418008 0.01684944 -0.027436232 -0.0025262735 -0.04799871 0.053215154 0.018245187 -0.0036324218
-0.032009274 0.05610158 -0.05287078 0.02097169 -0.024137076 -0.018948447 0.05391792 -6.108514e-05
0.03382166 -0.02666885 0.057333596 -0.064767756 -0.06463717 -0.06557619 -0.06448768 -0.008048162
-0.07205747 0.010724893 -0.010143808 0.011001775 -0.007403318 0.02631092 -0.010543922 -0.043515928

lstm.weight_ih_l0 f4 [256, 64]
00000000: c6bc 9a3d 66be 2c3e 4e3a 63bb b8df 603e
00000010: a202 d03d 952f 55bd a3dc 1f3d 5a7a 4cbc
00000020: 8da7 993d 085a be3c 7a6f 9c3d 1ac0 d53d
00000030: ac0d 793e 9a42 7e3d 5826 1d3e 40ad a43e
00000040: 2d5b 473e db33 293b 2cd0 a53d e919 4a3e
00000050: b732 1e3c e26b a43d 025e 933d ca01 a33e
00000060: 2b98 8b3e 8f06 50bd 7745 d4bc 93fd 5d3d
00000070: af24 a3bd 9478 353c e365 453d 7902 803d
00000080: aed0 a43e 3e43 ed3b b021 533e f59e 9d3d
00000090: 1f56 8d3d 410e 843e 6197 ec3d a251 193e
000000a0: a883 003d 1ec8 533e b32f 823e 5e1d 1f3e
000000b0: fc46 dabd 4d9b b63e 73f9 273e 102f 253e
000000c0: 0c32 4c3e dcf2 b3bd d332 933e 2fc9 243e
000000d0: 8523 a03d 0295 1c3d ff78 303e 52f7 1b3d
000000e0: d64f 2f3e ee14 5b3e 1aa6 4ebc e5fc 483e
000000f0: e288 9abd 6905 a63d 6583 823e a3aa d2bc
00000100: c512 9fbd e73e a7be cd00 3dbe 89d2 9e3e
00000110: dacb 4d3e b03a 123d 22a1 853d c0c2 81b8
00000120: cf42 7d3d 84fd 013f cc42 633d 38d4 523e
00000130: b82f d8bb b005 4f3e 64e2 c9bc b688 763e
00000140: 356a e33d 4382 493d 9379 fe3b c677 f43c
00000150: ccf7 1ebe f69e 253e 3ac0 a6bd b6bc 983e
00000160: 9c7e 8bbe bfad 173e 37c4 fd3e bf41 5f3e
00000170: 22c0 663e c795 19be 44b8 efbd d864 45bd
00000180: 8675 23be a30c 3f3e 709f 233c 44fa f2bd
00000190: 17f2 ef3d 9c7a f53c 7f1e 793e c391 953d
000001a0: 0960 223d 7677 153f 4ba4 8cbd 3127 123e
000001b0: 1c24 91be 2505 043e 58b8 b3be a10a 6abe
000001c0: 8bfa c23d 7e59 8d3c bd21 f83d d749 ac3d
000001d0: a34d b53d a97f 59bd 66bb 273c 0b11 823e
000001e0: ea36 5b3d 8e35 15be 5518 aa3e ae14 bcbd
000001f0: db17 a33d 72a6 58be 09d6 cd3e 0258 2ebe
00000200: 011b ae3d bcdc 9c3d 42bb b33e 2861 343b
00000210: ee5a 283e 4467 8f3d cb75 4abd 4cfa 61be
00000220: 5a22 693d 547c 96ba beb1 1d3e 9675 bb3c
00000230: 58a4 7c3c b860 483e 1e08 f83d f3f7 41bd
00000240: c07e 4b3d e37b f03d 3983 b4bc 15b4 913d
00000250: a886 6fbd 0013 07be 7514 133e bfb5 e2bd
00000260: abfb 383e f2ce 2e3e 3eec 42bc 10e9 37bd
00000270: def9 683d 34d2 99bc c675 ac3e 0c48 d03e
00000280: f78b 83bd 9a8a 15be 8e9e 3bbd ce6b debc
00000290: 67df 353d bf9e 8bbd 01d9 253d 692b cabd
000002a0: 86aa 5b3e 7fb8 403d b2cc e23c e425 6e3e
000002b0: b07c 21be 1d8b ff3d 3960 413e d1a5 463e
000002c0: 908b 8d3d 564e d7bb 35e7 95bd f2fd 66bd
000002d0: 2a8e 90bd bcd4 8b3e 0198 7c3d c61a 5bbd
000002e0: cc9e 5a3e 2488 3abd 7ffe 843e 425d a3bd
000002f0: d3cd fc3b 4083 0bbe 8223 8f3e 68f5 efbc
00000300: 7bbc 6cbd fafd 5b3e 6be7 183d 187e dfbc
00000310: b787 a53c bb35 a83c f069 81bc f325 9b3c
00000320: cf3b d53d eadf 24bc f750 443e 72ec 593d
00000330: 0dc3 103c 76fe 273d 0b71 f73d df6b c33d
00000340: 54ab eebd dc85 b7bd 6f86 873d dca6 013e
00000350: b502 633c 059f 5bbe e372 68bd 875b 0f3e
00000360: 0399 413d 64ee bd3c 4578 1bbd a9c0 a03d
00000370: 23be c3bd 024d 03bd c848 433c 0691 853e
00000380: 7c5a 613d 01e8 cf3d e209 ad3d a7a3 bdbd
00000390: 999b abbb 7838 be3d 829c 2cbe 265f 0cbd
000003a0: ce3a 453d 1488 e43d e9ad 81bd 6fc4 f63d
000003b0: a5d6 08be b4bf e13d c04e 6bbd abaf 423e
000003c0: 7831 c33a 7ccb 8e3c 6e2d 86bc 2101 953d
000003d0: 53dd a3bd 5f18 86bd bf20 73bd aedd bbbd
000003e0: d17a 08be 60ee 843d 354c 0ebd e60e 263e
000003f0: c03e 573d 913a a23d 457e b53d fa69 153e
0.07555537 0.16869506 -0.0034672203 0.21960342 0.10156752 -0.05204733 0.039028775 -0.012480343
0.07502661 0.02323629 0.0763845 0.10437031 0.24321622 0.062075235 0.15346658 0.3216343
0.19468375 0.0025818262 0.08096346 0.19736446 0.009655646 0.080283895 0.07195665 0.31837302
0.27264532 -0.050787505 -0.02591203 0.054196905 -0.07965981 0.011076111 0.04819287 0.062504716
0.3219046 0.007240682 0.2061832 0.07696334 0.06901192 0.25792125 0.11552311 0.14972547
0.031375557 0.20681807 0.25427017 0.15538546 -0.106580704 0.3566536 0.16403751 0.16131234
0.19940966 -0.08786556 0.28749713 0.1609237 0.07819275 0.038228042 0.17233656 0.03807766
0.17120299 0.21394703 -0.012612844 0.19627722 -0.075456396 0.08106501 0.2549087 -0.025716132
-0.07767252 -0.32665178 -0.18457337 0.3102 0.20097294 0.0357005 0.06524874 -6.187474e-05
0.06183129 0.5077746 0.055483624 0.20588768 -0.0065974854 0.20217013 -0.024644084 0.24075589
0.11104242 0.049196493 0.0077659576 0.029842269 -0.15524215 0.1617392 -0.08142133 0.29831475
-0.27245033 0.14812373 0.49563763 0.21802424 0.2253423 -0.14998542 -0.11705068 -0.048191875
-0.159628 0.18657164 0.009986743 -0.11864141 0.11716097 0.029965691 0.2432804 0.073031925
0.039642368 0.5838541 -0.06867274 0.14272763 -0.28347862 0.12892587 -0.3510158 -0.22855617
0.095204435 0.017254587 0.1211581 0.08412521 0.08852699 -0.05310026 0.01023755 0.25403628
0.053519167 -0.1457121 0.3322169 -0.09183632 0.079635344 -0.21157244 0.40202358 -0.1702576
0.08501244 0.07659289 0.35103804 0.002752373 0.16440937 0.07002118 -0.049428742 -0.22068137
0.056917526 -0.0011481144 0.15399835 0.022883218 0.015420042 0.19568145 0.12110923 -0.047355603
0.049681425 0.117423795 -0.022035228 0.07114426 -0.058478028 -0.13190842 0.14363272 -0.110698216
0.18064754 0.17071131 -0.011897145 -0.0449 0.056878917 -0.01877699 0.33683604 0.40679967
-0.064231806 -0.14603654 -0.045805506 -0.027151015 0.044402506 -0.06817388 0.040490154 -0.09871561
0.21451768 0.04705095 0.027685497 0.23256642 -0.15770221 0.12477706 0.18884362 0.19399191
0.06911385 -0.0065706177 -0.0731949 -0.056394525 -0.07058366 0.2731074 0.0616684 -0.05349233
0.21349639 -0.04553999 0.25975415 -0.07976772 0.007714966 -0.13624287 0.27956778 -0.029291824
-0.057796936 0.21483603 0.037330072 -0.027281806 0.020206315 0.020533433 -0.015797585 0.018938994
0.10411798 -0.010063151 0.1917151 0.053204007 0.008835566 0.041014157 0.12082108 0.09542059
-0.11653772 -0.089610785 0.06617438 0.12661308 0.013855626 -0.2144738 -0.05675019 0.13999759
0.047265064 0.023184963 -0.037956495 0.07849247 -0.0955775 -0.032055862 0.011919208 0.26087207
0.055017933 0.10151673 0.084491506 -0.0925973 -0.0052370545 0.09288114 -0.16856578 -0.034270428
0.048151784 0.11158767 -0.06331999 0.120491855 -0.1336313 0.110228926 -0.05744815 0.19012325
0.0014892062 0.017431013 -0.016379084 0.07275606 -0.080011986 -0.06547617 -0.0593574 -0.091731414
-0.133281 0.06490779 -0.034740645 0.16216621 0.052550077 0.07921327 0.088619746 0.14591208

lstm.weight_hh_l0 f4 [256, 64]
00000000: 8242 d3bd 067f 9dbd ab76 5b3e 75b8 963e
00000010: e079 bfbd cd83 5bbe 65b7 163e 639e 3fbe
00000020: cb9c 403e 1f07 9bbe e786 c03d 445c b23e
00000030: 0d3c a93e cd9b 0bbc f2ea 0a3f e04a 3dbe
00000040: 0d2c 573e 296b 123e 8236 723e 9639 61be
00000050: 454c 213e c7e7 95be d6ae 59be 9f59 5b3d
00000060: 3e92 4abe 201f 9abe 4db7 43be 529d 5fbe
00000070: ddbc ca3e 8313 9bbe 141a 5abe 9e0b 1cbd
00000080: 164c 0a3d ffab 843e a030 603c a4af 563d
00000090: 52a6 6abd 4381 abbe 9512 a3bd 9f60 ea3d
000000a0: d313 58bd f12a d3bd f738 89be 3700 3bbe
000000b0: 024e fa3d cece 98be dba0 a13e 7870 c1be
000000c0: bbd4 ecbc 8a15 3cbe a6ba 383d ff19 83be
000000d0: 644c 42be a479 073d 376f 833e 169a a03e
000000e0: 6cde 173e 07fe c0bd 979c 1d3e 4cbc 9cbe
000000f0: 8c52 613d 513d 8c3c 48de 323e b142 c03e
00000100: a351 fe3d a84d cc3d 8ccc 383d 7bd3 043e
00000110: 6ce8 c9bc 9068 61be 02c5 6b3e 5d98 8abc
00000120: fff8 5b3e 0b70 03bb 7324 9cbb 9b8a 11be
00000130: 22ef 9c3e 9ec4 4b3d a0b3 933e f05a 80be
00000140: 2d32 e93c 928f c33d 34e2 063e ac7c cabd
00000150: 9f64 393e e28f 71be c065 c9bd 4ec2 87bd
00000160: 5848 01be a57f b5bd 7cdf 4e3b ebef 9fbe
00000170: 8cc7 ab3e 3f4f 7ebe fb58 40be b482 4abd
00000180: 7598 17bd 0081 473e 0d47 123e fece 8bbd
00000190: 1055 463d a5c1 83be c71c 47be f395 193e
000001a0: 5fc6 6a3e a88e f6bd e4e3 27be d43a a8bd
000001b0: 12ec d9bd 310f 8bbe 7b04 86bd 8baf 23be
000001c0: f60b 173d 9cd7 42be 4409 563d 1987 b5be
000001d0: 0103 b4be a0df f83d 0c37 0e3e 05a2 1c3e
000001e0: 5170 073e 5feb 8cbd ebc7 083e e23e dcbd
000001f0: 9d8b 45be b943 ab3e d535 cb3b 1857 5ebe
00000200: fcef aabc d169 b13d 617c df3d 68dd 843e
00000210: 78ff 7fbd 3d8e 93be 06c3 d3bd eece 67be
00000220: 572f d43d fa09 e83c aef4 23bd dfa2 5d3e
00000230: d5f4 4e3e 4432 b4bc 078d 4c3e 5f44 35bd
00000240: 09d0 033e 204d 6f3e 92b7 903e 8217 25be
00000250: 2b4d 633d 309f 97be 4eed 553c 315a c9bd
00000260: 2daa bf3d 86ca 41be 7c44 6bbb a023 fcbd
00000270: e8f6 1b3e 8e89 83be 4ff2 e6bd e048 a23b
00000280: 3abd 4fbd 219b 303e f102 0dbe 7acf 2ebd
00000290: b273 21bd 230a 83be b082 9c3d e362 06bb
000002a0: ea6a fe3d 033d 313e a9dc f5bd 4b55 0bbe
000002b0: 30fc b53d 8354 1ebe 8d4b 543e 6eab 85be
000002c0: 384e a63c 8c22 38be 838c 313e 32df 97be
000002d0: 0628 2dbe ae4e 263d c7e7 c53d e536 063e
000002e0: 24ef 6f3b 04f0 4ebe 9cc8 fe3d 8508 2cbe
000002f0: aa50 afbc 0d46 9dbc 6d19 9bbd 6e58 7f3e
00000300: 11f9 b7bd a13e 163e fcef a9bd ec07 aabc
00000310: 4c1a 27be 4bb8 c1bd d3cf 1cbd b33c 1fbe
00000320: 4dc0 113e 996c 38be 4a00 5ebe b819 9a3c
00000330: 1469 803d 108b 963d 2c1c 4e3e 746a 08be
00000340: 927c 453e 556f 233e d2ca da3c f873 48bd
00000350: 0bca 383e 01f4 d63d 7bdb 10bd 3dce 30bd
00000360: 46c1 993d 75dd 21be 07fb 35bd 4ad4 2fbd
00000370: 1815 4e3e b2ac 4ebd 6fe9 04bd 19f0 283e
00000380: 8457 203e ce84 a4bc 2864 b13c e852 38be
00000390: 7c8c b6bc a023 12be 77df da3c 4226 163e
000003a0: b52a 1fbd 5953 9f3d d457 84bb ad49 2fbd
000003b0: 8617 11be 1e3e 7e3b 445b 6b3e 9555 8abd
000003c0: bb66 f43d 06f0 023d ad4c d33d 6c57 abbd
000003d0: 80c9 c7bd 0978 dfbd 40c8 f63d 4bc9 473e
000003e0: d350 9f3d 95cf 883d f464 ec3d 20be c93c
000003f0: d20c 7bbd 16d5 adbd fd86 da3c 99df 47ba
-0.1031542 -0.076902434 0.21431987 0.29437605 -0.09349418 -0.21436997 0.14718397 -0.18712763
0.18809812 -0.3027887 0.094007306 0.34836018 0.33053628 -0.0085210325 0.5426475 -0.18485594
0.21012898 0.14298691 0.23653606 -0.21994624 0.15751751 -0.29278395 -0.21258101 0.053552266
-0.1978235 -0.30101871 -0.19112892 -0.21837357 0.39597216 -0.30288324 -0.2129901 -0.038097017
0.033763967 0.25912473 0.013683468 0.052413598 -0.05728752 -0.33497056 -0.079625286 0.1144421
-0.05275328 -0.10310925 -0.26801273 -0.182618 0.1222191 -0.2984528 0.31568035 -0.3778112
-0.028910032 -0.18367592 0.045099877 -0.2560577 -0.18974453 0.03307499 0.25670788 0.31367558
0.14830941 -0.09423452 0.15391766 -0.3061241 0.055010363 0.017119082 0.17467606 0.37550882
0.12417915 0.09975749 0.045116946 0.12971298 -0.02464696 -0.22012544 0.23024371 -0.016918356
0.21481703 -0.0020055796 -0.0047650873 -0.1421303 0.30651194 0.049748056 0.2884798 -0.2506938
0.028466308 0.09548868 0.13172227 -0.098870605 0.1810479 -0.23590043 -0.098338604 -0.066288576
-0.12625253 -0.08862237 0.0031566313 -0.3123773 0.3355068 -0.24834917 -0.18783943 -0.049441054
-0.03701063 0.19482803 0.14284916 -0.0682659 0.048420966 -0.25733677 -0.19444571 0.14998607
0.22927235 -0.12038928 -0.16395527 -0.082143456 -0.1064073 -0.27160028 -0.06543823 -0.15984933
0.03687664 -0.19027561 0.05225493 -0.35454634 -0.35158542 0.12152028 0.13888186 0.1529618
0.13226439 -0.06880831 0.13357513 -0.107541814 -0.1929154 0.33450106 0.0062014856 -0.21712911
-0.020866387 0.08662761 0.10912395 0.2595017 -0.062499493 -0.28819457 -0.10339932 -0.22637531
0.10360592 0.02832507 -0.040028267 0.21644162 0.20210584 -0.021996625 0.19975673 -0.044254657
0.12872328 0.23369265 0.28265053 -0.16122249 0.055493515 -0.29613638 0.013057066 -0.09831656
0.0935863 -0.18924913 -0.0035898974 -0.123114824 0.15230906 -0.25690883 -0.112766854 0.004952535
-0.05071757 0.17246677 -0.13770653 -0.042678334 -0.039416976 -0.2559367 0.07642114 -0.0020505718
0.12422736 0.1730843 -0.12004978 -0.13606755 0.088859916 -0.15461926 0.20731945 -0.26107353
0.02030097 -0.17981929 0.17338757 -0.29662472 -0.16909799 0.04060238 0.09663349 0.13106878
0.0036611045 -0.20208746 0.12440607 -0.16800125 -0.021400768 -0.019198442 -0.07573209 0.24936077
-0.089830525 0.14672329 -0.082977265 -0.02075573 -0.16318625 -0.09458979 -0.038284134 -0.15550499
0.14233513 -0.18010177 -0.21679798 0.018811092 0.06270042 0.07350743 0.20127934 -0.13321859
0.19285801 0.15960439 0.02670804 -0.04893872 0.18045823 0.10495759 -0.035365563 -0.043165434
0.07507567 -0.15807135 -0.04442885 -0.042927064 0.20125234 -0.050457664 -0.032449182 0.1649784
0.15658385 -0.020082857 0.021654204 -0.18000376 -0.022283785 -0.14271402 0.026717884 0.14663032
-0.038859088 0.07779569 -0.0040387902 -0.042794872 -0.1416913 0.003879435 0.22984034 -0.06754605
0.11933657 0.031967185 0.10317359 -0.08366284 -0.0975523 -0.10911567 0.120499134 0.19510381
0.07779088 0.06680218 0.11542693 0.024626791 -0.061291523 -0.084879085 0.026675696 -0.0007624566

lstm.bias_ih_l0 f4 [256]
00000000: 42fc c23c 0298 e93d 5ac5 db3d 2a01 263c
00000010: 9a32 393d 17ea d23d 846e a73d ecb5 e93d
00000020: 8475 93bd eb8e 83bd df39 9b3d 129b f13d
00000030: b773 f33c 3bd6 43bd 8ed3 a23d d6e1 2ebd
00000040: 6ebc 59bd 0013 abbd a0a3 093d 5c2d a1bd
00000050: a8e4 70bc 1ce5 c5bd 84ac 8ebd 98fd a2bd
00000060: b92c b1bc 97bb adbc 3240 f03c aefa 90bd
00000070: 3ea7 adbd 6ce5 683d b653 49bd f851 58bc
00000080: d8a3 173d fcc9 0a3d 068e 17bd e2be 693c
00000090: 9fcb 3cbd 78c1 f8bd ca65 ac3d c276 0cbd
000000a0: 040b bcbd ae09 82bd 1ba8 f33d a0f4 f23d
000000b0: 82c8 da3d ecc5 f6bd 4f20 01bd faa0 d0bd
000000c0: d4b3 703c 5eae 083d 3ca4 9fbd 013c 8abc
000000d0: 04d5 b3bd 26eb f43d 14df 973d 8e6a 07bd
000000e0: 9eb0 2e3d a297 cc3d acc6 f2bd 1f69 f13d
000000f0: 822c efbd 1d9f ffbb 3894 003e e81a c5bb
00000100: 38e4 7d3d 4c3f 80bd e4dd a23d 8ae4 2ebd
00000110: d8a8 6abd 16b4 323b 17ad adbc c966 2bbd
00000120: ccd4 a3bd 4420 ae3d 2223 66bd f8e8 04bd
00000130: 6adc cebd 0070 d03d ca0a f0bd 1a83 b43d
00000140: 7efb 78bd 8932 87bd ee87 69bd fda3 b1bd
00000150: 72e6 edbc a890 bd3d bcf9 9f3c e2b3 dd3d
00000160: 2fc3 7d3b ff10 ec3d bfe5 65bd 62e6 c8bd
00000170: 426a 963d 0c06 bbbc ea5e ba3d b5e1 bc3d
00000180: 6a1d 043d ba9e 1bbd 4a57 c83d 7c56 8d3c
00000190: d089 883d 74d7 d3bd fb6f 523b 8834 8ebc
000001a0: a817 a8bd daf3 a3bd 72c0 243d 0bd7 cc3d
000001b0: 7399 963d dcf6 fd3d cde7 d73d 3e64 04bd
000001c0: 76cf 9b3d 6414 f8bd db60 3ebd 1aa7 81bd
000001d0: 28cd 91bd 2a7a fbbd 4071 b93d 5b54 67bd
000001e0: 8c66 dabd 2fb5 22bd 3c0f e53d 03e4 05bd
000001f0: 6053 833c 187e 9a3d eeb0 803c 182c adbd
00000200: 366c 013e 171d 203d dec3 ed3d 5c2f 813d
00000210: 06a8 37bd f991 613d 780f 213d 2058 8cbc
00000220: 9ae5 ed3d 0ab0 42bc 4ecb 0dbd a808 6d3d
00000230: 94aa f2ba 2d8c 023e 901a e83d 2de2 703d
00000240: 1c4e d23d d68d 9c3c fc1e ee3d a378 c33d
00000250: 4a27 b63d cb44 363d c235 b5bd d828 6c3d
00000260: eb33 e83c a22d b03d 8ade b5bd 407a abbd
00000270: 1655 923d bd19 97bc a12c 8b3d b209 8dbc
00000280: e89e 853d bedf 78bd 0c28 45bd ca4c 92bd
00000290: 393c c4bc a421 f0bd e3d7 fbbd 04fc 5d3d
000002a0: a098 78bd 28a0 bdbd fa21 c8bd 42c1 d73c
000002b0: 8e81 d6bd 2857 e1bd b8d2 553d 6aa6 f8bd
000002c0: 8a18 d1bd 10b4 dabc 0e6c c8bc a05c 56bd
000002d0: acec 6b3c cd33 08bd d70a 9c3d 291a 67bd
000002e0: 8c9f 4c3d 4479 f4bc acb8 673d 7e0d a1bd
000002f0: 6e86 9abd 5a9b 76bc a609 7a3d b060 133d
00000300: 3892 7fbb e468 503d ca46 253d 9453 69bc
00000310: ccf7 13bd 7ab0 23bd 7317 b4bd 780c 04be
00000320: d661 dc3d e09f b8bd 3c3d 11bd cc2e 053e
00000330: bb2f e6bd 20e6 8ebd 98eb 64bd f649 84bd
00000340: 04d8 e3bc 1d0e 9dbc 93bb 913d 603a 8c3c
00000350: 04b4 673d 08ec cc3b 9342 21bc d6b0 c53d
00000360: 524a 43bd 577d 03be d672 fdbd 41a3 d3bd
00000370: fe38 5cbc 564a 3e3d 3bcb 753d 7c28 0fbd
00000380: c068 ee3d 8005 babd f0f4 363d 907f e43d
00000390: d087 19bd e846 52bc de1c bfbd 6539 bfbd
000003a0: ae9c 3e3d 1f90 91bc 5c90 73bc 8eac e6ba
000003b0: 7a16 8f3d e7af afbc a4bd f8bc 29eb f4bd
000003c0: 462a e23d abef 3fbd 266c 8d3d 4419 af3d
000003d0: 3e60 9cbd c0f0 87bd 5fb7 f33d 8a88 713d
000003e0: 9945 a1bd ded2 5abc bc8d a2bc 94e2 01be
000003f0: 0633 edbd 7eb3 a03c 3667 02bd 9778 c53b
0.023801927 0.11405946 0.10731001 0.0101321135 0.045214273 0.10298555 0.08175376 0.11411652
-0.07200149 -0.06423744 0.075793974 0.117971554 0.029718263 -0.047811728 0.07950507 -0.042695843
-0.053158216 -0.08353233 0.03360331 -0.0786998 -0.014702953 -0.0966284 -0.069664985 -0.079585254
-0.02162777 -0.021207614 0.029327486 -0.07079063 -0.084791645 0.05685942 -0.0491521 -0.013203137
0.037021488 0.033884034 -0.03700068 0.014266701 -0.046092626 -0.12146276 0.08417852 -0.034292944
-0.091817886 -0.063495025 0.11897298 0.11863065 0.10682775 -0.12049469 -0.031524953 -0.10186954
0.014691312 0.033369415 -0.07794997 -0.016874315 -0.08780864 0.119589135 0.07415596 -0.033060603
0.042648904 0.09989859 -0.118543 0.117876284 -0.11678411 -0.00780095 0.12556541 -0.0060151704
0.061985224 -0.06262073 0.079524785 -0.04269842 -0.05728993 0.0027267984 -0.0212007 -0.04184607
-0.07999572 0.08502248 -0.05618585 -0.03244874 -0.101006344 0.10177612 -0.11720808 0.08814068
-0.060786717 -0.06601436 -0.0570144 -0.086738564 -0.029040549 0.092561066 0.019528262 0.108253255
0.0038721075 0.11526679 -0.056127306 -0.09809567 0.07344486 -0.022830032 0.09100135 0.09222738
0.032254614 -0.03799317 0.09782274 0.017253153 0.06666911 -0.10343829 0.0032110203 -0.017359033
-0.08207637 -0.08005495 0.040222593 0.10001954 0.07353487 0.124006 0.10542259 -0.03232216
0.076079294 -0.12113264 -0.046479087 -0.063307 -0.071192086 -0.1227916 0.09054804 -0.056476932
-0.106640905 -0.03972357 0.11184546 -0.032688152 0.016030967 0.07543582 0.015709367 -0.08455676
0.12638935 0.039090242 0.11609624 0.06307861 -0.044837974 0.05507085 0.039321393 -0.017131865
0.11616059 -0.011882791 -0.034617715 0.057869583 -0.0018513971 0.12748785 0.113331914 0.058809448
0.102688044 0.019110601 0.116270036 0.09544494 0.088942125 0.0444992 -0.08848144 0.05765614
0.028345069 0.08602454 -0.088803366 -0.08372927 0.07145135 -0.01844489 0.06795622 -0.017216537
0.065244496 -0.060760252 -0.048133895 -0.071435526 -0.023954498 -0.117251664 -0.122970365 0.05419542
-0.06069243 -0.09259063 -0.097721055 0.02633727 -0.10473929 -0.11002952 0.05220291 -0.12141116
-0.102097586 -0.026697189 -0.024465587 -0.052334428 0.014399689 -0.033252526 0.07619255 -0.056421433
0.049956843 -0.02984298 0.0565726 -0.078639016 -0.07545172 -0.015051687 0.061044358 0.03598088
-0.0038997065 0.05088128 0.040350713 -0.014241118 -0.03612499 -0.039963223 -0.08793535 -0.12895381
0.10760848 -0.09014869 -0.03545879 0.13006133 -0.112395726 -0.069774866 -0.055888742 -0.064594194
-0.027812965 -0.019171769 0.07115855 0.01711768 0.05656816 0.006253723 -0.009842533 0.096528694
-0.0476783 -0.12840782 -0.12375419 -0.103338726 -0.013441322 0.04645761 0.06000827 -0.03495072
0.11641073 -0.0908308 0.044667184 0.11157143 -0.037483037 -0.012834288 -0.09331678 -0.09337119
0.04653614 -0.017768918 -0.014865961 -0.0017599033 0.06986709 -0.021446181 -0.030363865 -0.11958916
0.11043219 -0.046859425 0.06905393 0.08549741 -0.07635544 -0.06637716 0.1190021 0.058968104
-0.07874603 -0.013355939 -0.019842975 -0.12684089 -0.115819976 0.019616839 -0.03183671 0.0060263383

lstm.bias_hh_l0 f4 [256]
00000000: c03f bebd 210d 46bd c641 853d cab8 eaba
00000010: b8a2 923d da85 033e 3225 fc3c 1266 c53c
00000020: 3a84 ad3d 42ad a73d cfc6 c23d f655 043d
00000030: 64d7 aabd 22ce 1c3d 7549 a5bd affa a9bd
00000040: 9580 82bd 5439 263d 0026 88bd b18d 723d
00000050: 57a9 94bc bacc 99bd 4e3e b8bd 9c23 91bd
00000060: 94d4 f2bd 936b 903c 7623 863d baca d93d
00000070: dfa4 ca3d 5c85 d6bd 2f5c a0bd 9640 ee3d
00000080: 263c 06bd 94a7 24bd 19f9 47bd e13c c43d
00000090: 45d7 ccbd dacc 95bd b32a 0d3d 3279 37bd
000000a0: 301a b1bd 206b 27b8 923e d53d 8aab e23d
000000b0: 180a 1fbd d12f 973d 6e9d 333d 9d26 fa3c
000000c0: c46d fa3d 2691 babd 72b7 8ebd 342b 08bd
000000d0: a02c d7bc c126 04bd 5ad6 943d c312 31bd
000000e0: e0bd bdbd 1cf0 aabd f26f f63d 41aa e6bd
000000f0: 021e 1c3d e98c 323d d77b b03b 86d5 f53d
00000100: ae30 483a f8d0 e83d 6294 f2bd 3f7d c33d
00000110: 906c 003e 646e 193d 68b7 c23d 8fc2 84bd
00000120: 8097 58bd badf c93d 9c23 313d 8303 e1bd
00000130: 3a6f 223d e70d 033d 7152 8c3d 6135 16bd
00000140: 49f1 b2bd ba1b eb3d 84cf c63d ee34 46bd
00000150: ce8b 41bd 545e bd3d 8ec7 bebd 927a 753d
00000160: 1969 b33d 410c 6ebc e436 92bd a248 743d
00000170: f003 4e3d 8257 bc3d 7ec8 063e 3068 b33d
00000180: eaa3 5f3d d666 cbbd 3c82 8e3d ba85 ed3d
00000190: 5475 02be ce9e ca3d 648f c5bd 3433 9cbd
000001a0: 727d 363d 5509 a03d 070e 6ebd ff57 643d
000001b0: 522f 01be da0a 53bc ba96 2dbd 163d a03d
000001c0: defa e33d aa93 d2bd 1875 cb3c 2641 dbbd
000001d0: 6c05 93bd 9c4b d1bd 4181 a83d bc06 b7bd
000001e0: 13ad d13d 4761 b4bd 20f2 f63c eab1 04be
000001f0: 6629 b73d 4805 b03d b8f7 d2bd e5cc fc3c
00000200: 8244 e4bd 1ee9 e73d 9cd0 363d 24ac 16bc
00000210: fbd2 853b d71b 8d3d 2e8f 4b3c 001a 4dbd
00000220: 4810 c2bd ea73 fb3d 0c59 e7bd cb80 a83c
00000230: bead e63d da20 cabd b802 5e3c 472d 813b
00000240: 4649 b73d cf66 dcbd 3766 39bd 5835 c2bd
00000250: 50a4 a03d fa95 f3ba 7cec 2fbd 552d 883c
00000260: d024 babc ca00 3fbd ac91 c73d 0e2a 5c3d
00000270: d094 4f3d 9fbe 01be 5603 a23d be14 703d
00000280: 0cde f73d 587e e33d 442d 1ebd 70cf 95bc
00000290: b605 61bd 2cbf ecbd d65a c6bd 2665 683d
000002a0: 98ce 063e f13f 0fbc 1159 e9bd 3dca a5bd
000002b0: 6875 b9bd 18b0 8bbd 4224 a53d 52ae abbb
000002c0: b050 463d 1cfa 47bd a146 2bbc e524 c7bd
000002d0: 66f5 ed3d cfb6 673d 018a 9f3d 3bae f73d
000002e0: 58cc a53d ea12 373d 3acc 6ebc acc2 ddbb
000002f0: 288f cbbd 7bf0 fc3c 0a10 803d ea47 03be
00000300: 9880 a9bd a7c7 633d 0ea7 91bd eafa af3d
00000310: cef0 023d 2b4d 18bd a446 9dbd fceb 92bd
00000320: d63f c23c f48b fdbd ccbf 953b 8f04 cf3d
00000330: 6e79 8ebd 9aa1 a8bd 7e6d eebd 086a 3abd
00000340: ef1e c1bd f6ad 8bbc d472 783d e4ca e53d
00000350: 8870 95bc 21b3 debd 44c5 d5bb 8a1a b6bd
00000360: 0946 d43d fe75 c83d 12d0 433c 25e6 9bbd
00000370: 0c0c 633d 1bc9 9ebd 9696 5c3d fb2b a1bd
00000380: e199 f5bb 9c9e 0fbd 4b8b 00bd defd 173e
00000390: 0a3a 4f3b 3726 2dbb 9062 bd3d dedd 99bc
000003a0: 7d9b 0abe faa5 d73d 47f7 bfbd 93ed 27bc
000003b0: 44d2 aa3d fc1c 1e3d 840d 8abd 6e9d dabd
000003c0: 94c2 9f3c dea4 103d b688 633d e63d 663c
000003d0: 00e8 bf3d 0bfd d53d 2859 f3bd fad1 eb3d
000003e0: aa86 f0bd ed2f 88bd 9cd6 bbbd ef7f edbd
000003f0: dda5 04bd eaa7 f73c 11f1 71bd 1fa3 d23c
-0.09289503 -0.048352364 0.06506686 -0.0017907855 0.071599424 0.12844029 0.030779455 0.024096522
0.08472486 0.08187343 0.09510576 0.03230854 -0.08341864 0.03828252 -0.080706514 -0.08299767
-0.06372181 0.040582016 -0.06647873 0.05921716 -0.018147154 -0.075097516 -0.08996259 -0.0708687
-0.11856952 0.01762942 0.065497324 0.1063437 0.09894728 -0.10474655 -0.078300826 0.116334125
-0.032772206 -0.040198877 -0.048821542 0.09581924 -0.10001997 -0.07314463 0.03446455 -0.044793315
-0.08647573 -3.991567e-05 0.10412325 0.11067875 -0.038827986 0.07382167 0.04385131 0.03053599
0.122279674 -0.09109716 -0.06968583 -0.033244327 -0.026266396 -0.03226352 0.07267447 -0.043230783
-0.092647314 -0.083465785 0.120330706 -0.11262942 0.038114555 0.043591414 0.0053858566 0.12003617
0.00076366484 0.113679826 -0.11844708 0.09545373 0.12541413 0.037458792 0.09507638 -0.064824216
-0.052878857 0.098571256 0.04324685 -0.10986998 0.039656855 0.03199568 0.06851662 -0.036672
-0.08737428 0.11479898 0.09707549 -0.04839032 -0.04725247 0.09246507 -0.09315406 0.059931345
0.0876028 -0.014529289 -0.07139376 0.05963958 0.050296724 0.09196378 0.13162419 0.087601066
0.05459968 -0.09931724 0.06958434 0.11597772 -0.1274007 0.09893571 -0.0964649 -0.07626954
0.044553228 0.0781428 -0.058118846 0.055747982 -0.12615708 -0.012881005 -0.042380072 0.07824151
0.111318335 -0.10282071 0.024836108 -0.107057855 -0.071787685 -0.102194995 0.08227778 -0.08936831
0.102380894 -0.08807617 0.030144751 -0.12958494 0.08943443 0.08594757 -0.10301155 0.03085942
-0.11145879 0.113237604 0.04463254 -0.009196315 0.0040839887 0.06890076 0.012424273 -0.050073624
-0.09475762 0.12277968 -0.11296281 0.020569226 0.112636074 -0.09869547 0.013550453 0.003942165
0.08949523 -0.10761797 -0.045263495 -0.09482831 0.0784384 -0.0018584125 -0.04295014 0.016623178
-0.022722632 -0.046631612 0.097445816 0.053751044 0.050679028 -0.12670372 0.079107925 0.05861353
0.12102899 0.111080825 -0.038617387 -0.01828739 -0.054937087 -0.11559901 -0.09685294 0.056737088
0.13164747 -0.008743272 -0.11393941 -0.080952145 -0.090555966 -0.068206966 0.08063556 -0.0052392865
0.048416793 -0.048822507 -0.010453851 -0.09723834 0.11619072 0.056570824 0.07789994 0.12093779
0.08095616 0.044695772 -0.014575059 -0.0067675915 -0.09939414 0.030876389 0.06253059 -0.12820402
-0.082764804 0.055610325 -0.07111941 0.0859278 0.03196793 -0.037182968 -0.07679489 -0.07173917
0.02371208 -0.123802096 0.004569983 0.10108291 -0.069567546 -0.08233948 -0.11641978 -0.045511276
-0.09429728 -0.017050724 0.060656384 0.11220339 -0.018242136 -0.1087401 -0.00652376 -0.08891781
0.10364921 0.0978813 0.011951463 -0.07612256 0.05543141 -0.077532016 0.053854547 -0.07869717
-0.0074951504 -0.03506337 -0.03138284 0.14842936 0.0031620287 -0.0026420483 0.09247315 -0.018782552
-0.13535877 0.105297044 -0.09373336 -0.010249513 0.08340886 0.03860186 -0.06740859 -0.106745586
0.019501962 0.03531348 0.0555503 0.014052844 0.09370422 0.10448655 -0.118822396 0.11514659
-0.11744435 -0.06649766 -0.09171793 -0.11596667 -0.032384742 0.030231435 -0.05906779 0.025712548

fc.weight f4 [1, 64]
00000000: fea8 b2be f6d8 0ebf f4ac d6be 3e88 55be
00000010: aaae 17bf 17bf c7be fc29 64be 03c5 7d3e
00000020: f818 11be b58a 903e 31cb 05bf 2b54 00bf
00000030: 4242 10be 6651 23be 3baa 3abe a025 043f
00000040: d822 1e3f bd53 5abd b075 b03e a7a1 973e
00000050: 4d16 143f 6966 c33e 2394 153e 5658 a1be
00000060: 1e0c a53e d698 da3e 5e3c 2e3f 7689 e43e
00000070: 6948 f23b 9eae c2bd 6e9d 723e bfdc a93e
00000080: 5d35 ef3d e724 a8be abd3 6cbe 197a 32bf
00000090: a91d 053f 80dd 06be ceea 223e 34e1 e73e
000000a0: 6237 a13e 9c20 953e 385f 193e 30ec 443e
000000b0: 7aa9 c5be 186e 77bd 5700 fb3e 0269 b13d
000000c0: 06c7 2c3e a67d 923e cc4d 953e f3c2 b1be
000000d0: ab45 0ebd 07c5 cd3e 79e3 20be 32ab 833d
000000e0: 4106 6abe 5701 f5be 3293 39be 6fc6 8f3e
000000f0: 44d2 793e 0df6 3cbc a8c7 b5be 8e4d ab3e
-0.34894556 -0.55799806 -0.41928828 -0.20852754 -0.5925089 -0.39012977 -0.22281641 0.24782185
-0.14169681 0.28230825 -0.5226317 -0.5012843 -0.14087775 -0.1594902 -0.18229 0.5161991
0.6177192 -0.053302515 0.34464788 0.29615518 0.5784653 0.3816407 0.14607291 -0.31512707
0.32235807 0.4269473 0.68060863 0.44636124 0.007393886 -0.09505962 0.23692867 0.33176228
0.116801 -0.32840654 -0.2312762 -0.69717556 0.5199838 -0.13170433 0.15909883 0.45289004
0.31487566 0.2912644 0.1497773 0.19230723 -0.38605863 -0.060407728 0.49023697 0.08662607
0.16872796 0.28611487 0.29160917 -0.34719047 -0.03473441 0.40189382 -0.15711774 0.06429137
-0.22853948 -0.47852585 -0.18122557 0.2808108 0.24396616 -0.011533272 -0.35503888 0.33457607
