model/fl_checkpoints/global_round_2.pt (torch, 196820 bytes, 7 tensors)

conv1.weight f4 [64, 78, 3]
0	0x3d7405bf	0.059575792
1	0x3d60392b	0.05474202
2	0x3a32dd3c	0.00068231276
3	0x3d5f03e2	0.054447062
4	0xbc7e86eb	-0.015535097
5	0x3cc75f7c	0.024337523
6	0xbceb68e7	-0.028736545
7	0x3d14f133	0.036362838
8	0x3d73a0da	0.059479572
9	0xbd3b326c	-0.045702383
10	0x3d6e81fb	0.058229428
11	0x3c28b315	0.010296603
12	0x3d4fef2c	0.0507652
13	0x3c38eca0	0.011286885
14	0x3cf1b446	0.029504906
15	0xbbe07a4e	-0.0068505174
16	0x3d4a816d	0.049439836
17	0x3c1d022e	0.009583039
18	0xbd01552e	-0.031575374
19	0x3c9eb7c0	0.019374728
20	0xbcfdce32	-0.03098211
21	0xbbe0a70e	-0.006855852
22	0xbc8a543e	-0.016885873
23	0x3d4c4c3b	0.049877387
24	0xbd53486d	-0.051582742
25	0xbcc8ae17	-0.024497075
26	0xbc7fe09d	-0.015617517
27	0xbd2a8b0e	-0.04163652
28	0x3bc53670	0.0060184523
29	0xbd802cee	-0.0625857
30	0x3d730fee	0.059341364
31	0xbd614f60	-0.05500734
32	0x3d5d68fb	0.054055195
33	0x3c14a843	0.00907332
34	0xbc98ebd4	-0.01866714
35	0x3d3c1100	0.04591465
36	0x3c4cb692	0.0124947
37	0x3d5ccbf0	0.053905427
38	0x3c8a807e	0.016906973
39	0xbcaaa714	-0.020831622
40	0x3c86a6cd	0.016436959
41	0xbc4b4fd0	-0.0124091655
42	0x3cdeda96	0.02720384
43	0x3d89b5aa	0.06724103
44	0x3d3b2866	0.045692824
45	0xbcdc70c2	-0.026909236
46	0x3d2dc8f4	0.042427972
47	0x3c71bab9	0.014753991
48	0x3d0279c3	0.031854402
49	0xbd244c7b	-0.040112
50	0xbd446ebc	-0.047957167
51	0xbcea9b8f	-0.02863863
52	0xbd56e14a	-0.052460946
53	0x3d8ce8c8	0.06880337
54	0x3c4f3ab8	0.012648277
55	0x3cd4cdff	0.025977133
56	0x3d091483	0.033466827
57	0xba034993	-0.0005008217
58	0x3d423bc2	0.04742027
59	0xbd35cf0e	-0.044386916
60	0xbaf02d0a	-0.001832397
61	0xbd39bcfc	-0.045346245
62	0x3d018cb9	0.031628344
63	0xbcc7a36a	-0.024369914
64	0x3c9cda7e	0.019147154
65	0x39ae2d8a	0.00033221795
66	0x3d4ee44c	0.05051069
67	0xbd2da9fe	-0.042398445
68	0xbcd451bc	-0.02591788
69	0xbd3c5024	-0.045974866
70	0x3d68851f	0.05676758
71	0x3d0b2351	0.033969227
72	0x3d85af8a	0.06527622
73	0xbd5d0158	-0.05395636
74	0xbd82000a	-0.06347664
75	0xbd69f922	-0.057122357
76	0xbd403a7a	-0.046930768
77	0x3d12e9dd	0.03586756
78	0x3cc98bf7	0.024602873
79	0x3d50607a	0.050873257
80	0xbca4f24f	-0.020135073
81	0xbd41551c	-0.047200307
82	0x3d06bece	0.03289681
83	0xbc867b6c	-0.016416274
84	0x3d0ee798	0.034888834
85	0xbc949fd2	-0.018142615
86	0x3d460124	0.04834093
87	0xbd491c60	-0.049099326
88	0xbd0bbd3a	-0.034116007
89	0x3cc7a6ec	0.024371587
90	0x3c4b0d10	0.012393251
91	0xbcc9ca64	-0.02463264
92	0x3d1ef7e7	0.038810637
93	0x3d360742	0.044440515
94	0xbd422cdc	-0.047406062
95	0xbd0ef35c	-0.034900054
96	0x3d6e1a58	0.058130592
97	0xbcc3f8d1	-0.023922356
98	0xbcbb861e	-0.0228911
99	0xbd818b1f	-0.06325363
100	0xbd195725	-0.037436623
101	0x3c85c6dc	0.016330175
102	0xbbe691e0	-0.0070364326
103	0xbd435afc	-0.04769419
104	0x3ab16eaa	0.0013537009
105	0xbd2e52ea	-0.04255954
106	0xbd63ff82	-0.055663593
107	0xbd14aadd	-0.03629576
108	0xbd5467b5	-0.051856715
109	0xbd12f075	-0.03587385
110	0x3d8baa7d	0.068196274
111	0x3c05f1c8	0.008175321
112	0x3cd08db2	0.02545819
113	0xbd87db58	-0.066336334
114	0xbd29dcaa	-0.041470207
115	0xbc832b74	-0.016011931
116	0x3c825f5c	0.015914612
117	0xbd6632be	-0.056200735
118	0xbcf1d070	-0.029518336
119	0xbd0fcd6e	-0.035108022
120	0x3b5aeb72	0.0033404496
121	0xbccf76a7	-0.025325133
122	0x3b84d883	0.0040541305
123	0xbd36a38f	-0.044589575
124	0xbd3da9ef	-0.04630464
125	0xbd03ae3c	-0.032148585
126	0xbcbf6848	-0.023365155
127	0xbd5cf62a	-0.053945698
128	0x3d69663a	0.056982256
129	0xbbf5ae4b	-0.007497584
130	0x3d5cd1a4	0.053910866
131	0x3d044e4f	0.032301243
132	0xbd68960f	-0.056783732
133	0x3d18acf0	0.0372743
134	0xbc949f69	-0.018142419
135	0xbcd6378c	-0.026149534
136	0xbd65e59e	-0.056127183
137	0xbd84848d	-0.064705946
138	0x3c9054b0	0.017618507
139	0xbc6b0e14	-0.014346618
140	0x3ccce262	0.025010291
141	0xbd513891	-0.051079337
142	0x3d38ba18	0.045099348
143	0xbd677e72	-0.056517072
144	0xbbaa5565	-0.005198168
145	0x3cd7ad23	0.026327675
146	0x3d1c33d6	0.038135372
147	0x3d51171e	0.051047437
148	0x3d6c49c8	0.05768755
149	0xbd5326ae	-0.05155056
150	0x3c7ba26e	0.0153585505
151	0xbcf59cd1	-0.029982002
152	0xbbe16cc2	-0.00687942
153	0xbd1c4cd8	-0.03815922
154	0x3db3f4f0	0.087869525
155	0xbd3f8d3d	-0.046765555
156	0x3d19a25d	0.037508357
157	0x3cb37110	0.021904498
158	0x3cf4f132	0.029900167
159	0xbd10af02	-0.03532315
160	0x3d853e40	0.06506014
161	0x3c8cf698	0.017207429
162	0x3c2f91a8	0.0107158795
163	0xbd6783d4	-0.056522205
164	0x3d18621d	0.037202943
165	0xbc0697df	-0.00821492
166	0xbcf7511e	-0.030190047
167	0x3d654242	0.05597139
168	0x3c6eca61	0.014574618
169	0xbd1425bf	-0.03616881
170	0xbd078696	-0.033087336
171	0xbb4c989a	-0.0031218887
172	0x3d15824d	0.036501218
173	0xbc88d870	-0.016704768
174	0xbd18c782	-0.03729964
175	0xbcb7633e	-0.02238619
176	0xbd480a26	-0.048837803
177	0x3cbefc90	0.02331379
178	0x3d4f4290	0.05060059
179	0xbd7c156e	-0.061543874
180	0x3c78c0dd	0.015182701
181	0x3d0a531a	0.033770658
182	0x3c4236bd	0.011853871
183	0xbcbeb6f2	-0.023280594
184	0x3d0bc1db	0.03412042
185	0x3d0cb6a5	0.03435387
186	0x3ce19022	0.027534548
187	0xbc5d736a	-0.013516286
188	0xbc7d48f7	-0.015459291
189	0x3c1b03ae	0.0094613265
190	0xbc1555c0	-0.009114683
191	0xbcb01bee	-0.021497693
192	0x3d34660f	0.044042643
193	0x3d6be274	0.05758901
194	0xbc09ca46	-0.008410042
195	0xbc48cfea	-0.012256602
196	0xb4ff3400	-4.7535286e-07
197	0xbb827e2a	-0.003982325
198	0x3c9fec76	0.019521933
199	0x3cabe26a	0.020981986
200	0xbd75aeff	-0.059981342
201	0xbc40266a	-0.011727909
202	0x3d71c620	0.059026837
203	0x3d0dac46	0.03458812
204	0x3a494de4	0.0007679148
205	0xbd286b65	-0.041118044
206	0xbd2f5f6a	-0.042815603
207	0xbd6a873e	-0.057257883
208	0xbc9f714a	-0.0194632
209	0x3cb20095	0.021728793
210	0x3d473076	0.0486302
211	0x3cfba49a	0.030718137
212	0xbd4f747a	-0.05064819
213	0xbd28097a	-0.041024663
214	0xbc107cac	-0.008818787
215	0x3d897e38	0.067135274
216	0x3c62cff6	0.013843527
217	0xbc7bdd46	-0.01537258
218	0x3d09a7f6	0.033607446
219	0xbc61e5ca	-0.013787696
220	0xbd4fed04	-0.050763145
221	0x3d567a5e	0.052362792
222	0xbd08c384	-0.033389583
223	0xbc738348	-0.014862843
224	0xbd5ca73e	-0.053870432
225	0x3d2eea8e	0.042704158
226	0x3d2cccfa	0.04218767
227	0x3cd274da	0.025690485
228	0xbd4aebc2	-0.049541242
229	0xbd8c7c1b	-0.06859609
230	0xbd2ca3bc	-0.042148337
231	0x3d3b035c	0.0456575
232	0x3cfa81e4	0.030579515
233	0x3d89e580	0.06733227
234	0x3cea508e	0.028602865
235	0x3c8bde25	0.0170737
236	0xbbeac062	-0.007164047
237	0xbd629a52	-0.055322953
238	0xbd8e6e4c	-0.06954631
239	0xbd7a609e	-0.061127298
240	0x3cbb4b6c	0.022863112
241	0xbd42747a	-0.047474362
242	0xbc9fd337	-0.019509895
243	0xbd40d703	-0.04708005
244	0xbd11be86	-0.035582088
245	0xbd6dec7c	-0.058086857
246	0xbd392a68	-0.045206457
247	0x3c450a7e	0.012026427
248	0xbcb858d2	-0.02250329
249	0x3d0eb22d	0.03483789
250	0xbcdc333e	-0.026879903
251	0xbd86e5b8	-0.06586784
252	0xbc8b02d4	-0.016969122
253	0xbd213f06	-0.039366744
254	0xbccd54c1	-0.025064828
255	0xbd844773	-0.0645894

conv1.bias f4 [64]
0	0xbc1772c1	-0.009243668
1	0xbcce80d4	-0.025207914
2	0x3d057d20	0.03259003
3	0x3d4ad3b2	0.049518295
4	0x3d87c30d	0.06629
5	0x3d435a88	0.04769376
6	0x3d24ccdc	0.04023443
7	0xb9268010	-0.000158787
8	0xbceef8a2	-0.029171292
9	0x3cf3cc71	0.029760571
10	0x3d4418dc	0.04787527
11	0x3b189d16	0.002328699
12	0xba459e0a	-0.0007538503
13	0x3b47f6cb	0.003051209
14	0xbd72f610	-0.059316695
15	0xb9adaa88	-0.00033124187
16	0x3c6b81cf	0.0143742105
17	0x3d738499	0.059452627
18	0x3ca5e8ee	0.020252671
19	0x3d8dd582	0.06925489
20	0xbb8e92e1	-0.0043510054
21	0x3d3207a7	0.04346433
22	0xbd22e347	-0.03976753
23	0x3c9c6a77	0.019093735
24	0x3d86d07f	0.06582736
25	0x3c78b602	0.015180113
26	0xbceb8870	-0.028751582
27	0x3cd9d850	0.026592404
28	0xbd8be2e7	-0.068303876
29	0x3ceaa542	0.028643254
30	0xbd185660	-0.03719175
31	0x3d3bb2b4	0.04582472
32	0x3bc7d376	0.006098206
33	0x3ccca0e5	0.024979064
34	0xbca4686f	-0.020069329
35	0xbc452414	-0.0120325275
36	0xbcf96726	-0.030444693
37	0x3d75c6f4	0.06000419
38	0x3cda44fa	0.026644219
39	0xbc28ce53	-0.010303098
40	0xbc99fe82	-0.018798117
41	0x3d3086ed	0.043097425
42	0xbd1aef07	-0.03782561
43	0x3ca57ef0	0.02020213
44	0xbd0322aa	-0.03201548
45	0xbbaaf4ac	-0.0052171554
46	0x3d5332cc	0.051562116
47	0xbb5e5203	-0.0033923395
48	0x3d428e55	0.04749902
49	0xbced1940	-0.028942704
50	0x3d6993a4	0.057025567
51	0xbd745eae	-0.059660606
52	0xbd7c326d	-0.061571527
53	0xbd8a80cb	-0.067628466
54	0xbd8789aa	-0.06618054
55	0xb9c342dc	-0.00037243112
56	0xbd898e62	-0.067166105
57	0x3c07457c	0.008256312
58	0xbc887830	-0.016658872
59	0x3be230bf	0.0069027836
60	0xbc2329a8	-0.009958662
61	0x3c454382	0.012040021
62	0xbbebc8c8	-0.007195566
63	0xbd3e1465	-0.04640617

lstm.weight_ih_l0 f4 [256, 64]
0	0x3dad05d7	0.084483795
1	0x3e231e41	0.1592951
2	0xbc3d9865	-0.011571978
3	0x3e43bd19	0.19115104
4	0x3df9e93e	0.122026905
5	0xbd6ebc04	-0.058284774
6	0x3d0b7b10	0.03405291
7	0xbada94c7	-0.0016676419
8	0x3da5dfb4	0.080993086
9	0x3cd0dd46	0.025496136
10	0x3d80eac8	0.06294781
11	0x3da1e4a0	0.07904935
12	0x3e840ff3	0.25793418
13	0x3d676341	0.05649114
14	0x3e24af1b	0.16082422
15	0x3ea6a250	0.3254571
16	0x3e557908	0.20846951
17	0x3c781194	0.01514091
18	0x3dc0624b	0.09393748
19	0x3e4e7d60	0.20165014
20	0x3c43f6b9	0.011960679
21	0x3d928c6f	0.07155692
22	0x3d8904fd	0.066904046
23	0x3e9f7b8b	0.31148943
24	0x3e864395	0.26223436
25	0xbd811a61	-0.063038595
26	0xbcf5e05e	-0.030014213
27	0x3d8995a9	0.067179985
28	0xbdd81e2f	-0.10552632
29	0x3c624cb9	0.013812237
30	0x3d16e07a	0.03683517
31	0x3d8c4ce2	0.06850602
32	0x3e9de9d0	0.30842447
33	0x3c6a8f07	0.014316327
34	0x3e57a24c	0.21058005
35	0x3db4922e	0.08816944
36	0x3d83c0c0	0.064332485
37	0x3e867107	0.26258108
38	0x3de46017	0.1115114
39	0x3e128351	0.14307906
40	0x3d3bb5a1	0.04582751
41	0x3e544312	0.2072871
42	0x3e79b917	0.24387012
43	0x3e2b1ec5	0.16710956
44	0xbde991fa	-0.11404796
45	0x3ebae1c6	0.36500376
46	0x3e041715	0.1289943
47	0x3e322421	0.17396595
48	0x3e4315d7	0.190513
49	0xbd9a1093	-0.075226925
50	0x3e967c50	0.29391718
51	0x3e2c19ec	0.16806763
52	0x3d9e5f62	0.077330366
53	0x3cf4620c	0.029831909
54	0x3e2da53c	0.16957563
55	0x3d4df245	0.050279874
56	0x3e253590	0.16133714
57	0x3e55611d	0.20837827
58	0x3c0e7791	0.008695499
59	0x3e586dae	0.2113559
60	0xbdbca86f	-0.09211814
61	0x3dcb8c79	0.099389024
62	0x3e812b2a	0.25228244
63	0xbc87f897	-0.016598029
64	0xbd8ecbc6	-0.069724604
65	0xbea97eb3	-0.33104476
66	0xbe317ed6	-0.1733354
67	0x3e9486ab	0.29008994
68	0x3e4f85e1	0.20265914
69	0x3d3fd8c0	0.04683757
70	0x3d84b810	0.0648042
71	0x3c594df4	0.013263214
72	0x3d990d5c	0.07473251
73	0x3f00d97f	0.5033187
74	0x3d42d574	0.047566846
75	0x3e39b5f2	0.18135813
76	0xbc6298d1	-0.01383038
77	0x3e4dfa21	0.20114948
78	0xbd012792	-0.031531878
79	0x3e77cdfc	0.2419967
80	0x3dfaadfc	0.12240216
81	0x3d32da0a	0.04366497
82	0x3ca711cf	0.020394234
83	0x3d046bb7	0.032329287
84	0xbe233f63	-0.15942149
85	0x3e26d9c5	0.1629401
86	0xbd94688c	-0.07246503
87	0x3e990bc8	0.298918
88	0xbe8a06b8	-0.2695825
89	0x3e1d9001	0.15386964
90	0x3efd0d2c	0.49424112
91	0x3e54e454	0.20790225
92	0x3e409899	0.18808211
93	0xbe0b0861	-0.13577415
94	0xbde84a4a	-0.113422945
95	0xbd48d561	-0.04903162
96	0xbe21a80e	-0.15786764
97	0x3e41ef68	0.18938982
98	0x3c7ae289	0.015312799
99	0xbde8dd6d	-0.113703586
100	0x3e094486	0.13405046
101	0x3d36cbe7	0.04462805
102	0x3e780146	0.24219236
103	0x3d649365	0.05580463
104	0x3d2bb461	0.04192007
105	0x3f102342	0.563038
106	0xbd81349c	-0.063088626
107	0x3e15b7a9	0.14620842
108	0xbe8be200	-0.27320862
109	0x3e02939e	0.12751624
110	0xbeaab4ca	-0.33341056
111	0xbe683a76	-0.22678551
112	0x3dac1c19	0.08403797
113	0x3d077b1a	0.033076383
114	0x3e069226	0.13141689
115	0x3db0c3f6	0.086311266
116	0x3dd20158	0.102541625
117	0xbd8ef10a	-0.06979568
118	0x3c8c2686	0.017108213
119	0x3e8158c7	0.25263044
120	0x3d4a1acf	0.049341973
121	0xbe075e73	-0.13219623
122	0x3e9db9c3	0.30805787
123	0xbda17857	-0.07884281
124	0x3d8458dc	0.06462261
125	0xbe543604	-0.2072373
126	0x3ecbf76b	0.39837202
127	0xbe31e26a	-0.17371526
128	0x3dc2ff46	0.09521346
129	0x3dc321ab	0.09527906
130	0x3eace4d5	0.33768335
131	0x3cdff19e	0.027336892
132	0x3e22c4a4	0.15895325
133	0x3dcaba1d	0.098987795
134	0xbc95ca1c	-0.01828485
135	0xbe38f4b0	-0.18062091
136	0x3d97cfae	0.07412659
137	0x3c9b4e6c	0.018958293
138	0x3e2b8075	0.16748221
139	0x3d14560b	0.03621487
140	0x3d08adb4	0.03336878
141	0x3e5b6fbf	0.21429347
142	0x3e01e78c	0.12685984
143	0xbcd8da43	-0.026471263
144	0x3d9a01f2	0.07519902
145	0x3df67a56	0.120350525
146	0xbb236356	-0.0024931035
147	0x3da51830	0.08061254
148	0xbd469719	-0.04848394
149	0xbdfa2889	-0.12214763
150	0x3e1cf150	0.15326428
151	0xbde341d2	-0.110965386
152	0x3e4118a6	0.18857059
153	0x3e369177	0.17828928
154	0xbcc9ae11	-0.024619134
155	0xbcd57e57	-0.02606122
156	0x3d91cfd6	0.0711972
157	0x3a7e99bc	0.0009712239
158	0x3ea81976	0.32831925
159	0x3ecf04dc	0.40433395
160	0xbd5a05ea	-0.053228296
161	0xbe15f065	-0.14642484
162	0xbd2ffa1e	-0.04296314
163	0xbcad9fa8	-0.021194294
164	0x3d7b047f	0.061283585
165	0xbd92ae5c	-0.07162163
166	0x3cf12a08	0.029438987
167	0xbdb4db3a	-0.08830877
168	0x3e665068	0.2249161
169	0x3d91166a	0.07084353
170	0x3d0de456	0.034641586
171	0x3e750001	0.23925783
172	0xbe13d247	-0.14435683
173	0x3dfb27ca	0.122634485
174	0x3e3c7012	0.18402126
175	0x3e591e0c	0.21202868
176	0x3dce7b21	0.10082079
177	0xbc3f82ce	-0.011688901
178	0xbd525b2b	-0.051356476
179	0xbd39ae97	-0.045332517
180	0xbd796af7	-0.060893025
181	0x3e893d94	0.26804793
182	0x3db51dae	0.088435516
183	0xbd34832b	-0.044070404
184	0x3e53b4e0	0.20674467
185	0xbd1a0443	-0.03760172
186	0x3e91f266	0.28505248
187	0xbd92db75	-0.07170764
188	0x3c9573f6	0.018243771
189	0xbe05ca61	-0.13065483
190	0x3e842580	0.2580986
191	0x3b92fa26	0.0044853864
192	0xbd30965b	-0.04311214
193	0x3e455b03	0.19273
194	0x3d16866c	0.03674929
195	0xbce73e72	-0.028228018
196	0x3d17379c	0.036918268
197	0x3ce40f6f	0.02783939
198	0xb9541c40	-0.0002022842
199	0x3cb9add2	0.022665892
200	0x3de08802	0.109634414
201	0xbc4a55f4	-0.012349594
202	0x3e588608	0.21144879
203	0x3d81573c	0.06315467
204	0x3ca5c9ec	0.020237885
205	0x3d434609	0.047674213
206	0x3de8e248	0.11371285
207	0x3dcea3d8	0.100898445
208	0xbdd860f6	-0.10565369
209	0xbd97d3ce	-0.074134454
210	0x3da26077	0.079285555
211	0x3df64693	0.1202518
212	0xbc75e82e	-0.015008969
213	0xbe609318	-0.21931112
214	0xbd51ce43	-0.051222097
215	0x3df5d9c9	0.1200443
216	0x3d6d4180	0.057923794
217	0x3d23d4c8	0.039997846
218	0xbce2e48a	-0.027696867
219	0x3db49bb1	0.08818758
220	0xbdcad623	-0.099041246
221	0xbcfe2c7b	-0.03102707
222	0x3c8e041b	0.017335942
223	0x3e848406	0.25881976
224	0x3ce9f7e3	0.028560584
225	0x3df5389d	0.11973689
226	0x3dc763bc	0.0973582
227	0xbd9fe654	-0.078076035
228	0x3c8cc0f8	0.017181858
229	0x3dcd9972	0.10039033
230	0xbe3142c3	-0.17310624
231	0xbd3750a4	-0.04475464
232	0x3d7a8af7	0.061167683
233	0x3ddfd7a8	0.10929805
234	0xbd4be073	-0.0497746
235	0x3e09a806	0.13443002
236	0xbe0438be	-0.1291227
237	0x3df7f70d	0.12107668
238	0xbd629300	-0.05531597
239	0x3e3aa853	0.18228273
240	0xbc782476	-0.015145412
241	0x3c8104ae	0.015749302
242	0xbd0154c9	-0.031574998
243	0x3d924ad9	0.07143182
244	0xbd8c8d66	-0.06862907
245	0xbd6f4af5	-0.058421094
246	0xbd8f5946	-0.069994494
247	0xbda328ba	-0.07966752
248	0xbe0cd586	-0.13753328
249	0x3d74d2f1	0.059771482
250	0xbd1b215d	-0.037873615
251	0x3e22f9d8	0.1591562
252	0x3d72e269	0.059297953
253	0x3da1afe4	0.078948766
254	0x3dbe024d	0.092777826
255	0x3e1dc6e2	0.15407899

lstm.weight_hh_l0 f4 [256, 64]
0	0xbdc81e9e	-0.09771465
1	0xbd9fdd14	-0.07805839
2	0x3e55d7c5	0.20883091
3	0x3e9c088e	0.30475277
4	0xbda23bbe	-0.07921551
5	0xbe6ba73b	-0.23013012
6	0x3e1ba9f9	0.15201558
7	0xbe446db4	-0.19182473
8	0x3e3d8006	0.18505868
9	0xbe9c5651	-0.30534604
10	0x3dc6e267	0.097111516
11	0x3eaf6dd8	0.34263492
12	0x3eadce55	0.3394648
13	0x3c2528d6	0.010080537
14	0x3f07fb96	0.53118265
15	0xbe3f1f20	-0.18664217
16	0x3e466472	0.19374254
17	0x3e0e7782	0.13912776
18	0x3e6b5533	0.2298172
19	0xbe715f36	-0.23571476
20	0x3dfbb81c	0.122909755
21	0xbe8b80c7	-0.27246687
22	0xbe5e768b	-0.21724908
23	0x3d932f94	0.07186809
24	0xbe599669	-0.21248783
25	0xbe96712e	-0.29383224
26	0xbe4866d6	-0.19570479
27	0xbe632ecb	-0.22185819
28	0x3ec866c7	0.39140913
29	0xbe96155b	-0.29313168
30	0xbe625e5e	-0.2210631
31	0xbd3e981b	-0.046531778
32	0x3bf32b02	0.0074208984
33	0x3e802255	0.25026193
34	0x3cf0c8a6	0.029392552
35	0x3d9c84d4	0.076425225
36	0xbd5529ff	-0.052042004
37	0xbeabd9c7	-0.33564588
38	0xbdb11109	-0.08645827
39	0x3dd751e7	0.105136685
40	0xbd2703cc	-0.040775105
41	0xbdfd9f41	-0.12383891
42	0xbe8fd7a6	-0.28094214
43	0xbe48625c	-0.19568771
44	0x3e02a528	0.12758315
45	0xbe96b633	-0.29435882
46	0x3e95e5cc	0.29276884
47	0xbec18ff3	-0.37805137
48	0xbd3734fa	-0.044728257
49	0xbe3236a4	-0.17403656
50	0x3d527230	0.05137843
51	0xbe8123d7	-0.25222656
52	0xbe454387	-0.19264041
53	0x3d1ff598	0.039052576
54	0x3e7e0c7f	0.24809454
55	0x3e9d3bd3	0.30709705
56	0x3e2098d4	0.156833
57	0xbdc9228a	-0.09821041
58	0x3e1e292e	0.15445396
59	0xbea26afc	-0.31722248
60	0x3d2c3194	0.04203947
61	0x3d0066ea	0.031348146
62	0x3e2f0907	0.17093287
63	0x3ebc719c	0.36805427
64	0x3ddf2b66	0.108969495
65	0x3dac3b3e	0.08409737
66	0x3d263402	0.040576942
67	0x3e1d69c0	0.15372372
68	0xbd42ad34	-0.04752846
69	0xbe7c81df	-0.24658917
70	0x3e7099d6	0.23496184
71	0xbc9fc03a	-0.01950084
72	0x3e64d3bd	0.22346397
73	0xbc8501f4	-0.016236283
74	0x3c1a4536	0.009415915
75	0xbe0fea9e	-0.14054343
76	0x3ea3de72	0.3200565
77	0x3d8feb35	0.07027284
78	0x3e94a73f	0.2903385
79	0xbe64dc86	-0.22349748
80	0x3c888c6e	0.016668525
81	0x3dd6ffe6	0.104980275
82	0x3e0da378	0.1383189
83	0xbdecd039	-0.11563153
84	0x3e263fa0	0.16235209
85	0xbe6e7789	-0.23287787
86	0xbdf9212e	-0.12164532
87	0xbd608666	-0.054815672
88	0xbe18a63c	-0.14907163
89	0xbdad2d98	-0.08455962
90	0x3c67229f	0.014107375
91	0xbe99767e	-0.29973215
92	0x3ea8ed08	0.3299334
93	0xbe79461e	-0.24343154
94	0xbe49df4d	-0.19714089
95	0xbd399c6f	-0.045315202
96	0xbd5a16bd	-0.05324434
97	0x3e5572f6	0.20844635
98	0x3e298974	0.1655634
99	0xbd99ab2a	-0.0750335
100	0x3d75b960	0.05999124
101	0xbe888153	-0.26661167
102	0xbe50a844	-0.20376688
103	0x3e17b930	0.14816737
104	0x3e6fd39a	0.23420563
105	0xbdec3116	-0.115328
106	0xbe36df93	-0.17858724
107	0xbddb09d7	-0.10695236
108	0xbd9b4e4f	-0.075832956
109	0xbe8f97b7	-0.28045437
110	0xbd69872e	-0.057013683
111	0xbe273813	-0.16329984
112	0x3d12b09a	0.03581295
113	0xbe4d76a3	-0.20064788
114	0x3d7f5a76	0.06234213
115	0xbeb0e0dc	-0.34546554
116	0xbeb92eb9	-0.3616846
117	0x3df2bd6a	0.11852534
118	0x3e1d28a6	0.15347537
119	0x3e1dbf91	0.15405108
120	0x3e1cba7e	0.15305516
121	0xbd8444d9	-0.06458444
122	0x3e17e980	0.14835167
123	0xbe09c244	-0.13453013
124	0xbe40b88f	-0.18820404
125	0x3eac6196	0.33668202
126	0x3c842a31	0.0161334
127	0xbe5efdaa	-0.21776453
128	0xbce3ace0	-0.027792394
129	0x3dce5b96	0.100760624
130	0x3ddad38c	0.106848806
131	0x3e86b176	0.26307267
132	0xbd8ad47d	-0.0677881
133	0xbe927205	-0.28602615
134	0xbdc63935	-0.0967888
135	0xbe729b8a	-0.23692146
136	0x3dd9f579	0.10642523
137	0x3cbb2674	0.022845484
138	0xbd2818ec	-0.041039392
139	0x3e5cfe5f	0.2158141
140	0x3e567cef	0.20946096
141	0xbc909fd6	-0.01765434
142	0x3e3db091	0.18524386
143	0xbcdbb28d	-0.026818538
144	0x3e024882	0.12722972
145	0x3e76e856	0.24112067
146	0x3e89647d	0.2683448
147	0xbe2897a1	-0.16464092
148	0x3d60e1a0	0.054902673
149	0xbe93e789	-0.28887585
150	0x3c522335	0.012825777
151	0xbdb924a8	-0.09040195
152	0x3dd0d3e0	0.10196662
153	0xbe32d52f	-0.17464136
154	0x3c493180	0.012279868
155	0xbe011206	-0.12604532
156	0x3e24e3c4	0.1610251
157	0xbe82adfb	-0.25523362
158	0xbde77b1b	-0.113027774
159	0x3caa8acf	0.020818142
160	0xbd3fbbfb	-0.04681013
161	0x3e1fb60f	0.15596794
162	0xbe0a4b1e	-0.13505217
163	0xbd00b456	-0.03142198
164	0xbd207977	-0.039178338
165	0xbe71ff27	-0.23632489
166	0x3da939cd	0.08262978
167	0x3c70de43	0.014701429
168	0x3e015c1e	0.12632796
169	0x3e3ecfcc	0.18633956
170	0xbe02a14a	-0.1275684
171	0xbe0a4e71	-0.13506486
172	0x3db6a52b	0.08918222
173	0xbe2666c2	-0.16250136
174	0x3e5f516f	0.21808408
175	0xbe8ab034	-0.27087557
176	0x3c0740c9	0.008255192
177	0xbe3c45e6	-0.18386039
178	0x3e31bca5	0.17357118
179	0xbe8c9077	-0.27453968
180	0xbe2e2978	-0.17008007
181	0x3cbd1026	0.02307899
182	0x3dd8a6b4	0.10578671
183	0x3e0b0146	0.13574705
184	0x3b845866	0.004038858
185	0xbe45885a	-0.19290295
186	0x3e041069	0.12896885
187	0xbe2d92d5	-0.16950543
188	0xbba015ac	-0.004885396
189	0xbc96a424	-0.018388815
190	0xbd9a9c98	-0.07549399
191	0x3e745d20	0.2386365
192	0xbdc64393	-0.096808575
193	0x3e176a89	0.14786734
194	0xbd83ff29	-0.06445152
195	0xbcc509e2	-0.024052564
196	0xbe083272	-0.13300493
197	0xbdc6b831	-0.097031005
198	0xbcf99f17	-0.030471368
199	0xbe287290	-0.16449952
200	0x3e0f22b1	0.13978077
201	0xbe47f582	-0.19527248
202	0xbe507b8f	-0.20359634
203	0x3cdf2256	0.027238052
204	0x3d8d884c	0.06910762
205	0x3d66232b	0.056185883
206	0x3e4f900a	0.2026979
207	0xbe171829	-0.1475531
208	0x3e3aa004	0.18225104
209	0x3e2c0ef7	0.16802584
210	0x3cfa7c81	0.030576946
211	0xbd644c46	-0.055736803
212	0x3e3587c8	0.17727578
213	0x3dc6f5e6	0.0971487
214	0xbcd1fa86	-0.025632154
215	0xbd2be8a4	-0.04196991
216	0x3d8d3089	0.06894023
217	0xbe2bab25	-0.16764505
218	0xbd1fbd81	-0.038999084
219	0xbd4fa36d	-0.050692964
220	0x3e5bfe24	0.21483666
221	0xbd828402	-0.06372835
222	0xbd0884e2	-0.033329852
223	0x3e2d8a1e	0.16947219
224	0x3e2a8178	0.16650951
225	0xbce75db9	-0.028242933
226	0x3c8cf9be	0.01720893
227	0xbe28220e	-0.16419241
228	0xbcf0cc9f	-0.029394446
229	0xbe1a99e8	-0.15097773
230	0x3ccab3c3	0.02474392
231	0x3e186a00	0.14884186
232	0xbd115b32	-0.03548736
233	0x3db97622	0.09055735
234	0xbba0afe8	-0.004903782
235	0xbd26ac0d	-0.040691424
236	0xbe1231dd	-0.14276834
237	0xbc0437e4	-0.008069966
238	0x3e60adf7	0.21941362
239	0xbdabbea1	-0.08385969
240	0x3e03fa42	0.12888435
241	0x3cdacdbe	0.026709434
242	0x3dc1aa37	0.09456294
243	0xbd9b8aad	-0.0759481
244	0xbdc1cc9e	-0.09462856
245	0xbdd0da84	-0.101979285
246	0x3e03ce3f	0.12871645
247	0x3e585bbe	0.21128747
248	0x3d85335f	0.06503939
249	0x3d8f98e8	0.070115864
250	0x3de593db	0.11209842
251	0x3cbe7abe	0.023251887
252	0xbd514b66	-0.051097296
253	0xbdbbf6bd	-0.09177921
254	0x3d107e18	0.035276502
255	0xbc18f852	-0.009336548

lstm.bias_ih_l0 f4 [256]
0	0x3caa650d	0.020800138
1	0x3ded1dff	0.11577987
2	0x3df24cc4	0.11831048
3	0x3cb89486	0.022531759
4	0x3cb8c00c	0.022552513
5	0x3dd6443e	0.10462235
6	0x3dbaacf8	0.091150224
7	0x3dee2c83	0.11629584
8	0xbd93fb26	-0.07225637
9	0xbd5ceb70	-0.05393547
10	0x3da04f5c	0.078276366
11	0x3de49e26	0.11162977
12	0x3d191670	0.037374914
13	0xbd1f7863	-0.03893317
14	0x3dab5922	0.0836661
15	0xbd6530b6	-0.055954657
16	0xbd58f688	-0.052969486
17	0xbdade272	-0.08490457
18	0x3d208466	0.039188765
19	0xbdb2a802	-0.08723451
20	0xbbf12204	-0.0073587913
21	0xbd9ae17f	-0.07562541
22	0xbd73ceab	-0.059523266
23	0xbd957cc6	-0.07299189
24	0xbc68fc6e	-0.01422034
25	0xbc994726	-0.018710684
26	0x3d22b23e	0.039720766
27	0xbd9ec481	-0.07752324
28	0xbda18182	-0.0788603
29	0x3d614b28	0.055003315
30	0xbd8ed576	-0.06974308
31	0xbc871b20	-0.016492426
32	0x3cefbca2	0.029264752
33	0x3ca2948b	0.019846221
34	0xbcd9dc00	-0.026594162
35	0xbc2a3ecc	-0.0103909485
36	0xbd1dd39a	-0.038531877
37	0xbdfa4d4f	-0.12221777
38	0x3dbf30b6	0.09335463
39	0xbcdb7448	-0.026788846
40	0xbd8724e0	-0.0659883
41	0xbd84b766	-0.06480293
42	0x3e011136	0.12604222
43	0x3dd4b04c	0.103851885
44	0x3dd91e10	0.10601437
45	0xbdf0e74a	-0.11762865
46	0xbd5830ea	-0.052781023
47	0xbde5c231	-0.1121868
48	0x3ba5aac6	0.005055758
49	0x3d12ec26	0.03586974
50	0xbd8f741e	-0.070045695
51	0xbc52bc85	-0.012862329
52	0xbda11034	-0.078644186
53	0x3e05ecda	0.13078633
54	0x3da7d08e	0.081940755
55	0xbd09a338	-0.033602923
56	0x3d31d982	0.043420322
57	0x3dc54853	0.096329354
58	0xbdeba745	-0.115065135
59	0x3dfa2d4c	0.12215671
60	0xbde61fe8	-0.112365544
61	0xbc8228f8	-0.015888676
62	0x3de1f14c	0.11032352
63	0xbc08fa02	-0.008360388
64	0x3d9851fb	0.074375115
65	0xbd887466	-0.06662826
66	0x3dba5f5a	0.09100218
67	0xbd23ad35	-0.039960105
68	0xbd615a06	-0.055017494
69	0x3c4c5b68	0.012472965
70	0xbc51295f	-0.012766211
71	0xbd1de506	-0.038548492
72	0xbd794f89	-0.060866866
73	0x3dc17f2c	0.09448084
74	0xbd0c94a4	-0.034321442
75	0xbcefd9ca	-0.029278655
76	0xbdcbf08c	-0.0995799
77	0x3dd7f0c6	0.10543971
78	0xbe082fe8	-0.13299525
79	0x3dc1b8c6	0.09459071
80	0xbd2f5798	-0.042808145
81	0xbd9b1a20	-0.07573342
82	0xbd3e61fe	-0.04648017
83	0xbdbaeefe	-0.091276154
84	0xbcbf96b8	-0.023387298
85	0x3dbbf294	0.091771275
86	0x3cdb185c	0.026745014
87	0x3dd2138e	0.10257636
88	0x3c42f106	0.011898285
89	0x3df4ff06	0.11962704
90	0xbd2f09a8	-0.04273382
91	0xbdd72aea	-0.10506232
92	0x3d92ab9c	0.07161638
93	0xbd023fbf	-0.031799074
94	0x3d914c6a	0.07094653
95	0x3dbaedf2	0.09127416
96	0x3ce3da7b	0.02781414
97	0xbd0bac5a	-0.034099914
98	0x3dc8d74c	0.098066896
99	0x3c8565a7	0.016283823
100	0x3d92a3e5	0.07160167
101	0xbdad458c	-0.08460531
102	0x3c048a95	0.008089681
103	0x3b6a85a4	0.0035785222
104	0xbd89ff7a	-0.067381814
105	0xbda513d5	-0.08060423
106	0x3d271fae	0.040801696
107	0x3de68c0a	0.11257179
108	0x3daa79ba	0.08323999
109	0x3df73984	0.12071517
110	0x3dcfb2da	0.10141535
111	0xbd413b32	-0.047175594
112	0x3d82d5fa	0.06388469
113	0xbde85bf4	-0.11345664
114	0xbd108ef4	-0.03529258
115	0xbd991aa8	-0.074757874
116	0xbd8c8d58	-0.06862897
117	0xbdfebca2	-0.124383226
118	0x3da4c5aa	0.08045514
119	0xbd818ba0	-0.063254595
120	0xbdde2c6c	-0.108483166
121	0xbd28386e	-0.04106944
122	0x3dd84f9b	0.105620585
123	0xbc98112b	-0.018562874
124	0x3cb8e150	0.022568375
125	0x3d87e217	0.0663492
126	0x3c3e87cc	0.011629056
127	0xbdb16ac1	-0.0866294
128	0x3def118f	0.11673271
129	0x3d1d083a	0.038337924
130	0x3df5e834	0.1200718
131	0x3d933d46	0.07189421
132	0xbd3ae3ff	-0.04562759
133	0x3d4b89f3	0.049692106
134	0x3d15a477	0.0365338
135	0xbc2bbd19	-0.010482096
136	0x3df52490	0.11969864
137	0xbbdb23de	-0.0066876253
138	0xbd1fb40d	-0.03899007
139	0x3d28aac2	0.041178472
140	0xbc1a5a57	-0.009420953
141	0x3dfc65aa	0.123240784
142	0x3dfc8d8e	0.12331687
143	0x3d6d4ce4	0.057934657
144	0x3dd83b73	0.10558214
145	0x3c08fc54	0.008360941
146	0x3df531ce	0.1197239
147	0x3dc4adad	0.096034385
148	0x3dcdbd5a	0.100458816
149	0x3cfcf100	0.030876637
150	0xbdad5a62	-0.08464505
151	0x3d6553c7	0.0559881
152	0x3cfee9b6	0.031117301
153	0x3dadfbc2	0.084952846
154	0xbda87501	-0.08225442
155	0xbdc29f14	-0.09502998
156	0x3d9b80f3	0.075929545
157	0xbc761d96	-0.015021702
158	0x3d4ecc74	0.05048795
159	0xbcdd3756	-0.027003925
160	0x3d6ac9de	0.05732142
161	0xbd6eb032	-0.0582735
162	0xbd82ce82	-0.063870445
163	0xbd8e929d	-0.06961558
164	0xbca545f4	-0.020174958
165	0xbded34ec	-0.1158236
166	0xbdf3e473	-0.119088076
167	0x3d86917a	0.06570716
168	0xbd8faf3e	-0.07015847
169	0xbdc23492	-0.09482683
170	0xbdce122e	-0.10062061
171	0x3d236ba1	0.039897565
172	0xbdca851e	-0.09888671
173	0xbdde9b10	-0.108694196
174	0x3d596f30	0.053084552
175	0xbde36e8a	-0.11105068
176	0xbde9bfc4	-0.114135295
177	0xbc9cb2be	-0.0191282
178	0xbc89266d	-0.016741956
179	0xbd66442c	-0.056217358
180	0x3c13ab2a	0.009012977
181	0xbd0f9ceb	-0.035061758
182	0x3da24bc2	0.07924606
183	0xbd71ae50	-0.059004128
184	0x3d432670	0.04764408
185	0xbcfe3c12	-0.031034503
186	0x3d690c16	0.05689629
187	0xbda7db38	-0.081961095
188	0xbd974bca	-0.073875025
189	0xbca13eec	-0.019683324
190	0x3d82d6e7	0.063886456
191	0x3d2979bd	0.041375864
192	0xbc00ec72	-0.007868873
193	0x3d5591e0	0.05214107
194	0x3d53c91e	0.051705472
195	0xbc09eafe	-0.008417843
196	0xbd834ec4	-0.06411508
197	0xbd19b9de	-0.037530772
198	0xbdba3222	-0.09091593
199	0xbdfcdbc2	-0.12346603
200	0x3dec6484	0.11542609
201	0xbdabf5a5	-0.08396462
202	0xbcfb35fc	-0.03066539
203	0x3deff2b0	0.11716211
204	0xbdd2b858	-0.10289067
205	0xbd6a6994	-0.057229593
206	0xbd673090	-0.056442797
207	0xbd9954c1	-0.07486869
208	0xbccfe3f0	-0.025377244
209	0xbc8220ca	-0.015884776
210	0x3d9923b2	0.074775115
211	0x3bedbd86	0.007255259
212	0x3d6f0cba	0.058361746
213	0x3c7b828d	0.01535095
214	0x3b92c722	0.004479305
215	0x3dc6aff5	0.0970153
216	0xbd1cc261	-0.03827131
217	0xbe008c84	-0.12553602
218	0xbdf00e34	-0.11721459
219	0xbdcf3e32	-0.10119285
220	0xbb69db8f	-0.0035683846
221	0x3d45cca4	0.048290864
222	0x3d30bc1e	0.043148153
223	0xbcca5cac	-0.024702393
224	0x3dd1c728	0.10243064
225	0xbdc84ec8	-0.09780651
226	0x3d5be62a	0.0536863
227	0x3db14f5a	0.08657713
228	0xbd2534a6	-0.040333413
229	0xbb2261a4	-0.0024777437
230	0xbdb324f4	-0.087472826
231	0xbdac76f4	-0.08421126
232	0x3d9f25fd	0.077709176
233	0xbc567012	-0.013088243
234	0xbb068fb9	-0.0020532443
235	0x3bd5400e	0.00650788
236	0x3d8cc08a	0.068726614
237	0xbc5333b4	-0.012890745
238	0xbd3e2e4d	-0.046430875
239	0xbdeb6c5c	-0.11495277
240	0x3dcefe12	0.10107054
241	0xbd3bf5d2	-0.04588873
242	0x3da488c4	0.080338985
243	0x3db21621	0.08695627
244	0xbd9f04d8	-0.07764596
245	0xbd853995	-0.065051235
246	0x3dfb4a9d	0.12270091
247	0x3d732b6e	0.05936759
248	0xbdab9a24	-0.08379009
249	0xbca1d7ae	-0.019756164
250	0xbcc9f427	-0.024652554
251	0xbdfbcca7	-0.12294894
252	0xbddecf38	-0.108793676
253	0x3c9f1d97	0.01942329
254	0xbd12cdaa	-0.035840668
255	0x3bb6bc44	0.005576642

lstm.bias_hh_l0 f4 [256]
0	0xbdc46590	-0.09589684
1	0xbd3f0118	-0.046631902
2	0x3d9bc92e	0.07606731
3	0x3c2dd0d1	0.010608868
4	0x3d4872e3	0.04893769
5	0x3e0532ef	0.13007711
6	0x3d248f88	0.040175945
7	0x3cd7407e	0.02627587
8	0x3dacfe98	0.084469974
9	0x3dbcc67c	0.092175454
10	0x3dc7dc4c	0.09758815
11	0x3cd4b84e	0.02596679
12	0xbd9b2917	-0.07576197
13	0x3d412bf8	0.047161072
14	0xbd9cc3e0	-0.07654548
15	0xbdc5221a	-0.09625645
16	0xbd821d9f	-0.06353306
17	0x3d209a72	0.03920979
18	0xbd796b37	-0.060893264
19	0x3d4f9866	0.050682448
20	0xbc30ff00	-0.010802984
21	0xbd5d9241	-0.054094557
22	0xbda3791d	-0.07982085
23	0xbd83a2cc	-0.064275354
24	0xbde3a8f6	-0.11116211
25	0x3ca4e002	0.020126346
26	0x3d9b6c87	0.07589059
27	0x3dcc00e4	0.099611074
28	0x3dd6ca98	0.104878604
29	0xbdda5284	-0.1066027
30	0xbdca87c8	-0.098891795
31	0x3de78414	0.11304489
32	0xbd2601aa	-0.04052893
33	0xbd5e274c	-0.054236695
34	0xbd1d590f	-0.03841501
35	0x3d91bd2c	0.0711616
36	0xbdbd5b4b	-0.092459284
37	0xbd9758b0	-0.07389963
38	0x3d32c082	0.04364062
39	0xbd18bc93	-0.037289213
40	0xbd786815	-0.060646135
41	0xbab0a8f2	-0.0013478084
42	0x3de3b8ed	0.11119256
43	0x3dc46735	0.09589998
44	0xbd225ef4	-0.039641336
45	0x3d9d0e73	0.076687716
46	0x3cb919ae	0.022595253
47	0x3ca5a1ba	0.020218719
48	0x3de6b1f4	0.112644106
49	0xbdb5723c	-0.08859679
50	0xbd7d0ea2	-0.061781533
51	0xbcef78a2	-0.029232327
52	0xbc8c1963	-0.01710195
53	0xbcac931e	-0.021066245
54	0x3da4c7d6	0.08045928
55	0xbd334b6c	-0.0437731
56	0xbdbc296f	-0.0918759
57	0xbdb23f6a	-0.087035015
58	0x3dfd8f52	0.12380852
59	0xbddde60f	-0.10834896
60	0x3d2e3720	0.04253304
61	0x3d116c4e	0.035503678
62	0xbc217b1c	-0.009856012
63	0x3df107f0	0.11769092
64	0x3c578202	0.013153555
65	0x3de09bde	0.10967229
66	0xbddb12ea	-0.10696967
67	0x3dc918ea	0.09819205
68	0x3e02c042	0.12768653
69	0x3d4159fc	0.047204956
70	0x3dd3fd7d	0.103510834
71	0xbd7c0367	-0.061526682
72	0xbd0a3d8b	-0.0337501
73	0x3ddd3ea4	0.108029634
74	0x3d85590b	0.06511124
75	0xbdda8576	-0.10669987
76	0x3d284701	0.04108334
77	0x3d120f77	0.03565928
78	0x3d57faca	0.052729405
79	0xbcf79400	-0.03022194
80	0xbd8e1f4c	-0.06939563
81	0x3dd73422	0.105079904
82	0x3ddc627c	0.10760972
83	0xbd58cae4	-0.052927867
84	0xbd2a63f0	-0.041599214
85	0x3dbbc03e	0.09167527
86	0xbdafffea	-0.085937336
87	0x3d5e39e8	0.054254442
88	0x3dc3d91e	0.09562896
89	0xbc269c10	-0.010169044
90	0xbd6d91b3	-0.058000278
91	0x3d57bf8a	0.0526729
92	0x3d4686a2	0.04846824
93	0x3da9f925	0.08299474
94	0x3de47e83	0.11156943
95	0x3db17470	0.08664787
96	0x3d4d73c4	0.05015923
97	0xbdc36da9	-0.095424004
98	0x3d8f023e	0.069828495
99	0x3deb8982	0.11500837
100	0xbdfad094	-0.12246814
101	0x3df130b4	0.117768675
102	0xbdbb9193	-0.091586255
103	0xbd62a3c6	-0.055331968
104	0x3d72add2	0.0592478
105	0x3d9ee958	0.077593505
106	0xbd6baebe	-0.057539694
107	0x3d8be103	0.06830027
108	0xbdee7e56	-0.116451904
109	0xbc847ac2	-0.016171817
110	0xbd3e00a8	-0.046387345
111	0x3d81d199	0.06338806
112	0x3dcb0162	0.09912373
113	0xbdc2db38	-0.09514469
114	0x3d138c71	0.036022607
115	0xbdf2b4b2	-0.11850871
116	0xbd8dc59c	-0.069224566
117	0xbdd48e1c	-0.10378668
118	0x3d93d5ac	0.07218489
119	0xbdc4e82c	-0.09614596
120	0x3dcde72e	0.1005386
121	0xbdb722ea	-0.08942206
122	0x3cc3f37c	0.023919813
123	0xbdec761a	-0.115459636
124	0x3dc48ce0	0.09597182
125	0x3d9d6945	0.07686094
126	0xbddb52f6	-0.10709183
127	0x3cebd25f	0.028786836
128	0xbdf80b5e	-0.12111543
129	0x3de65eae	0.112485275
130	0x3d471947	0.04860809
131	0xb9c79ca3	-0.0003807294
132	0x3b57e648	0.0032943655
133	0x3d8217d8	0.06352204
134	0x3c1de317	0.009636662
135	0xbd31dd34	-0.043423846
136	0xbdbad151	-0.09121955
137	0x3e030bcb	0.12797467
138	0xbdf04d6a	-0.117335156
139	0x3b7e285a	0.0038781376
140	0x3dd72d1c	0.10506651
141	0xbdd2d386	-0.10294251
142	0x3cc0cd52	0.023535404
143	0x3b4905ec	0.0030673696
144	0x3dbd369c	0.092389315
145	0xbdf26aba	-0.11836763
146	0xbd2b4088	-0.04180959
147	0xbdc1004c	-0.09423885
148	0x3db83a60	0.08995509
149	0xbc7da3ee	-0.015480978
150	0xbd2035b6	-0.039113723
151	0x3c750682	0.014955165
152	0xbca36f02	-0.019950394
153	0xbd436486	-0.04770329
154	0x3dd4fb34	0.10399476
155	0x3d2de070	0.04245037
156	0x3d61ec8c	0.05515723
157	0xbdfc7a7a	-0.12328048
158	0x3d7c79e0	0.061639667
159	0x3d47fdf4	0.048826173
160	0x3de7a410	0.11310589
161	0x3de8961a	0.113567546
162	0xbd5ea23a	-0.05435393
163	0xbc86e6e9	-0.016467528
164	0xbd518a8d	-0.051157523
165	0xbde9d274	-0.11417094
166	0xbdbe6764	-0.09297064
167	0x3d8bc609	0.068248816
168	0x3dfa3a44	0.122181445
169	0xbc33e33e	-0.010979472
170	0xbdef4944	-0.11683896
171	0xbd8a04be	-0.06739186
172	0xbdad78f8	-0.084703386
173	0xbd88f3fd	-0.06687162
174	0x3da6f281	0.08151723
175	0x3ba7cf63	0.005121158
176	0x3d15023f	0.036379095
177	0xbd28f968	-0.041253477
178	0xbb32ed7e	-0.00273022
179	0xbdcf18a2	-0.1011212
180	0x3de2ed30	0.11080396
181	0x3d604dab	0.05476157
182	0x3da5caec	0.08095345
183	0x3df2642f	0.11835515
184	0x3da10fce	0.07864343
185	0x3d32317e	0.04350423
186	0xbc697e88	-0.014251359
187	0xbc254f20	-0.010089666
188	0xbdc85482	-0.097817436
189	0x3cd6ff3c	0.026244752
190	0x3d85e21d	0.06537268
191	0xbdfb8352	-0.12280907
192	0xbdb1a196	-0.08673398
193	0x3d68f0a2	0.05687011
194	0xbd74cbc0	-0.059764624
195	0x3dbbe7fe	0.091751084
196	0x3b8258cb	0.00397787
197	0xbd0e568e	-0.034750514
198	0xbda3614f	-0.079775445
199	0xbd87aee2	-0.06625153
200	0x3d012547	0.03152969
201	0xbdf0e1ba	-0.11761804
202	0x3c1968ba	0.009363348
203	0x3db499a8	0.0881837
204	0xbd760410	-0.060062468
205	0xbd8ef049	-0.069794245
206	0xbdef8ff9	-0.116973825
207	0xbd647fa6	-0.055785798
208	0xbdbc21ea	-0.09186156
209	0xbc618146	-0.013763731
210	0x3d83a18e	0.064272985
211	0x3dd19824	0.10234097
212	0xbc86bf1d	-0.016448552
213	0xbdcc118c	-0.09964284
214	0x3bff8700	0.0077980757
215	0xbdb51b69	-0.08843119
216	0x3de789fb	0.113056146
217	0x3dce57a6	0.10075311
218	0x3c977aad	0.018491114
219	0xbd978116	-0.07397668
220	0x3d85be45	0.06530432
221	0xbd9b07f0	-0.07569873
222	0x3d17877a	0.036994435
223	0xbd8c2ee9	-0.06844885
224	0xbcafeccb	-0.021475216
225	0xbd2c3131	-0.0420391
226	0xbcb7340c	-0.022363685
227	0x3dfccb90	0.12343514
228	0x39a36410	0.00031164335
229	0x3bfcc9f0	0.0077145025
230	0x3dc95a77	0.09831708
231	0xbc1da881	-0.009622694
232	0xbdd55f4f	-0.10418569
233	0x3de13bfb	0.109977685
234	0xbda5b9c9	-0.08092076
235	0xbb01dfdc	-0.0019817268
236	0x3da87c54	0.08226839
237	0x3d412800	0.047157288
238	0xbdaaf53c	-0.08347556
239	0xbdd11ea2	-0.10210921
240	0x3c26237a	0.010140294
241	0x3d149eb4	0.036284164
242	0x3d88e0f6	0.06683533
243	0x3c7e24a8	0.015511669
244	0x3dbd4365	0.0924137
245	0x3dd8b434	0.10581246
246	0xbdebc5ea	-0.115123585
247	0x3deca36c	0.11554608
248	0xbdfadb36	-0.122488424
249	0xbd954b7c	-0.07289788
250	0xbdc5b036	-0.0965275
251	0xbde58774	-0.11207476
252	0xbccfbc6a	-0.025358398
253	0x3cf61202	0.030037884
254	0xbd812bc4	-0.06307176
255	0x3ccef40e	0.025262859

fc.weight f4 [1, 64]
0	0xbeae7752	-0.3407541
1	0xbf0d9f01	-0.55320746
2	0xbed97e42	-0.4247914
3	0xbe5276e7	-0.2055317
4	0xbf16bb9e	-0.5888003
5	0xbec72894	-0.38898146
6	0xbe6c852e	-0.23097679
7	0x3e810775	0.25201002
8	0xbe170128	-0.14746535
9	0x3e9023f0	0.28152418
10	0xbf0b274b	-0.5435683
11	0xbf00be15	-0.5029004
12	0xbe163156	-0.14667258
13	0xbe2b06b6	-0.16701779
14	0xbe3768fe	-0.17911145
15	0x3efecccb	0.4976562
16	0x3f2092eb	0.6272418
17	0xbd6a3442	-0.057178743
18	0x3eb7e5b7	0.35917446
19	0x3e9400f2	0.2890697
20	0x3f10f61b	0.5662553
21	0x3ec6af19	0.38805464
22	0x3e218fa6	0.15777454
23	0xbea41502	-0.32047278
24	0x3ea93842	0.33050734
25	0x3edcfa12	0.43159539
26	0x3f2ee0db	0.6831185
27	0x3eded5ae	0.435224
28	0x3abee315	0.0014563525
29	0xbdeaa95e	-0.114580855
30	0x3e82668b	0.2546886
31	0x3eafc786	0.34331912
32	0x3e01df80	0.12682915
33	0xbeb23a76	-0.34810227
34	0xbe7a781b	-0.24459879
35	0xbf31652e	-0.6929501
36	0x3f0139f6	0.50479066
37	0xbe1270a2	-0.14300779
38	0x3e2d3ca3	0.16917662
39	0x3ee7cefb	0.452751
40	0x3ea745cf	0.32670447
41	0x3e9319dc	0.28730667
42	0x3e218ebd	0.15777107
43	0x3e4a2e39	0.19744195
44	0xbec4e851	-0.38458493
45	0xbd6e08ed	-0.05811398
46	0x3ef6d33c	0.48208034
47	0x3da73b33	0.08165588
48	0x3e400466	0.18751678
49	0x3e964737	0.29351208
50	0x3e996055	0.29956308
51	0xbeb95ef1	-0.36205247
52	0xbcd10dd7	-0.025519295
53	0x3ece2fe1	0.40270904
54	0xbe25d7c7	-0.16195594
55	0x3d8d076e	0.06886183
56	0xbe6dcf7c	-0.2322368
57	0xbef59c06	-0.479706
58	0xbe3fdcdb	-0.18736593
59	0x3e8fedcd	0.28111115
60	0x3e7c58b5	0.24643214
61	0xbc9b090d	-0.018925214
62	0xbebb7fab	-0.3662084
63	0x3ea9e591	0.33182958
