model/fl_checkpoints/global_round_1.pt (torch, 196820 bytes, 7 tensors)

conv1.weight f4 [64, 78, 3]
0	0x3d7696d6	0.060202442
1	0x3d5c73ec	0.05382149
2	0xbc2f1639	-0.010686451
3	0x3d6b78d3	0.057488274
4	0xbc6ae88a	-0.014337668
5	0x3c8cb4f7	0.017176135
6	0xbcee2688	-0.029071108
7	0x3d1a788f	0.03771263
8	0x3d5a61e1	0.053316
9	0xbd3abcaf	-0.0455901
10	0x3d6ef090	0.058334887
11	0x3bcefa0d	0.0063164295
12	0x3d575512	0.052571364
13	0x3c18dcde	0.009330003
14	0x3ce50430	0.027956098
15	0xbbca65c0	-0.0061766803
16	0x3d591ed4	0.053007916
17	0x3c0c4fc8	0.008563943
18	0xbcfb2c56	-0.03066079
19	0x3c80b2da	0.015710283
20	0xbd0872d0	-0.03331262
21	0xbc0588a2	-0.008150252
22	0xbc80e6ea	-0.015735108
23	0x3d5ff508	0.05467704
24	0xbd4db4dc	-0.05022131
25	0xbcf3bdbe	-0.029753562
26	0xbc8f7ea4	-0.017516442
27	0xbd227e00	-0.039670944
28	0x3b540cd4	0.003235628
29	0xbd87c80b	-0.06629952
30	0x3d81a1a3	0.06329658
31	0xbd56440e	-0.052310996
32	0x3d55c968	0.05219403
33	0x3c1f7d63	0.009734484
34	0xbc85de24	-0.016341276
35	0x3d549e19	0.051908586
36	0x3c7ac79a	0.015306378
37	0x3d65a7a3	0.056068074
38	0x3c669379	0.014073246
39	0xbc889fa2	-0.016677681
40	0x3ca47305	0.020074377
41	0xbc75b1b8	-0.014995985
42	0x3d0cf5df	0.03441417
43	0x3d8a8a4c	0.06764659
44	0x3d354b19	0.04426107
45	0xbcc39591	-0.02387503
46	0x3d37656e	0.044774465
47	0x3c39c3e4	0.011338208
48	0x3d036e2b	0.032087486
49	0xbd14daf0	-0.036341608
50	0xbd69370c	-0.056937262
51	0xbcd60449	-0.02612509
52	0xbd50e0d8	-0.050995678
53	0x3d7b41e6	0.061342143
54	0x3c8736fa	0.016505707
55	0x3ce713d0	0.02820769
56	0x3ce27cfc	0.027647488
57	0xba878439	-0.0010339088
58	0x3d6df804	0.058097854
59	0xbd278b90	-0.04090458
60	0x3ac937fd	0.0015351769
61	0xbd372344	-0.044711366
62	0x3cca993b	0.02473127
63	0xbcbfb962	-0.023403827
64	0x3cb99acd	0.022656823
65	0xbbcc1406	-0.006227973
66	0x3d5daaee	0.05411809
67	0xbd246db1	-0.040143672
68	0xbd024d50	-0.031812012
69	0xbd28ed80	-0.041242123
70	0x3d74668c	0.05966811
71	0x3ceafbcc	0.02868452
72	0x3d849f1c	0.0647566
73	0xbd453e7c	-0.048155293
74	0xbd78e2b2	-0.06076307
75	0xbd5bdd4f	-0.053677853
76	0xbd3e368f	-0.04643875
77	0x3cf3f5a6	0.02978022
78	0x3cc9efb4	0.024650432
79	0x3d596fbe	0.05308508
80	0xbcc577da	-0.024105001
81	0xbd3c2bc2	-0.04594017
82	0x3d043524	0.03227724
83	0xbca8129a	-0.020516682
84	0x3d1af66a	0.037832655
85	0xbc8fb10e	-0.017540481
86	0x3d348502	0.04407216
87	0xbd41d7af	-0.047324833
88	0xbcfcbe02	-0.030852322
89	0x3ce348fe	0.027744766
90	0x3c4d0ab6	0.012514761
91	0xbcc7849d	-0.024355227
92	0x3d21c01c	0.03948985
93	0x3d360742	0.044440515
94	0xbd422cdc	-0.047406062
95	0xbd0ef35c	-0.034900054
96	0x3d83003b	0.06396528
97	0xbc96e6c4	-0.018420584
98	0xbc9d01f5	-0.019165972
99	0xbd818b1f	-0.06325363
100	0xbd195725	-0.037436623
101	0x3c85c6dc	0.016330175
102	0xbc5070c8	-0.012722202
103	0xbd51570e	-0.051108412
104	0xbb2b7ebb	-0.0026168067
105	0xbd45aca9	-0.048260365
106	0xbd72207c	-0.05911301
107	0xbd2ba765	-0.041907687
108	0xbd4d267a	-0.050085522
109	0xbd0b82d2	-0.034060307
110	0x3d833ef3	0.06408491
111	0x3c2bd9d2	0.010488944
112	0x3ce5977c	0.028026335
113	0xbd7839c0	-0.06060195
114	0xbd347e94	-0.044066027
115	0xbc4323ae	-0.011910362
116	0x3ca81b24	0.020520754
117	0xbd5a5d72	-0.053311773
118	0xbce04ee4	-0.027381368
119	0xbd1870b6	-0.037216865
120	0x3ba82f2b	0.005132576
121	0xbcc8e7ae	-0.024524536
122	0x3ad28d78	0.001606389
123	0xbd239a18	-0.039941877
124	0xbd33f7e0	-0.043937564
125	0xbd0f9600	-0.03505516
126	0xbc87a4a6	-0.016558003
127	0xbd49a11a	-0.049225904
128	0x3d6f39b6	0.058404647
129	0xbb103236	-0.0022002584
130	0x3d6a303d	0.05717491
131	0x3cebcd8b	0.028784534
132	0xbd6816a8	-0.05666223
133	0x3d19cfd2	0.03755171
134	0xbc8f0f00	-0.017463207
135	0xbcabc8f4	-0.020969845
136	0xbd4f5c6f	-0.05062526
137	0xbd79c6ee	-0.06098073
138	0x3c9d39de	0.019192632
139	0xbc6fb126	-0.014629638
140	0x3cadd9e7	0.021222068
141	0xbd6892f4	-0.05678077
142	0x3d3832fc	0.044970497
143	0xbd5fb6b7	-0.05461761
144	0xbc0761d1	-0.008263067
145	0x3cbcefb2	0.023063514
146	0x3d1b4c56	0.037914596
147	0x3d68fd3c	0.056882128
148	0x3d816968	0.06318933
149	0xbd43e49d	-0.047825444
150	0x3ca845b4	0.02054105
151	0xbcc88a6a	-0.024480063
152	0xbb4eb6c5	-0.0031542045
153	0xbd33fdf2	-0.043943353
154	0x3d98a816	0.07453935
155	0xbd40ad03	-0.047039997
156	0x3d222ceb	0.03959362
157	0x3cbc31f2	0.022973035
158	0x3ce3bc07	0.02779962
159	0xbd0b1b71	-0.033961717
160	0x3d74f4ae	0.059803657
161	0x3c7ad08a	0.015308509
162	0x3c5da2b0	0.013527557
163	0xbd5ea822	-0.054359563
164	0x3d0cc6be	0.034369223
165	0xbc63bfb8	-0.01390069
166	0xbd09a4a6	-0.033604287
167	0x3d54fee0	0.05200088
168	0x3c6eca61	0.014574618
169	0xbd1425bf	-0.03616881
170	0xbd078696	-0.033087336
171	0xbb4c989a	-0.0031218887
172	0x3d15824d	0.036501218
173	0xbc88d870	-0.016704768
174	0xbd18c782	-0.03729964
175	0xbcb7633e	-0.02238619
176	0xbd480a26	-0.048837803
177	0x3cbefc90	0.02331379
178	0x3d4f4290	0.05060059
179	0xbd7c156e	-0.061543874
180	0x3c78c0dd	0.015182701
181	0x3d0a531a	0.033770658
182	0x3c4236bd	0.011853871
183	0xbcbeb6f2	-0.023280594
184	0x3d0bc1db	0.03412042
185	0x3d0cb6a5	0.03435387
186	0x3cded280	0.027199984
187	0xbc4755fd	-0.012166497
188	0xbcb12270	-0.021622866
189	0x3c389b04	0.011267427
190	0xbc3565b2	-0.011071609
191	0xbcbccc0e	-0.02304652
192	0x3d34dbcc	0.044154927
193	0x3d6c5108	0.057694465
194	0xbc4b0054	-0.012390215
195	0xbc3dc5fa	-0.011582846
196	0x3b69c52f	0.003567051
197	0xbba3e882	-0.0050020823
198	0x3c8eacf7	0.01741646
199	0x3c983f7d	0.018584961
200	0xbd85e01a	-0.065368846
201	0xbc85c9de	-0.01633161
202	0x3d6bf7d9	0.057609413
203	0x3cb66488	0.022264734
204	0x3b52bbfc	0.0032155504
205	0xbd22c943	-0.03974272
206	0xbd3a6846	-0.0455096
207	0xbd8054f7	-0.06266206
208	0xbccc45b0	-0.024935573
209	0x3c93c7fe	0.0180397
210	0x3d3a3326	0.045458935
211	0x3cf8d812	0.030376468
212	0xbd5f9f51	-0.054595295
213	0xbd0e833a	-0.034793116
214	0xbc22b564	-0.009930942
215	0x3d8aafd1	0.067718156
216	0x3c55226c	0.013008695
217	0xbc8858b8	-0.016643867
218	0x3cffd9aa	0.03123172
219	0xbcb6cd12	-0.022314582
220	0xbd2de0d3	-0.042450737
221	0x3d48d5ef	0.049032148
222	0xbcfb3712	-0.030665908
223	0xbc47758a	-0.01217402
224	0xbd6a9032	-0.05726642
225	0x3d479346	0.048724435
226	0x3d4c4dc0	0.049878836
227	0x3ce63257	0.028100176
228	0xbd3d9854	-0.04628785
229	0xbd830ca7	-0.063988976
230	0xbd392870	-0.04520458
231	0x3d431e54	0.047636345
232	0x3d066c13	0.03281791
233	0x3d8077cc	0.062728494
234	0x3cee64ff	0.029100893
235	0x3c52c790	0.012864962
236	0xbbbccfe4	-0.005762087
237	0xbd529a50	-0.051416695
238	0xbd8048d2	-0.06263889
239	0xbd77c3ba	-0.060489394
240	0x3ccb7f4e	0.024840977
241	0xbd24ee52	-0.040266342
242	0xbc9cbf87	-0.019134296
243	0xbd2d453f	-0.042302366
244	0xbcca3835	-0.024685005
245	0xbd64147f	-0.05568361
246	0xbd3cf9ea	-0.046136774
247	0x3c994ccd	0.01871338
248	0xbc9cbcb3	-0.019132948
249	0x3d1497bb	0.036277514
250	0xbcc031e4	-0.02346129
251	0xbd6d16d0	-0.057883084
252	0xbc848384	-0.016175993
253	0xbd09333d	-0.03349613
254	0xbcb5ffba	-0.022216666
255	0xbd70b7b9	-0.05876896

conv1.bias f4 [64]
0	0xbc7198e9	-0.014745929
1	0xbd002903	-0.03128911
2	0x3d02cbd0	0.031932652
3	0x3d4cbfea	0.04998771
4	0x3d8723b4	0.06598607
5	0x3d4648a8	0.048409134
6	0x3d068879	0.032844994
7	0xbb539dbf	-0.003229007
8	0xbd037aa4	-0.03209938
9	0x3cc1f3e9	0.023675876
10	0x3d312482	0.043247707
11	0x3c12f0d0	0.008968547
12	0xb996c520	-0.000287571
13	0x3b778686	0.0037769391
14	0xbd632c15	-0.05546196
15	0xba24498c	-0.0006267063
16	0x3c8aed8a	0.01695897
17	0x3d782460	0.060581565
18	0x3cb67d6e	0.022276606
19	0x3d86064f	0.06544172
20	0xbacaffd2	-0.0015487617
21	0x3d4d6018	0.05014047
22	0xbd10cd78	-0.0353522
23	0x3c5bb70c	0.013410341
24	0x3d8262ec	0.06366524
25	0x3c8e00e6	0.017334413
26	0xbd10bc4d	-0.035335828
27	0x3ce209ae	0.027592506
28	0xbd84552e	-0.06461559
29	0x3cd999ce	0.026562598
30	0xbd15eb1e	-0.03660118
31	0x3d422c84	0.047405735
32	0x3bfcc5d6	0.0077140136
33	0x3cc24673	0.023715233
34	0xbc9b98dc	-0.018993787
35	0xbbff0a64	-0.007783221
36	0xbcfb6d02	-0.030691627
37	0x3d6b94ff	0.05751514
38	0x3cd19394	0.025583066
39	0xbc90e0f5	-0.017685393
40	0xbca18620	-0.019717276
41	0x3d22144e	0.039570145
42	0xbd1a2ecb	-0.03764228
43	0x3c989dec	0.01862999
44	0xbd0a2ce5	-0.03373422
45	0xbbaa88ad	-0.0052042813
46	0x3d4ea1f4	0.05044742
47	0xbb253f50	-0.002521474
48	0x3d203919	0.039116953
49	0xbd09c900	-0.033638954
50	0x3d604d5b	0.054761272
51	0xbd7b8558	-0.061406463
52	0xbd82b767	-0.063826375
53	0xbd8881ac	-0.06665358
54	0xbd78b426	-0.060718678
55	0xbafb0939	-0.0019152529
56	0xbd82e10f	-0.06390583
57	0x3c265f4e	0.010154558
58	0xbcbe6c62	-0.02324504
59	0x3bf3355a	0.0074221315
60	0xbba9f65e	-0.00518684
61	0x3c996d17	0.018728776
62	0xbc00a992	-0.007852929
63	0xbd3733eb	-0.044727247

lstm.weight_ih_l0 f4 [256, 64]
0	0x3d9e5b6c	0.07732281
1	0x3e2d7225	0.16938074
2	0xbc0389ee	-0.0080284905
3	0x3e4d524d	0.20050927
4	0x3df83ff2	0.121215716
5	0xbd4b7930	-0.04967612
6	0x3d308ec4	0.043104902
7	0xbb38e74c	-0.0028214036
8	0x3dba4e99	0.090970226
9	0x3d00ab27	0.031413224
10	0x3d89f1f7	0.06735604
11	0x3db2d19a	0.087313846
12	0x3e8621dc	0.26197708
13	0x3d74c170	0.05975479
14	0x3e27403f	0.16333102
15	0x3ea7954a	0.32731086
16	0x3e596b2c	0.21232289
17	0x3c4b799b	0.01241913
18	0x3db5cbce	0.08876763
19	0x3e4c487a	0.19949523
20	0x3cbaf420	0.022821486
21	0x3da1ce8e	0.07900725
22	0x3d8b083b	0.06788679
23	0x3ea6c161	0.3256941
24	0x3e87a0e2	0.2648993
25	0xbd6c1ed1	-0.057646576
26	0xbd0aa31c	-0.03384696
27	0x3d937c3c	0.0720143
28	0xbdc8c62f	-0.098034255
29	0x3c9c6c8a	0.019094724
30	0x3d1f75a2	0.038930543
31	0x3d955b8a	0.0729285
32	0x3ea3073a	0.3184145
33	0x3c946b08	0.018117443
34	0x3e582d35	0.21110995
35	0x3dbfc967	0.09364586
36	0x3d8a123e	0.06741761
37	0x3e8527b8	0.26006866
38	0x3defca36	0.117084906
39	0x3e1c06b2	0.15236929
40	0x3d27907d	0.04090928
41	0x3e596605	0.21230324
42	0x3e7f97e7	0.2496029
43	0x3e2d0fa0	0.16900492
44	0xbdd91ecc	-0.10601577
45	0x3eb93024	0.3616954
46	0x3e0f696b	0.14005058
47	0x3e2f7ce0	0.1713748
48	0x3e4e3d69	0.20140614
49	0xbda76723	-0.08173969
50	0x3e972aaa	0.29524738
51	0x3e2a3df6	0.16625199
52	0x3da5d19f	0.08096623
53	0x3cf7074e	0.03015485
54	0x3e2c094d	0.16800423
55	0x3d3bda5f	0.04586255
56	0x3e2a57be	0.16635033
57	0x3e59367d	0.21212192
58	0x3c2918c4	0.010320846
59	0x3e5d122e	0.21588966
60	0xbdb155b2	-0.08658923
61	0x3dca8b45	0.09889845
62	0x3e801a7f	0.25020215
63	0xbc52e902	-0.012872936
64	0xbd85296f	-0.065020435
65	0xbea83037	-0.32849285
66	0xbe3506a7	-0.17678319
67	0x3e96e7ed	0.2947382
68	0x3e504385	0.20338257
69	0x3d59e153	0.0531934
70	0x3d81c0c6	0.06335597
71	0x3c8e4f08	0.01737167
72	0x3d90c345	0.07068495
73	0x3f00e152	0.5034381
74	0x3d4ffc0e	0.050777487
75	0x3e39bd4f	0.18138622
76	0xbc279e1e	-0.010230569
77	0x3e51bbdf	0.20481823
78	0xbcf374bf	-0.029718755
79	0x3e77e04d	0.24206658
80	0x3df607fe	0.12013243
81	0x3d48ed39	0.04905436
82	0x3ca74604	0.020419128
83	0x3d14fdd6	0.03637489
84	0xbe1bf7f8	-0.15231311
85	0x3e294d44	0.16533381
86	0xbd88fa73	-0.066883944
87	0x3e9ad14a	0.302378
88	0xbe88bcbb	-0.2670649
89	0x3e20b9ac	0.15695828
90	0x3efc1242	0.4923268
91	0x3e53c31b	0.20679896
92	0x3e45c79f	0.1931443
93	0xbe0a6247	-0.13514052
94	0xbddc510f	-0.10757648
95	0xbd2f8dd1	-0.042859856
96	0xbe1d68d3	-0.15372019
97	0x3e43d076	0.1912249
98	0x3c88e0dc	0.016708784
99	0xbdd856f9	-0.10563464
100	0x3e0b874c	0.1362583
101	0x3d4660a7	0.04843202
102	0x3e7b5811	0.24545313
103	0x3d63f419	0.05565271
104	0x3d3d27d5	0.046180565
105	0x3f1016f0	0.56285
106	0xbd750e30	-0.059827983
107	0x3e15cd37	0.14629065
108	0xbe89a8ae	-0.26886505
109	0x3e035137	0.1282395
110	0xbeaa8894	-0.33307326
111	0xbe61f262	-0.22065118
112	0x3db07fa8	0.086180985
113	0x3d0bdbd6	0.0341452
114	0x3e094585	0.13405426
115	0x3db2fbd9	0.087394424
116	0x3dd91455	0.10599581
117	0xbd6015b3	-0.054708194
118	0x3cef3a7e	0.029202696
119	0x3e82b777	0.25530598
120	0x3d6419ec	0.055688784
121	0xbe06cac9	-0.13163294
122	0x3e9ee481	0.3103371
123	0xbd9a0f52	-0.07522453
124	0x3d8a6212	0.06756987
125	0xbe5115e1	-0.20418502
126	0x3eca7a53	0.3954645
127	0xbe309b8f	-0.17246841
128	0x3dc4052d	0.095713
129	0x3dc77c06	0.097404525
130	0x3eab66d0	0.33476877
131	0x3ce67ada	0.028134752
132	0x3e26e997	0.16300045
133	0x3dc72759	0.09724302
134	0xbc8a563a	-0.01688682
135	0xbe3c2435	-0.18373187
136	0x3d950f99	0.07278366
137	0x3cb58f89	0.02216317
138	0x3e2ec260	0.17066336
139	0x3d3bee09	0.045881305
140	0x3d022ea3	0.031782757
141	0x3e5e7fef	0.2172849
142	0x3e0578fb	0.13034432
143	0xbceb636c	-0.028733931
144	0x3d926fb1	0.0715021
145	0x3df5dabb	0.1200461
146	0x3b3136c4	0.00270407
147	0x3db08ad6	0.08620231
148	0xbd32ddb4	-0.043668464
149	0xbdf6e94c	-0.120562166
150	0x3e188e4d	0.14898033
151	0xbdcca102	-0.09991647
152	0x3e44b10d	0.19208165
153	0x3e354f4c	0.1770603
154	0xbcc1f483	-0.023676163
155	0xbcba33a6	-0.022729706
156	0x3d884291	0.066533215
157	0x3a858740	0.0010187402
158	0x3eaa9333	0.3331543
159	0x3ece208c	0.40259206
160	0xbd5213ab	-0.051288288
161	0xbe15782c	-0.14596623
162	0xbd220ba2	-0.039561875
163	0xbc93866d	-0.018008435
164	0x3d75d326	0.06001582
165	0xbd878826	-0.06617765
166	0x3d035db5	0.032071788
167	0xbdbc761a	-0.092022136
168	0x3e67dd6c	0.2264306
169	0x3d92c268	0.07165986
170	0x3d1d2463	0.03836478
171	0x3e72f4c1	0.23726179
172	0xbe0e8eae	-0.13921615
173	0x3e012278	0.12610805
174	0x3e426066	0.18982086
175	0x3e600cc4	0.2187987
176	0x3dd28f2f	0.10281216
177	0xbc1e6f0a	-0.009670028
178	0xbd53cc9c	-0.051708803
179	0xbd3bfb86	-0.04589417
180	0xbd715a58	-0.05892405
181	0x3e89c250	0.2690606
182	0x3db2a03d	0.08721969
183	0xbd3a085d	-0.045418132
184	0x3e5b034a	0.21387973
185	0xbd0dfb01	-0.034663204
186	0x3e91af86	0.28454226
187	0xbd8ed10c	-0.06973466
188	0x3cbd390a	0.023098487
189	0xbe045dce	-0.12926409
190	0x3e8aec96	0.27133626
191	0x3be10e4a	0.0068681585
192	0xbd350243	-0.04419161
193	0x3e480901	0.19534685
194	0x3d1e75eb	0.038686674
195	0xbcdaa8ba	-0.026691783
196	0x3d22a2ef	0.039706167
197	0x3ce205cd	0.027590657
198	0xbc2ed2a3	-0.010670337
199	0x3cacb03f	0.021080134
200	0x3ddcd8b0	0.10783517
201	0xbc6430b9	-0.013927632
202	0x3e4cddb6	0.20006451
203	0x3d839c4e	0.06426297
204	0x3c7f0813	0.01556589
205	0x3d59ef82	0.053206928
206	0x3dfb8545	0.122812785
207	0x3dcf66e0	0.10127044
208	0xbdda398c	-0.106555074
209	0xbd9a7d17	-0.0754339
210	0x3d9ef14f	0.0776087
211	0x3df097d9	0.11747713
212	0xbc9aba9a	-0.018887807
213	0xbe5e6594	-0.21718436
214	0xbd454def	-0.048170026
215	0x3dec2178	0.11529821
216	0x3d6ce9cc	0.057840154
217	0x3d1bf68b	0.03807692
218	0xbc93cd92	-0.01804236
219	0x3daf7c9a	0.08568688
220	0xbdb716d6	-0.089399025
221	0xbd0099b9	-0.0313966
222	0x3c8adb78	0.016950354
223	0x3e8596ea	0.260917
224	0x3cf8123a	0.030282129
225	0x3df03186	0.11728196
226	0x3dbbd55c	0.091715544
227	0xbdaa0c38	-0.08303112
228	0x3c5a625c	0.013329115
229	0x3dca35ac	0.09873518
230	0xbe28c2d2	-0.16480568
231	0xbd2f9da4	-0.042874947
232	0x3d781498	0.060566515
233	0x3df87799	0.121321864
234	0xbd52121b	-0.051286798
235	0x3e0c60de	0.13708827
236	0xbe097085	-0.13421829
237	0x3df67bbc	0.12035319
238	0xbd5f407e	-0.054504864
239	0x3e39d569	0.18147816
240	0xbc373920	-0.011183053
241	0x3c9be905	0.01903201
242	0xbcd6ee63	-0.026236719
243	0x3d9e842b	0.07740053
244	0xbd922753	-0.07136407
245	0xbd76c5fa	-0.0602474
246	0xbd89234f	-0.06696188
247	0xbd9fc2ff	-0.078008644
248	0xbe0b338d	-0.13593884
249	0x3d815ec5	0.06316904
250	0xbd055a7c	-0.032556996
251	0x3e21d4fc	0.15803903
252	0x3d6e2aac	0.058146164
253	0x3da2db3b	0.07951971
254	0x3dcfedce	0.101527795
255	0x3e1fb2eb	0.15595596

lstm.weight_hh_l0 f4 [256, 64]
0	0xbdc420c8	-0.09576565
1	0xbd9ee9da	-0.077594474
2	0x3e5e86e7	0.21731149
3	0x3e9e900d	0.30969277
4	0xbd9b6a63	-0.07588651
5	0xbe67a88a	-0.22622886
6	0x3e1ba437	0.15199362
7	0xbe4b67ff	-0.1986389
8	0x3e41f446	0.18940839
9	0xbe9ef131	-0.3104339
10	0x3dc8cf3d	0.098051526
11	0x3eb34651	0.35014585
12	0x3eaecb56	0.34139508
13	0x3c43f959	0.011961305
14	0x3f08ad45	0.5338939
15	0xbe395def	-0.18102239
16	0x3e3e769d	0.18599935
17	0x3e10c8f6	0.1413916
18	0x3e695bba	0.22788897
19	0xbe71affd	-0.2360229
20	0x3e0203b0	0.12696719
21	0xbe90f4a8	-0.28311658
22	0xbe60851c	-0.21925777
23	0x3d8f203d	0.06988571
24	0xbe58667e	-0.21132848
25	0xbe964044	-0.29345906
26	0xbe4af86e	-0.19821331
27	0xbe67dbfc	-0.22642511
28	0x3ec8a909	0.39191464
29	0xbe937543	-0.288004
30	0xbe639cce	-0.22227785
31	0xbd2bc49f	-0.04193556
32	0x3b9d22ec	0.004795423
33	0x3e837005	0.25671402
34	0x3cebc6e5	0.028781364
35	0x3da37841	0.07981921
36	0xbd65098f	-0.05591732
37	0xbea93fd8	-0.3305652
38	0xbdb3c707	-0.08778196
39	0x3ddd4458	0.10804051
40	0xbd3936d4	-0.045218304
41	0xbded2b81	-0.11580563
42	0xbe9017a4	-0.28143036
43	0xbe4f23ba	-0.20228472
44	0x3e08f84b	0.13375966
45	0xbe9706dd	-0.29497424
46	0x3e991558	0.29899096
47	0xbec22644	-0.3791982
48	0xbd3d1af2	-0.046168275
49	0xbe395624	-0.18099266
50	0x3d3e7fe5	0.04650869
51	0xbe7cde6e	-0.24694225
52	0xbe485187	-0.1956235
53	0x3d0a7d14	0.03381069
54	0x3e81e94e	0.2537331
55	0x3e9c1969	0.30488136
56	0x3e246e66	0.16057739
57	0xbdbeac8b	-0.09310254
58	0x3e23d3a6	0.15998706
59	0xbea35e8a	-0.31908065
60	0x3d4fe81a	0.05075846
61	0x3cd84ca1	0.026403727
62	0x3e33ad37	0.17546545
63	0x3ebc6e86	0.36803073
64	0x3de2c7f7	0.110732965
65	0x3dacdca9	0.08440525
66	0x3d288236	0.041139804
67	0x3e1d4eab	0.1536204
68	0xbd459bd2	-0.048244305
69	0xbe77cdd0	-0.24199605
70	0x3e7350b6	0.23761258
71	0xbcad033f	-0.021119712
72	0x3e66c04e	0.22534296
73	0xbc8dac45	-0.017294059
74	0x3c20ffe3	0.009826633
75	0xbe0cf821	-0.13766529
76	0x3ea49fa6	0.32153052
77	0x3d900430	0.07032049
78	0x3e91c35e	0.28469366
79	0xbe63cc8e	-0.22246
80	0x3c843324	0.016137667
81	0x3ddb3294	0.107030064
82	0x3e0ab5b2	0.13545874
83	0xbde8dce7	-0.11370259
84	0x3e25935e	0.16169497
85	0xbe6c154d	-0.23055
86	0xbdf945a3	-0.12171485
87	0xbd57cca7	-0.052685406
88	0xbe18fcfe	-0.14940259
89	0xbdaa1714	-0.08305183
90	0x3c27b7c5	0.010236685
91	0xbe985836	-0.297548
92	0x3ea95719	0.33074263
93	0xbe7cdd3d	-0.2469377
94	0xbe46bc36	-0.19407734
95	0xbd4aea20	-0.049539685
96	0xbd4fd9a8	-0.050744683
97	0x3e537d9a	0.20653382
98	0x3e26d233	0.16291122
99	0xbd940c4f	-0.0722891
100	0x3d6a0d12	0.05714137
101	0xbe89055b	-0.26761898
102	0xbe50a6d2	-0.20376137
103	0x3e1a1380	0.15046501
104	0x3e6cd22b	0.23127048
105	0xbdf898fc	-0.121385545
106	0xbe3938ec	-0.1808812
107	0xbddce0bd	-0.10785053
108	0xbd952609	-0.07282645
109	0xbe90492c	-0.28180826
110	0xbd7258dc	-0.059166774
111	0xbe27883f	-0.16360568
112	0x3d1164ce	0.035496525
113	0xbe500eba	-0.20318118
114	0x3d71ae1f	0.059003945
115	0xbeada6f2	-0.33916432
116	0xbeb8f546	-0.3612463
117	0x3deeb7f6	0.116561815
118	0x3e1edb2a	0.15513292
119	0x3e1e6978	0.1546992
120	0x3e1d4c03	0.15361027
121	0xbd704234	-0.058656886
122	0x3e18f008	0.14935315
123	0xbe0a9e41	-0.13536932
124	0xbe41da71	-0.18930985
125	0x3ead212c	0.3381437
126	0x3ca81e90	0.020522386
127	0xbe5ffb7e	-0.2187328
128	0xbd07ba55	-0.033136684
129	0x3dcc9a78	0.099904
130	0x3ddc4f7d	0.10757349
131	0x3e890f48	0.2676947
132	0xbd9e8224	-0.07739666
133	0xbe9259ca	-0.2858413
134	0xbdc5167d	-0.0962343
135	0xbe72db2d	-0.23716421
136	0x3ddef12f	0.10885846
137	0x3cc170fe	0.02361345
138	0xbd41a219	-0.04727373
139	0x3e5dea9f	0.21671532
140	0x3e593880	0.2121296
141	0xbc4ecdf8	-0.012622349
142	0x3e431c66	0.19053802
143	0xbcc14fe7	-0.02359767
144	0x3e0119aa	0.12607446
145	0x3e79e68b	0.24404351
146	0x3e89677e	0.2683677
147	0xbe2b31f7	-0.16718279
148	0x3d6f0497	0.058353987
149	0xbe942a31	-0.2893844
150	0x3c10fbc7	0.008849091
151	0xbdbe4b00	-0.09291649
152	0x3dcd47e1	0.100234754
153	0xbe3634d1	-0.17793585
154	0x3c455495	0.012044092
155	0xbe0118d7	-0.12607132
156	0x3e27ab10	0.16373849
157	0xbe83b227	-0.25721857
158	0xbddd2609	-0.1079827
159	0x3cbc0d7b	0.022955647
160	0xbd30537e	-0.043048374
161	0x3e221f9f	0.15832375
162	0xbe0834bc	-0.13301367
163	0xbd283785	-0.041068573
164	0xbd2022a2	-0.03909553
165	0xbe708e22	-0.2349172
166	0x3da1d171	0.07901276
167	0x3c6bc748	0.014390774
168	0x3dffd1b2	0.12491168
169	0x3e45cd4f	0.193166
170	0xbe04d0e9	-0.12970318
171	0xbe0ef9d8	-0.13962495
172	0x3db44d47	0.08803802
173	0xbe29a386	-0.16566285
174	0x3e6198d6	0.22030959
175	0xbe8c18f1	-0.2736278
176	0x3bf53ea3	0.0074842735
177	0xbe3b598b	-0.18295877
178	0x3e301e8a	0.1719915
179	0xbe8dbad7	-0.2768161
180	0xbe3111d8	-0.17291963
181	0x3cae95bc	0.021311633
182	0x3ddb67c9	0.10713155
183	0x3e0dc8c8	0.13846123
184	0x3bf3f1d5	0.0074446
185	0xbe49624c	-0.19666404
186	0x3e0758e5	0.13217504
187	0xbe309854	-0.17245609
188	0xbbe9c647	-0.007134232
189	0xbca68e3c	-0.020331495
190	0xbd9c59c4	-0.07634309
191	0x3e754ef8	0.23955905
192	0xbdc45d34	-0.095880896
193	0x3e19ea09	0.15030684
194	0xbd7e5a0f	-0.062097605
195	0xbccbdb43	-0.024884826
196	0xbe066aca	-0.13126674
197	0xbdc66257	-0.096867256
198	0xbd060746	-0.03272178
199	0xbe2afb15	-0.16697343
200	0x3e0d044b	0.13771169
201	0xbe49782c	-0.19674748
202	0xbe50103d	-0.20318694
203	0x3cea00ae	0.028564777
204	0x3d84db6d	0.06487165
205	0x3d6f6351	0.058444325
206	0x3e54cc62	0.20781091
207	0xbe1e9f88	-0.15490544
208	0x3e37c69c	0.17946857
209	0x3e27495f	0.16336583
210	0x3cf08f39	0.029365169
211	0xbd55f4fd	-0.052235592
212	0x3e35b1bc	0.17743582
213	0x3dcb258d	0.099192716
214	0xbcc48d41	-0.023993136
215	0xbd2bd697	-0.041952696
216	0x3d91dc75	0.07122127
217	0xbe2e8f98	-0.17046964
218	0xbd3036a9	-0.043020878
219	0xbd5f15de	-0.054464214
220	0x3e5817a9	0.21102776
221	0xbd630dba	-0.055433013
222	0xbd1f07f1	-0.038825933
223	0x3e2a8374	0.16651708
224	0x3e2417ee	0.16024753
225	0xbcbfcf7b	-0.023414364
226	0x3cac50a7	0.021034552
227	0xbe28297a	-0.16422072
228	0xbd06109a	-0.032730676
229	0xbe18b4d2	-0.14912727
230	0x3cc56f3e	0.024100896
231	0x3e139a8c	0.14414424
232	0xbd283810	-0.04106909
233	0x3db14310	0.08655369
234	0xb8908d00	-6.8927184e-05
235	0xbd2d376f	-0.042289194
236	0xbe15c30f	-0.1462519
237	0xbb2d1c07	-0.002641441
238	0x3e5ecd60	0.21758032
239	0xbd9f4e68	-0.07778627
240	0x3df45fd2	0.11932339
241	0x3cbea7be	0.023273345
242	0x3dc580a9	0.096436806
243	0xbd99e3d0	-0.07514155
244	0xbdba377e	-0.090926155
245	0xbdd00053	-0.10156312
246	0x3dfe4292	0.12415041
247	0x3e533bfb	0.2062835
248	0x3d86038d	0.06543646
249	0x3d846b65	0.064657964
250	0x3ddbcf87	0.10732942
251	0x3cee9b2e	0.02912673
252	0xbd64d4d2	-0.055867024
253	0xbdbcb719	-0.092146106
254	0x3d0e3bc1	0.034724955
255	0xbb43ab08	-0.0029856581

lstm.bias_ih_l0 f4 [256]
0	0x3cbceab8	0.023061141
1	0x3df28f4c	0.11843738
2	0x3df695d6	0.12040298
3	0x3cb1f4bc	0.021723144
4	0x3cf72ab8	0.030171737
5	0x3dc6c5b0	0.09705675
6	0x3dba6f5b	0.091032706
7	0x3defa1ab	0.117007576
8	0xbd9342c0	-0.07190466
9	0xbd4b6bad	-0.049663235
10	0x3da0e6c8	0.07856518
11	0x3dd8e1a0	0.105899096
12	0x3d21d164	0.03950633
13	0xbd0cb0aa	-0.034348167
14	0x3dabf75b	0.08396789
15	0xbd6ac94c	-0.057320878
16	0xbd55d29f	-0.052202817
17	0xbdacdb4e	-0.084402665
18	0x3d25c5f0	0.04047197
19	0xbdb550c5	-0.08853296
20	0xbaf9bf02	-0.0019054117
21	0xbda1a63a	-0.07893033
22	0xbd6cfa25	-0.057855744
23	0xbd91dc49	-0.07122094
24	0xbc49624c	-0.012291502
25	0xbc7710a4	-0.015079651
26	0x3d1e8220	0.038698316
27	0xbda28a90	-0.07936585
28	0xbda123b0	-0.07868135
29	0x3d601f55	0.05471738
30	0xbd81a974	-0.06331149
31	0xbc94b73f	-0.018153785
32	0x3cff868e	0.03119209
33	0x3cf4efd5	0.029899517
34	0xbce922e4	-0.02845902
35	0xbb9f8036	-0.004867579
36	0xbd238aae	-0.039927177
37	0xbdfd9f28	-0.12383872
38	0x3dc41cc1	0.09575797
39	0xbcbbb157	-0.02291171
40	0xbd996faf	-0.07492005
41	0xbd7de7ca	-0.06198863
42	0x3e014d94	0.1262725
43	0x3dc08859	0.09401006
44	0x3ddd22af	0.10797631
45	0xbdf308d4	-0.11866918
46	0xbd4899ff	-0.048974987
47	0xbddc3180	-0.10751629
48	0x3c21ebf0	0.009882912
49	0x3d0b102b	0.033950966
50	0xbd8cac00	-0.06868744
51	0xbc1b7648	-0.00948865
52	0xbd9ff886	-0.07811074
53	0x3e023d3a	0.12718669
54	0x3dac6688	0.08417994
55	0xbd0bcc44	-0.03413035
56	0x3d41cba2	0.04731334
57	0x3dcfa7ce	0.10139428
58	0xbdf0403e	-0.11731003
59	0x3dee62fe	0.11639975
60	0xbde389ff	-0.11110305
61	0xbc53f73f	-0.012937366
62	0x3de3b6a2	0.11118819
63	0xbbc81e30	-0.0061071143
64	0x3d8db2bc	0.069188565
65	0xbd8719c8	-0.06596714
66	0x3db7d55e	0.089762434
67	0xbd291308	-0.041277915
68	0xbd669c4c	-0.0563014
69	0x3bed38c0	0.007239431
70	0xbc4be520	-0.012444764
71	0xbd2791f8	-0.04091069
72	0xbd828c0c	-0.06374368
73	0x3dcc83c3	0.09986069
74	0xbd0d0d70	-0.034436643
75	0xbd031676	-0.032003842
76	0xbdcc2678	-0.09968275
77	0x3de0a7a0	0.10969472
78	0xbe01ac6b	-0.12663428
79	0x3dc7b972	0.09752168
80	0xbd2d9302	-0.042376526
81	0xbda0fc7c	-0.078606576
82	0xbd2e2790	-0.0425182
83	0xbdc0ef52	-0.09420647
84	0xbcb85074	-0.0224993
85	0x3db1a0dc	0.086732596
86	0x3cdb282d	0.026752556
87	0x3dd713f0	0.1050185
88	0x3c34c1e0	0.0110325515
89	0x3df276be	0.118390545
90	0xbd326fa0	-0.043563485
91	0xbdd2cbdc	-0.10292789
92	0x3d9266ce	0.07148515
93	0xbd01ce31	-0.03169078
94	0x3da0a190	0.078433156
95	0x3db80d54	0.08986917
96	0x3d0876a3	0.033316266
97	0xbd05fee4	-0.032713786
98	0x3dc7a946	0.09749083
99	0x3c94b816	0.018154185
100	0x3d8eed7e	0.06978892
101	0xbdad1064	-0.08450392
102	0x3c2c9854	0.010534365
103	0x3ac000e3	0.0014648702
104	0xbd8f9b5c	-0.07012054
105	0xbd97e057	-0.07415836
106	0x3d21734a	0.03941659
107	0x3dd9f29a	0.10641976
108	0x3dab0438	0.08350414
109	0x3df212aa	0.11819966
110	0x3dcd5b7e	0.100272164
111	0xbd3f4ca0	-0.046703935
112	0x3d8cd61f	0.06876778
113	0xbde59291	-0.11209596
114	0xbd0f7359	-0.035022113
115	0xbd8b5b20	-0.0680449
116	0xbd922ff0	-0.071380496
117	0xbdfa89f0	-0.12233341
118	0x3da3c56e	0.07996641
119	0xbd818c8f	-0.063256375
120	0xbdda8518	-0.10669917
121	0xbd27615a	-0.040864326
122	0x3dd3de76	0.103451654
123	0xbcc41f86	-0.023940813
124	0x3cad02f3	0.02111957
125	0x3d8dd3a0	0.0692513
126	0x3c5c5056	0.013446888
127	0xbda7f2b6	-0.0820059
128	0x3df6a794	0.12043682
129	0x3d0d392a	0.034478344
130	0x3df00fa6	0.11721735
131	0x3d8f14f6	0.0698642
132	0xbd20bb80	-0.039241314
133	0x3d4df2d0	0.050280392
134	0x3d0980ba	0.03357003
135	0xbc3078e4	-0.01077101
136	0x3df196bf	0.11796331
137	0xbc5685ea	-0.013093451
138	0xbd0e8eff	-0.03480434
139	0x3d176616	0.03696259
140	0xbbd4b06d	-0.006490758
141	0x3e001590	0.12508225
142	0x3dfef6db	0.12449428
143	0x3d633f4a	0.05548028
144	0x3dcf0408	0.10108191
145	0x3bff1e29	0.007785578
146	0x3dfe4697	0.12415808
147	0x3dcb46f0	0.0992564
148	0x3dcfe739	0.10151524
149	0x3d110791	0.035407607
150	0xbdb1a860	-0.08674693
151	0x3d4da5d8	0.05020699
152	0x3d011d29	0.03152195
153	0x3db43c86	0.088006064
154	0xbda412e9	-0.08011419
155	0xbdc673fe	-0.096900925
156	0x3d996c2a	0.07491334
157	0xbc80f564	-0.015742011
158	0x3d43cdae	0.047803573
159	0xbcb0fbd3	-0.021604454
160	0x3d6ca01e	0.057769887
161	0xbd7674b6	-0.060169898
162	0xbd91e070	-0.07122886
163	0xbd862953	-0.06550851
164	0xbc909b30	-0.017652124
165	0xbdea4e82	-0.114407554
166	0xbdf9be77	-0.121945314
167	0x3d848b19	0.06471843
168	0xbd916683	-0.07099631
169	0xbdbb440c	-0.09143838
170	0xbdcde9a1	-0.10054327
171	0x3d27278a	0.04080919
172	0xbdceb626	-0.10093336
173	0xbddc4869	-0.10755999
174	0x3d555fba	0.052093245
175	0xbdee031d	-0.116216876
176	0xbde734c2	-0.1128936
177	0xbc9007a6	-0.017581772
178	0xbc98ff11	-0.018676313
179	0xbd60e753	-0.054908108
180	0x3c06235f	0.008187144
181	0xbd096ad7	-0.033549156
182	0x3da564dc	0.08075878
183	0xbd721bb8	-0.059108466
184	0x3d4b9385	0.049701232
185	0xbd0044a4	-0.03131546
186	0x3d7817a3	0.060569417
187	0xbd9328c3	-0.07185509
188	0xbd92c410	-0.07166302
189	0xbc8370b8	-0.01604496
190	0x3d8428b7	0.06453078
191	0x3d29f220	0.041490674
192	0xbbb7a1e1	-0.0056040143
193	0x3d56b370	0.05241722
194	0x3d5df0d4	0.05418475
195	0xbbe51b8f	-0.0069918106
196	0xbd7640dc	-0.06012045
197	0xbd2d972a	-0.04238049
198	0xbdb8e686	-0.09028344
199	0xbdf70d69	-0.12063105
200	0x3df1c028	0.11804229
201	0xbda2f5bf	-0.079570286
202	0xbcf489e9	-0.029850917
203	0x3de8b7c8	0.113631785
204	0xbdce592a	-0.100756004
205	0xbd633a6a	-0.05547563
206	0xbd66018e	-0.056153826
207	0xbd913c3c	-0.07091567
208	0xbccce032	-0.025009248
209	0xbc830367	-0.015992833
210	0x3d9a5601	0.07535935
211	0x3c0a412c	0.00843839
212	0x3d817104	0.06320384
213	0x3c72db35	0.014822771
214	0x3b5affd8	0.0033416655
215	0x3dcf6cdc	0.10128185
216	0xbd1eaf00	-0.03874111
217	0xbdfcf1fa	-0.12350841
218	0xbdf10848	-0.11769158
219	0xbdda46b4	-0.10658017
220	0xbafec2b2	-0.0019436686
221	0x3d3c26b8	0.045935363
222	0x3d45d0d5	0.04829486
223	0xbcd945c2	-0.02652252
224	0x3dd620a6	0.10455446
225	0xbdc15858	-0.09440678
226	0x3d5c341a	0.053760625
227	0x3db946dd	0.09046719
228	0xbd2ae8dc	-0.04172598
229	0xbbeeb3bd	-0.00728461
230	0xbdb05f0c	-0.08611879
231	0xbdab01c2	-0.08349945
232	0x3d85518c	0.065096945
233	0xbc286f6f	-0.010280474
234	0xbb24bf30	-0.002513837
235	0x3b4ca782	0.0031227772
236	0x3d88731e	0.06662582
237	0xbc3d1e62	-0.011542888
238	0xbd2da8c0	-0.04239726
239	0xbde54a1c	-0.11195776
240	0x3ddbfddb	0.107417785
241	0xbd2de227	-0.042452004
242	0x3da47696	0.08030431
243	0x3db702ee	0.08936106
244	0xbd954560	-0.07288623
245	0xbd8b8340	-0.06812143
246	0x3dfa88c6	0.12233119
247	0x3d7b517a	0.061357
248	0xbda7b4b2	-0.08188762
249	0xbc8332d2	-0.016015444
250	0xbcc84146	-0.024445187
251	0xbdfd0400	-0.123542786
252	0xbdded0b9	-0.108796544
253	0x3c999fa8	0.018752888
254	0xbd0bdc81	-0.034145836
255	0x3beb7155	0.007185141

lstm.bias_hh_l0 f4 [256]
0	0xbdbfc426	-0.09363584
1	0xbd341e82	-0.043974407
2	0x3da01240	0.07815981
3	0x3c20913b	0.009800251
4	0x3d67a838	0.05655691
5	0x3dfae750	0.122511506
6	0x3d241450	0.040058434
7	0x3cdd1520	0.026987612
8	0x3dadb6fe	0.084821686
9	0x3dc5865d	0.096447684
10	0x3dc873b8	0.097876966
11	0x3ca5c631	0.020236107
12	0xbd96cba0	-0.07363057
13	0x3d53f3b2	0.051746078
14	0xbd9c25a8	-0.0762437
15	0xbdc7ee66	-0.09762268
16	0xbd808ba9	-0.06276638
17	0x3d22a8be	0.039711706
18	0xbd7429ad	-0.059610058
19	0x3d4a46e4	0.049384013
20	0xbbaf4bc0	-0.0053496063
21	0xbd6b1bba	-0.05739949
22	0xbda00edc	-0.07815334
23	0xbd80024f	-0.0625044
24	0xbddfb5b2	-0.109233275
25	0x3cc29ed6	0.02375738
26	0x3d995478	0.07486814
27	0x3dc83ad6	0.09776847
28	0x3dd7286a	0.10505755
29	0xbddae86a	-0.10688861
30	0xbdbd5bc6	-0.0924602
31	0x3de41d0b	0.11138352
32	0xbd1e1cb6	-0.0386016
33	0xbd34f9a7	-0.0441834
34	0xbd24fc82	-0.040279873
35	0x3d9d0d04	0.07668498
36	0xbdc036d4	-0.09385458
37	0xbd9aaa8c	-0.075520605
38	0x3d3c989a	0.04604397
39	0xbd08db1b	-0.03341208
40	0xbd8e7ed9	-0.06957788
41	0x3ac0372c	0.001466488
42	0x3de431ac	0.11142287
43	0x3db03f42	0.086058155
44	0xbd1a55b4	-0.03767939
45	0x3d9aeceb	0.0756472
46	0x3cd84781	0.026401283
47	0x3ccbe47c	0.024889223
48	0x3df094c5	0.117471255
49	0xbdb9603e	-0.0905156
50	0xbd777e6a	-0.060423292
51	0xbcd3d586	-0.025858652
52	0xbc87baad	-0.016568506
53	0xbcca1010	-0.024665862
54	0x3da95dd0	0.082698464
55	0xbd357477	-0.044300523
56	0xbdb43060	-0.08798289
57	0xbda7dff0	-0.081970096
58	0x3df8f65a	0.12156363
59	0xbde9b060	-0.11410594
60	0x3d3362fa	0.043795563
61	0x3d1d82fc	0.038454995
62	0xbc135069	-0.008991339
63	0x3df5a54e	0.1199442
64	0x3c028803	0.007966998
65	0x3de1f67c	0.11033341
66	0xbddd9ce6	-0.108209416
67	0x3dc66600	0.09687424
68	0x3e016fb1	0.12640263
69	0x3d2bea3b	0.041971426
70	0x3dd4a606	0.10383229
71	0xbd82d82c	-0.06388888
72	0xbd160619	-0.03662691
73	0x3de8433a	0.113409474
74	0x3d851ca5	0.06499604
75	0xbde01a3f	-0.10942506
76	0x3d27db2a	0.040980496
77	0x3d237d2a	0.039914288
78	0x3d7208c8	0.059090406
79	0xbcdf9157	-0.027290983
80	0xbd8d3d03	-0.06896403
81	0x3dd151c7	0.10220676
82	0x3de47fb2	0.111571684
83	0xbd64cb8a	-0.055858172
84	0xbd26c0ce	-0.040711217
85	0x3db16e86	0.08663659
86	0xbdaffbf2	-0.08592977
87	0x3d683aac	0.05669658
88	0x3dc21338	0.09476322
89	0xbc3ade42	-0.011405529
90	0xbd70f7ac	-0.05882995
91	0x3d607da6	0.054807328
92	0x3d45fd0a	0.04833702
93	0x3daa31ee	0.083103046
94	0x3df3d3a9	0.11905605
95	0x3dae93d2	0.08524288
96	0x3d63fd2a	0.055661358
97	0xbdc096ee	-0.094037876
98	0x3d8dd438	0.06925243
99	0x3def5e1e	0.11687873
100	0xbdfe86fc	-0.1242809
101	0x3df165de	0.11787008
102	0xbdb68fdc	-0.08914158
103	0xbd6b4c1a	-0.057445623
104	0x3d677610	0.056509078
105	0x3dac1cd6	0.084039375
106	0xbd715b21	-0.058924798
107	0x3d7e8f23	0.062148225
108	0xbdedf3d8	-0.11618775
109	0xbc99162a	-0.018687326
110	0xbd42af60	-0.047530532
111	0x3d82c8e2	0.063859716
112	0x3dd50186	0.10400681
113	0xbdc011d5	-0.09378401
114	0x3d14a80c	0.036293074
115	0xbde4f52a	-0.11179574
116	0xbd936834	-0.071976095
117	0xbdd05b69	-0.10173685
118	0x3d92d570	0.07169616
119	0xbdc4e91b	-0.09614774
120	0x3dd18e83	0.1023226
121	0xbdb6b75c	-0.08921692
122	0x3cb22ee8	0.021750882
123	0xbdf779b1	-0.12083758
124	0x3dc19548	0.09452301
125	0x3da35ace	0.07976304
126	0xbdd799e6	-0.10527401
127	0x3d08d944	0.033410326
128	0xbdf0755a	-0.11741133
129	0x3dde7727	0.1086257
130	0x3d3b6830	0.045753658
131	0xbb1dfd44	-0.0024107257
132	0x3c1e9b92	0.009680646
133	0x3d834c47	0.06411033
134	0x3bdaa85e	0.006672903
135	0xbd330c26	-0.043712758
136	0xbdbe5f22	-0.09295489
137	0x3df8f91b	0.12156888
138	0xbde7bae4	-0.113149434
139	0xb9b11420	-0.00033775065
140	0x3ddd2d61	0.10799671
141	0xbdcf0e11	-0.10110105
142	0x3cca7288	0.024712816
143	0x3a20b164	0.0006129949
144	0x3db3ff32	0.08788909
145	0xbdf39864	-0.118943006
146	0xbd1916fd	-0.03737544
147	0xbdba670a	-0.091016844
148	0x3dba643f	0.09101152
149	0xbc3367a4	-0.010950003
150	0xbd28d1ab	-0.04121558
151	0x3c164ec6	0.0091740545
152	0xbca01e67	-0.019545747
153	0xbd36e2fc	-0.044650063
154	0x3dd95d4c	0.10613498
155	0x3d26369a	0.040579416
156	0x3d5dc2fe	0.054141037
157	0xbdfdf421	-0.124000795
158	0x3d717b1a	0.05895529
159	0x3d5e1bb6	0.054225646
160	0x3de88f30	0.11355436
161	0x3de4b3db	0.11167117
162	0xbd7cc618	-0.061712354
163	0xbc4a8372	-0.012360441
164	0xbd47352e	-0.0486347
165	0xbde6ec0c	-0.11275491
166	0xbdc44168	-0.09582788
167	0x3d89bfa8	0.06726009
168	0x3df88300	0.12134361
169	0xbbf8be1e	-0.007591023
170	0xbdef20b8	-0.116761625
171	0xbd8826c7	-0.06648021
172	0xbdb1aa00	-0.08675003
173	0xbd86a157	-0.06573742
174	0x3da4eac8	0.080525935
175	0xb83ce440	-4.5035267e-05
176	0x3d1a1840	0.037620783
177	0xbd22a3dc	-0.03970705
178	0xbb98d949	-0.0046645743
179	0xbdcc6a3a	-0.099811986
180	0x3de13c38	0.10997814
181	0x3d667fc0	0.056274176
182	0x3da8e406	0.08246617
183	0x3df22d7a	0.1182508
184	0x3da54658	0.08070058
185	0x3d310ae4	0.043223277
186	0xbc2d5053	-0.010578233
187	0x37893a40	1.6358797e-05
188	0xbdc3ccc8	-0.09560543
189	0x3cf4cd70	0.029883116
190	0x3d8733ed	0.06601701
191	0xbdfb4723	-0.122694276
192	0xbdacfe24	-0.08446911
193	0x3d6a1233	0.057146262
194	0xbd6aa40b	-0.05728535
195	0x3dbed3a3	0.0931771
196	0x3c029f14	0.0079724975
197	0xbd2233da	-0.03960023
198	0xbda215b4	-0.07914296
199	0xbd81e088	-0.06341654
200	0x3d0bdc8e	0.034145884
201	0xbde7e1d4	-0.1132237
202	0x3c26c0e4	0.010177825
203	0x3dad5ec0	0.08465338
204	0xbd6d45b2	-0.057927795
205	0xbd8b58b4	-0.06804028
206	0xbdeef878	-0.116684854
207	0xbd544ea0	-0.051832795
208	0xbdbb60fa	-0.09149356
209	0xbc63467e	-0.013871787
210	0x3d84d3de	0.06485723
211	0x3dd40470	0.10352409
212	0xbc3e2907	-0.011606461
213	0xbdcd2678	-0.10017103
214	0x3bda3fcc	0.006660437
215	0xbdac5e83	-0.08416464
216	0x3de693ae	0.112586364
217	0x3dd27eb4	0.10278073
218	0x3c93925e	0.01801413
219	0xbda28998	-0.079364
220	0x3d891218	0.06692904
221	0xbd9fdae5	-0.07805423
222	0x3d2c9c31	0.042141143
223	0xbd8fe92e	-0.07026897
224	0xbc9e86e2	-0.019351427
225	0xbd1e444c	-0.03863935
226	0xbcb6982e	-0.022289362
227	0x3e02618a	0.1273252
228	0xba8dad85	-0.0010809159
229	0x3b3e8e11	0.0029076377
230	0x3dcc2060	0.099671125
231	0xbc11fec8	-0.008910842
232	0xbdef33c0	-0.116797924
233	0x3de6fc12	0.11278547
234	0xbda6ab43	-0.08138134
235	0xbbafdc3d	-0.0053668306
236	0x3da42ee8	0.08016759
237	0x3d46ad54	0.048505142
238	0xbda2b276	-0.07944195
239	0xbdcafc62	-0.099114195
240	0x3c8710e5	0.016487548
241	0x3d22b260	0.039720893
242	0x3d88cec8	0.066800654
243	0x3c92c587	0.017916454
244	0x3dc702de	0.09717344
245	0x3dd26a8a	0.10274227
246	0xbdec87c1	-0.115493305
247	0x3df0b672	0.11753549
248	0xbdf6f5c3	-0.12058594
249	0xbd8da248	-0.06915718
250	0xbdc54380	-0.09632015
251	0xbde6becd	-0.11266861
252	0xbccfc266	-0.025361251
253	0x3cf09417	0.02936749
254	0xbd7b6660	-0.06137693
255	0x3cdc2152	0.026871357

fc.weight f4 [1, 64]
0	0xbead2d13	-0.3382345
1	0xbf0b8ca7	-0.54511493
2	0xbed6e0ff	-0.41968533
3	0xbe502bce	-0.2032921
4	0xbf16377f	-0.5867843
5	0xbec41651	-0.38298276
6	0xbe6bebc4	-0.23039156
7	0x3e8104b5	0.25198904
8	0xbe16ec11	-0.1473849
9	0x3e904af7	0.28182194
10	0xbf0b64cf	-0.54450697
11	0xbeff47de	-0.49859518
12	0xbe14646c	-0.14491433
13	0xbe2b3bf8	-0.16722095
14	0xbe369187	-0.17828952
15	0x3f00a08d	0.5024498
16	0x3f1fd1fe	0.624298
17	0xbd68de6e	-0.05685275
18	0x3eb5d9e4	0.355178
19	0x3e92572d	0.28582135
20	0x3f11d8b8	0.5697131
21	0x3ec40edf	0.38292596
22	0x3e1f6ab2	0.15568045
23	0xbea59736	-0.32341927
24	0x3ea82c0d	0.32846108
25	0x3edca880	0.43097305
26	0x3f2e37bd	0.680538
27	0x3edb37ca	0.42816
28	0x3ab7c51a	0.0014020533
29	0xbddac2a0	-0.10681653
30	0x3e85b619	0.26115492
31	0x3eae810f	0.3408284
32	0x3e05230f	0.13001655
33	0xbeb21f69	-0.3478959
34	0xbe77a6eb	-0.24184768
35	0xbf3190b9	-0.69361454
36	0x3eff1a71	0.4982486
37	0xbe0e70ba	-0.1391019
38	0x3e2d0c51	0.1689923
39	0x3ee66c62	0.45004565
40	0x3ea4c3b7	0.3218057
41	0x3e93b2aa	0.28847247
42	0x3e1e35dd	0.15450235
43	0x3e459be3	0.19297747
44	0xbec5d370	-0.38637877
45	0xbd69b0e9	-0.05705348
46	0x3ef763c1	0.48318294
47	0x3da81dbb	0.08208796
48	0x3e3e20a6	0.18567142
49	0x3e967959	0.29389456
50	0x3e96a28e	0.29420894
51	0xbeb80c4a	-0.35946876
52	0xbcda95d4	-0.026682772
53	0x3ecab91f	0.3959436
54	0xbe25f7a6	-0.16207752
55	0x3d89280a	0.0669709
56	0xbe6b8bf6	-0.2300261
57	0xbef41884	-0.47674954
58	0xbe3fa123	-0.18713813
59	0x3e8f2b93	0.27962932
60	0x3e798f9c	0.24371189
61	0xbcc4732c	-0.0239807
62	0xbebaf38a	-0.3651393
63	0x3ea87117	0.3289878
