model/fl_checkpoints/global_round_1.pt (torch, 196820 bytes, 7 tensors)

conv1.weight f4 [64, 78, 3]
00000000: 54ec 673d ef7b 6e3d 8e54 22bb 341c 783d
00000010: 6a77 83bc 0a97 8a3c 94b2 13bd bd0a 123d
00000020: 47fb 9a3d e0e8 55bd b498 5d3d 8b62 f33c
00000030: d44f 2e3d 68fa cc3b a9ab 3d3d ec2e 5ebc
00000040: 4e5d 433d 7c8c de3c 61c4 05bd 8acf f03c
00000050: d3cf b4bc ee80 74bc c875 08bd 212e 263d
00000060: 1cfc 6abd 9a48 babc c731 a8bc 75d5 1fbd
00000070: c402 bf3c ad5a 69bd 71d1 8b3d 3197 51bd
00000080: 15b9 5c3d e0a4 b63c c5c8 41bc 99c7 593d
00000090: 577a 9e3c 6d17 793d 3e1a 303c 8199 52bc
000000a0: a39f b03c ba85 91bc 0df7 c73c fc76 803d
000000b0: 495d 483d c9fd 04bd 126f 093d d594 633c
000000c0: d8b9 3a3d b2fd fcbc a7fb 86bd 1f8d 89bc
000000d0: 36af 40bd dcda 553d a027 ed3c d90d f83c
000000e0: 1450 973c e73b e53b e33e 703d 60d8 40bd
000000f0: aa94 853b a0d3 3fbd ce65 c53c 0830 2abc
00000100: 7e2a e13c 312f 40bc 15fa 783d 9e21 13bd
00000110: 2957 29bd cacf ecbc a2e6 7d3d 9639 9d3c
00000120: e84b a03d 3fec 36bd 3442 5abd 727a 58bd
00000130: cbba 4bbd 6088 e13c ae55 f63c b5eb 453d
00000140: 9f3f 1ebd 7889 28bd 5527 013d 1fb2 07bd
00000150: 82bf 493d 9269 90bc 3b0e 023d f60a 26bd
00000160: 2e07 1abd b5a8 983c e90e 1f3c ab0d 9fbc
00000170: 61a1 3c3d 4207 363d dc2c 42bd 5cf3 0ebd
00000180: e1bd 8a3d 9527 e1bb 2a61 39bc 1f8b 81bd
00000190: 2557 19bd dcc6 853c 823a 8fbc b260 65bd
000001a0: 5f10 25bc 40f3 54bd d27e 79bd 5be3 0bbd
000001b0: ac6e 77bd 6446 3abd 03be 8b3d 5094 ce3b
000001c0: ca2a 843c a0d5 95bd 4391 14bd fe28 a2bc
000001d0: 011c 803c cdfc 50bd bf62 a0bc bad9 12bd
000001e0: e8e2 a53b 62c9 92bc 2c72 48ba 47bc 1ebd
000001f0: 2ae1 13bd 7bd2 15bd 0688 2ebc 6870 32bd
00000200: f7d3 5e3d 351d 08bb 1cbd 6c3d 1e9c b13c
00000210: 9a95 73bd 480b 2e3d ee98 32bc 8d6e babc
00000220: d8ad 38bd d627 56bd bc0d 293c 23c6 98bc
00000230: 74f5 943c 5fe9 3fbd a7bc 523d c805 4dbd
00000240: 7cf9 25bc c363 6f3c 05cd ef3c 8178 783d
00000250: a310 993d efbb 23bd a9ad ab3c 382d 9bbc
00000260: 3898 ff3b 2335 49bd 0f9b 833d ebd9 0bbd
00000270: 6440 1e3d e106 e63c 969c c53c b162 28bd
00000280: 9fd7 883d 3b6a 493c e1e7 8f3c 5938 4bbd
00000290: dc50 fe3c fce1 98bc 49ae 1dbd b272 363d
000002a0: 61ca 6e3c bf25 14bd 9686 07bd 9a98 4cbb
000002b0: 4d82 153d 70d8 88bc 83c7 18bd 3e63 b7bc
000002c0: 270a 48bd 91fc be3c 9142 4f3d 6f15 7cbd
000002d0: dec0 783c 1b53 0a3d bd36 423c f2b6 bebc
000002e0: dbc1 0b3d a5b6 0c3d e693 a53c 580d 69bc
000002f0: 19df 403a 5532 a43a 67c5 67bc 6ee3 99bb
00000300: 9caf 193d 2bf9 5a3d bd47 343c 4262 9bbc
00000310: 8b92 e4ba 6ed8 5e3c 80fc c33c 2123 ed3c
00000320: 44f2 75bd c79c 9abc 4f36 983d 3b9d fc3c
00000330: ea0e fcbb 8bb1 2dbd fdf9 bfbc ef0a 8abd
00000340: c7c1 f9bc d5ec 183c 1d3a 2f3d 8748 163d
00000350: 792a 55bd 69e1 01bd 629c 54bc a634 823d
00000360: 32d1 403c 7878 39bc 32c0 063d 69db c8bc
00000370: 7bea c1bc de9e 633d b29f abbc 81b9 3cbc
00000380: 5f0c 87bd 53c9 6a3d f0bc 563d 795b e73c
00000390: 3b0c 14bd 2ab8 81bd 110a 63bd afc8 633d
000003a0: 4b68 043d 477b 5b3d 005f 1e3d d335 ca3c
000003b0: 939d 59bc 06aa 40bd 630a 76bd f8d6 6abd
000003c0: d8d3 fa3c df87 ddbc 1459 9dbc c4f1 13bd
000003d0: 6804 1fbb 486b 5bbd ce8e 49bd 5714 983c
000003e0: 0f37 f0bc bbe9 243d 840a 7dbc bfb8 61bd
000003f0: f1e0 acbb 4165 d4bc 3fa2 c3bc ed0f 83bd
0.056621864 0.05822366 -0.0024769637 0.06057377 -0.016048152 0.016917724 -0.036058977 0.035654772
0.075674586 -0.05222404 0.054100707 0.029710075 0.0425566 0.0062554367 0.046306286 -0.013560992
0.047696404 0.027166598 -0.032657985 0.029395837 -0.022071755 -0.014923317 -0.03331545 0.040571336
-0.057369336 -0.022739697 -0.020531548 -0.039021928 0.023316748 -0.05697124 0.06827057 -0.051169578
0.053887445 0.022295415 -0.011827652 0.053168867 0.019345446 0.060813356 0.010748444 -0.012853981
0.021560496 -0.017763961 0.024409795 0.062726945 0.04891709 -0.03246859 0.03355319 0.013890465
0.04558739 -0.03088269 -0.065909676 -0.016790925 -0.047042094 0.052210674 0.028949559 0.03028004
0.018470801 0.0069956663 0.058653723 -0.04708135 0.00407656 -0.04683268 0.024096396 -0.010387428
0.027486082 -0.011730001 0.06078537 -0.03592073 -0.041342888 -0.028907675 0.061987527 0.019192498
0.07826978 -0.044658896 -0.053285792 -0.052851148 -0.049738687 0.027530849 0.030070152 0.04832049
-0.038634893 -0.041146725 0.03153165 -0.033128854 0.0492549 -0.017628465 0.031751852 -0.040537797
-0.037604503 0.018635133 0.009708145 -0.019415697 0.04605234 0.044440515 -0.047406062 -0.034900054
0.06774498 -0.0068711736 -0.01131467 -0.06325363 -0.037436623 0.016330175 -0.017483953 -0.05600042
-0.010074704 -0.051989794 -0.06091196 -0.03415237 -0.06040828 -0.045477286 0.06823351 0.0063043013
0.016133685 -0.07316136 -0.036271345 -0.019794937 0.015638353 -0.05102234 -0.019578336 -0.03585217
0.0050624497 -0.017918292 -0.00076464075 -0.038753774 -0.036103405 -0.036577683 -0.010652548 -0.04356423
0.054401364 -0.0020769362 0.057797536 0.021680888 -0.059468843 0.042491227 -0.010900719 -0.022757793
-0.045087665 -0.052284084 0.010318216 -0.018649166 0.018183447 -0.04685342 0.051449444 -0.05005434
-0.0101302825 0.014611187 0.029272566 0.060661796 0.07473876 -0.03997415 0.020956831 -0.01894246
0.0078001283 -0.04912294 0.064260595 -0.03414337 0.038635626 0.028079452 0.024122518 -0.041109744
0.066817515 0.012293394 0.017566623 -0.049614284 0.031044416 -0.018662445 -0.03849629 0.044542976
0.014574618 -0.03616881 -0.033087336 -0.0031218887 0.036501218 -0.016704768 -0.037299644 -0.02238619
-0.048837807 0.023313792 0.050600592 -0.06154388 0.015182702 0.03377066 0.011853871 -0.023280594
0.03412042 0.03435387 0.020212125 -0.014224373 0.0007357463 0.0012527207 -0.0141461855 -0.004696301
0.03752099 0.05346028 0.011003432 -0.018967751 -0.0017438693 0.013601406 0.023924112 0.028947415
-0.060045496 -0.018873585 0.074322335 0.030836692 -0.0076922076 -0.042405646 -0.023434633 -0.06740367
-0.030487908 0.009333809 0.04278003 0.03669026 -0.05204246 -0.03170911 -0.012976738 0.06357698
0.011768626 -0.011320226 0.032898135 -0.024518685 -0.02367138 0.05557143 -0.020950172 -0.011518837
-0.065941565 0.057320904 0.05242628 0.02824186 -0.036144476 -0.06333955 -0.055429522 0.05561131
0.032326024 0.053584363 0.038664818 0.024683869 -0.0132821975 -0.047037147 -0.0600685 -0.057333916
0.030618593 -0.027042327 -0.019207515 -0.036119238 -0.00242641 -0.05356911 -0.049208455 0.018564386
-0.029323129 0.040261965 -0.015444402 -0.05510783 -0.0052758385 -0.025927188 -0.023881076 -0.06399522

conv1.bias f4 [64]
00000000: 3b2a a6bc fa5f 0ebd 050e e73c d70e 523d
00000010: d681 7d3d 6e7d 5f3d 6d5c 213d f4bb d9bb
00000020: 1dd3 31bd da68 433c b022 413d f7ee 343c
00000030: ea4d 38bc c822 cfbb 2e67 55bd 87e0 a93a
00000040: b06d 803c e1f8 673d f080 943c 9ead 773d
00000050: 3a88 f73a 866a 5c3d 5290 1dbd bbb4 603c
00000060: 9cfa 6b3d 8435 9d3c 4d08 f2bc c8b2 223d
00000070: d40d 5ebd f5d8 fe3c 8b5b 1cbd f4d9 4d3d
00000080: 75ee ef3b 6e11 9d3c 2133 fabc 6b00 d1bb
00000090: dd1e 2ebd 51e1 3e3d 965b b33c 0b9b bbbc
000000a0: 73f6 cfbc 8ff9 f03c 805a 49bd 233f 3a3c
000000b0: 162c dbbc 36d2 4ebc a1aa 3d3d 8660 1bbc
000000c0: 0282 f93c 6863 11bd 4d33 293d 2c29 50bd
000000d0: e0ef 77bd b27b 66bd 0471 49bd e1a6 f7bb
000000e0: a756 90bd 8fd9 883c 1ff4 d0bc 637f 223c
000000f0: 3c6e 20bb 9156 aa3c c345 0bbc f213 70bd
-0.020283809 -0.0347595 0.028204927 0.051283684 0.0618914 0.05456298 0.039394785 -0.00664472
-0.043414224 0.011926854 0.04715222 0.011043302 -0.011249045 -0.006321285 -0.052100353 0.0012960591
0.015677303 0.056633834 0.018127888 0.06046831 0.0018885203 0.053812526 -0.038467713 0.0137149645
0.057612047 0.019190557 -0.029544974 0.03972128 -0.054212406 0.031109313 -0.03817324 0.050256684
0.0073221275 0.01917335 -0.030541958 -0.0063782237 -0.042509902 0.046601597 0.021894258 -0.022901079
-0.02538607 0.029415874 -0.049158573 0.011367592 -0.02675442 -0.01262336 0.046305303 -0.009483462
0.0304575 -0.03549519 0.04130869 -0.050820515 -0.060531497 -0.05627031 -0.049180046 -0.0075577353
-0.070477776 0.016705303 -0.025507031 0.009918067 -0.0024479767 0.020793231 -0.008500519 -0.05861277

lstm.weight_ih_l0 f4 [256, 64]
00000000: 4362 813d ce04 263e 1813 a4bb 7251 563e
00000010: fb7c ec3d 50f7 62bd 742c 1e3d 128c e5bb
00000020: 6c82 a43d a3d5 213d eb47 903d 7389 bb3d
00000030: 02e3 813e 8f93 823d 6bc4 253e ee19 a33e
00000040: 584d 543e d686 d6bb 9c12 a83d bec5 413e
00000050: 45ac 4e3c c489 b23d 9427 883d 2091 a93e
00000060: 8de9 933e b1b0 76bd be4c 2dbd 4436 893d
00000070: 4418 ccbd f675 3d3c a228 cb3c 2904 943d
00000080: 42dd a53e 07ac 123c 13cc 563e a8e5 bb3d
00000090: 56ba 7d3d 1233 823e 8a0c eb3d df70 1a3e
000000a0: 3f1a 243d 3722 593e 56bc 743e 3a9e 283e
000000b0: 6ae5 d0bd fa57 b43e e488 1a3e 4e16 293e
000000c0: 2f84 4d3e 949b 9cbd c570 913e 5b73 1b3e
000000d0: bec4 833d cadf c13c 9441 3a3e fff0 033d
000000e0: 8f67 293e d396 593e e02b b739 753d 5c3e
000000f0: a366 bebd a6de cb3d 46b7 773e 3202 5abc
00000100: 2f10 93bd ae4c a7be 95c3 26be 5acd 953e
00000110: 13ef 4e3e daef 3d3d 222d 523d 0a02 983c
00000120: 1287 803d a1ea 003f a03f 2a3d 1db3 353e
00000130: c2eb 9abc d967 523e 073a 10bd fe6e 723e
00000140: fb9d ea3d 78db 5a3d 0bcb a83c 7b29 0b3d
00000150: e033 1bbe 2204 2a3e b43b 9fbd c1ff 9e3e
00000160: 45c3 86be 39e8 153e 66d0 f93e 4a8d 5a3e
00000170: 154c 5b3e 3a32 12be 1033 d4bd e463 28bd
00000180: f219 1abe 8173 3c3e 9c4e 533c 3c64 c2bd
00000190: 82f8 043e 5fec 443d 76ad 853e 7d9e 803d
000001a0: fdb3 243d 6c75 103f c011 7ebd c34a 0c3e
000001b0: 76db 8dbe 81cb 013e d7bf a6be 6dee 5dbe
000001c0: 14b1 b93d 84e0 3b3d 4201 033e 54d3 af3d
000001d0: a1bd ca3d a638 73bd 9d3e 1a3d 1997 7f3e
000001e0: a318 783d a1d6 09be cd55 a43e e9e6 b6bd
000001f0: aeb2 8c3d 1cbd 55be 3908 c63e 6a5c 3dbe
00000200: 914c a93d 3219 b83d 88eb ad3e acde d73c
00000210: 48be 1a3e 426e ad3d 00aa 19bd 4d83 4abe
00000220: 5657 5e3d e029 253b 3803 263e 9b7e ef3c
00000230: a57d 4c3c 30fc 583e 4c85 f33d 8404 0abd
00000240: 06e5 8a3d edba e13d 0ab0 43bb 5af1 a43d
00000250: da61 5fbd 72a7 02be e0a4 133e 2f82 c8bd
00000260: 4982 483e 5acc 363e 3564 80bc c27b 1abd
00000270: 7cf1 933d afc9 0ebb 98b1 ac3e 70d0 cb3e
00000280: 9bfa 74bd effd 28be a540 3fbd a43f adbc
00000290: d26f 173d 935a a3bd cdc5 1c3d 289a abbd
000002a0: 23bd 683e d459 823d 28d1 d13c 53c8 683e
000002b0: 42b5 14be 58ce e83d c827 483e 9078 5d3e
000002c0: 8102 a93d 8c0d 0dbc d726 81bd e04e 5dbd
000002d0: d6ef b3bd ba2d 833e 1096 a63d 229a 77bd
000002e0: 1372 603e 2090 11bd ace0 913e 1920 aebd
000002f0: b34e 673c 238f 00be ca14 883e 049d 063c
00000300: deef 52bd 4e6c 4f3e e50b 283d bd68 c2bc
00000310: ec41 f23c 1f6d c33c cb1b a8bc 32fb 1e3c
00000320: d75e c83d 48d5 7cbc 5fa5 4d3e 8e11 673d
00000330: a490 b13c 70af 3f3d 4ae3 ef3d 867a c33d
00000340: 3f7c eebd b2cd a5bd 7cfb 943d 2e8d d73d
00000350: 29af 89bb 43c2 61be 12b2 41bd 910b dc3d
00000360: 4810 7a3d 5619 e13c e8b7 08bd 4414 c33d
00000370: ffd9 b4bd 3603 42bd 12a9 a63b 7b5c 843e
00000380: 3f56 0f3d eefe eb3d c3a8 ab3d ff77 babd
00000390: 8d0b dc3b a61e c63d e256 26be 31e2 5cbd
000003a0: e59e 5e3d 34f3 e33d 74a8 73bd 6bcd 033e
000003b0: a712 0ebe e722 f23d d427 6ebd 3d32 393e
000003c0: 6a8a 3fbc 86e1 b23c 3fb3 18bd 66bf a23d
000003d0: 0e3d a6bd 8750 79bd 5bde 88bd dda1 bfbd
000003e0: 844e 0fbe f6f1 4a3d 71d1 d7bc c793 113e
000003f0: 8c49 5a3d 36ed 803d 1b32 bb3d f9f6 183e
0.0631757 0.1621277 -0.005007159 0.20929506 0.11547276 -0.055411637 0.038616613 -0.007005223
0.080326885 0.03951038 0.07044967 0.09157076 0.25368506 0.06375801 0.16188209 0.3185572
0.2073263 -0.0065468354 0.082066745 0.18923089 0.012614314 0.08717683 0.06648174 0.33118534
0.28889123 -0.0602271 -0.042309515 0.066998035 -0.09965566 0.011563769 0.024799649 0.07227356
0.3239537 0.008952147 0.20976286 0.09174663 0.061945282 0.2542959 0.11477001 0.1508212
0.040064093 0.21204458 0.2389997 0.16466609 -0.10200007 0.3522337 0.15091282 0.16512415
0.20069955 -0.07646862 0.2840635 0.15180723 0.0643401 0.023666281 0.18189079 0.032212254
0.1654341 0.21248941 0.0003493717 0.21507819 -0.0929692 0.09954576 0.24191007 -0.0133061875
-0.07180821 -0.3267569 -0.16285546 0.29258233 0.20208387 0.04637132 0.051312573 0.01855566
0.062757626 0.50358015 0.041564584 0.17744108 -0.018911246 0.20547427 -0.03521159 0.23675153
0.11455914 0.053431958 0.020604631 0.033975106 -0.15156507 0.16603139 -0.07775059 0.310545
-0.26320854 0.14639367 0.48791808 0.2134296 0.21415742 -0.14276972 -0.10361302 -0.041110888
-0.1504896 0.18403436 0.01289716 -0.094917744 0.12985423 0.048076984 0.26108903 0.06280229
0.040210713 0.5642917 -0.062028646 0.13700394 -0.27706498 0.12675287 -0.32568237 -0.21672983
0.09066978 0.04586841 0.12793449 0.085852295 0.0989945 -0.059380196 0.03765737 0.24959983
0.06057037 -0.1346078 0.3209671 -0.08930761 0.06870018 -0.20872921 0.38678148 -0.18492284
0.08266557 0.089891806 0.3396876 0.026351295 0.15111649 0.08468296 -0.03751564 -0.1977665
0.05428251 0.0025201961 0.16212165 0.029235175 0.012481128 0.21189952 0.11890659 -0.033695713
0.06781964 0.110219814 -0.0029859566 0.08053847 -0.054536678 -0.12759188 0.14418364 -0.097904555
0.1958095 0.17851391 -0.015672782 -0.03771568 0.07223794 -0.0021787693 0.33729243 0.39807463
-0.05980931 -0.16503118 -0.04669251 -0.02114851 0.036971875 -0.0797626 0.038274575 -0.08379012
0.227284 0.063647896 0.025612429 0.22732668 -0.1452227 0.11367482 0.19546425 0.21628022
0.08252431 -0.008609187 -0.06306236 -0.0540303 -0.087859794 0.25620824 0.08134091 -0.060449727
0.21918516 -0.03553784 0.28491724 -0.08502216 0.014117884 -0.12554602 0.2657836 0.008216146
-0.051498286 0.20256159 0.04102697 -0.023731584 0.02957245 0.023855744 -0.020521065 0.009703444
0.09783714 -0.01543171 0.20082615 0.056413226 0.021675415 0.04679817 0.11713274 0.09544854
-0.11644792 -0.08095874 0.07274529 0.10524975 -0.004201789 -0.22046761 -0.04728896 0.107443936
0.061050683 0.027477901 -0.03337851 0.0952535 -0.08830642 -0.047366343 0.0050860727 0.25851807
0.03499436 0.11523233 0.08381798 -0.09104919 0.006715244 0.096738145 -0.1624408 -0.05392665
0.054350752 0.11130372 -0.05948682 0.1287133 -0.13874303 0.11823063 -0.05814345 0.1808557
-0.011690715 0.021836054 -0.037280317 0.079466626 -0.08117114 -0.060867812 -0.06683036 -0.09357045
-0.13994795 0.04954716 -0.026344987 0.14216529 0.053292796 0.062952444 0.09140416 0.14937963

lstm.weight_hh_l0 f4 [256, 64]
00000000: 8ba7 a8bd aa70 8cbd 9f49 5d3e 4fdb 9a3e
00000010: 6e7e a2bd 3276 5abe 51b1 0e3e b17b 4cbe
00000020: c1c5 403e fb04 a5be 96b0 da3d 863e b83e
00000030: 3809 ab3e 38f2 03bb 7c88 083f 3fe6 46be
00000040: 6a49 403e 3e1d 0f3e f491 643e 9250 6bbe
00000050: 242f 0d3e 1cba 95be 5068 52be ee9a 513d
00000060: a56e 46be 1d86 9cbe 9cbd 52be 714a 68be
00000070: f8bf c93e e8e2 93be f799 5abe 1200 eabc
00000080: 8cc2 953c b54d 853e d01d e83b 036c 933d
00000090: 459e 82bd c440 a6be a1e9 9cbd 9e40 cd3d
000000a0: db01 50bd 8864 c0bd 68c3 89be 10e0 44be
000000b0: e239 073e 51de 96be 1499 9d3e ff2a c1be
000000c0: 99f7 f0bc 2cf9 3cbe 5a02 153d 5a5f 81be
000000d0: 11c5 4abe e06d d23c e1ac 803e 67cb 9b3e
000000e0: 8fbd 163e d544 b3bd cab9 163e 99c9 9dbe
000000f0: 4476 8a3d 8231 063c 6ea0 363e e8cb bb3e
00000100: f6eb ec3d c402 b63d e58f db3c 9845 123e
00000110: 07c9 6dbd 362d 7abe d499 6a3e ac8f 5bbc
00000120: 38c8 5e3e 191d 3ebc 6682 453c 7865 03be
00000130: 5f89 9f3e c1bb 733d b840 8e3e 537e 59be
00000140: af7c e53c bd8e cb3d 16f9 0f3e 69d2 d4bd
00000150: faac 223e 7aae 6dbe 5929 e2bd dd42 68bd
00000160: 85e2 0dbe d9d7 c2bd 6a04 063b 733d 95be
00000170: 93dd a63e e1b3 79be be14 4abe 7282 2abd
00000180: 5747 45bd 8d43 5d3e 2dcc 1a3e e653 b4bd
00000190: 0aff 653d 194c 88be e92a 45be 8475 173e
000001a0: e0fd 673e 2979 f0bd fb0c 31be 79f5 c5bd
000001b0: f007 9ebd c02f 8ebe d57a 45bd 677c 20be
000001c0: 6416 433d f60c 4abe 8139 713d de27 b5be
000001d0: 37d2 b4be 6bf6 ec3d 8b41 183e b8a5 1a3e
000001e0: d758 113e f9ae 7cbd 7c01 0e3e bdc7 03be
000001f0: d304 39be e28b a83e 933c 013c 3a3e 53be
00000200: 587c bfbc b80c d33d 7b88 e73d 146c 863e
00000210: e81f 96bd febd 91be d923 d4bd 5a72 71be
00000220: 69e5 db3d 9a68 8f3c 302f 00bd 4c7d 683e
00000230: 2ddf 4b3e 0410 79bc 26cf 453e 072c fabc
00000240: 1fdb fd3d a30e 743e b466 8b3e 33fe 24be
00000250: c592 223d 0f2d 96be 9ff9 f53b 3a21 c7bd
00000260: 1278 c33d 5f37 44be 7a80 913b a452 eebd
00000270: 231b 1d3e 9493 7dbe efaf ecbd 0f46 533c
00000280: fec0 3bbd 86cb 2c3e a81d 0bbe 1073 0fbd
00000290: aa5b 31bd 89f0 71be 1a97 963d d482 92bb
000002a0: d510 003e ff25 3e3e 5aad f8bd bdb4 0abe
000002b0: a496 b93d bcaa 24be 2927 603e 170d 85be
000002c0: 7caf 863a a6ab 3cbe 8400 2e3e f055 90be
000002d0: 2956 35be aa2d 0d3d e8d4 d33d 3da0 003e
000002e0: cc29 3d3c 3000 46be 5fa8 063e c8df 2cbe
000002f0: 86f4 64bc 74c1 bdbc 53b2 a5bd 302f 773e
00000300: 5459 c3bd 96aa 0f3e b51b 94bd c4b5 f1bc
00000310: e841 11be aeca cebd 1a37 30bd 0cea 21be
00000320: e26a 093e 31e7 45be 31be 57be 0106 b93c
00000330: e487 753d c60d 6b3d 12df 593e 0681 1abe
00000340: 0544 343e dd3b 203e 3e2a fd3c b557 36bd
00000350: e062 313e d68d bc3d 7d7d cebc da1d 41bd
00000360: 06bc 9f3d 7cea 29be 1a14 42bd f196 38bd
00000370: 63eb 4d3e eec9 33bd 6f20 46bd 8728 313e
00000380: 8c8e 223e 5e87 91bc 4aa7 a73c 6444 2dbe
00000390: 8460 0ebd 3ea5 0dbe 899c 013d baba 123e
000003a0: ba8b 4cbd 8e43 aa3d 567d bd3b cd9f 25bd
000003b0: ebe3 1abe 2fe8 d33b 9ca5 683e ff73 8cbd
000003c0: 588e e33d a4f3 ec3c 2e4e dc3d 3175 a9bd
000003d0: dc45 b3bd 1afe debd 8247 f73d c972 463e
000003e0: bbb7 833d b96f 603d 1658 d43d ca9d 0d3d
000003f0: 3697 61bd a389 c6bd ecae 023d e2f8 2e3c
-0.08235081 -0.068574265 0.21610115 0.30245444 -0.07934271 -0.2133415 0.13934828 -0.1996906
0.18825437 -0.32230362 0.10678212 0.35985202 0.3340547 -0.0020133387 0.5333326 -0.1942377
0.18778005 0.13975999 0.22321302 -0.22979954 0.13787514 -0.29243553 -0.20547605 0.051173143
-0.19378145 -0.3057107 -0.20580143 -0.22684647 0.39404273 -0.28884053 -0.21347795 -0.028564487
0.018281244 0.26035848 0.007083632 0.07198336 -0.06377844 -0.32471287 -0.07661749 0.100220904
-0.05078302 -0.09394175 -0.26906896 -0.19226098 0.13205674 -0.2946649 0.30780852 -0.37728116
-0.029414939 -0.18454427 0.036379196 -0.2526806 -0.19801737 0.025687158 0.25131896 0.3042862
0.14720748 -0.08753363 0.1471931 -0.3081787 0.06760839 0.0081905145 0.17834637 0.36679006
0.115684435 0.08887246 0.026802013 0.1428436 -0.058053043 -0.24431309 0.22910243 -0.013400953
0.21756065 -0.011603617 0.012055015 -0.12831676 0.31159493 0.059505228 0.2778375 -0.21239595
0.028013555 0.099393345 0.14059862 -0.10391695 0.15886298 -0.23211089 -0.11043043 -0.05670439
-0.13855942 -0.09513826 0.0020449408 -0.29148445 0.32590923 -0.24385025 -0.19734475 -0.04162831
-0.048163738 0.216078 0.1511695 -0.08805065 0.056151427 -0.26620558 -0.1925465 0.14790922
0.2265544 -0.117418595 -0.17290108 -0.09665961 -0.07716358 -0.27770805 -0.048212845 -0.15672456
0.047628775 -0.19731507 0.05889273 -0.3538198 -0.3531663 0.11570438 0.14868753 0.15102279
0.14194046 -0.061690304 0.13867754 -0.12869163 -0.18068247 0.32919222 0.007887977 -0.20629206
-0.023374721 0.1030516 0.113053285 0.26254332 -0.073303044 -0.28465265 -0.103584 -0.23578778
0.10737116 0.017505933 -0.031295 0.22704047 0.19909354 -0.015201572 0.19317302 -0.030538572
0.1239531 0.23833708 0.27226794 -0.16112594 0.03969075 -0.29331252 0.007506564 -0.09723134
0.09544386 -0.19161747 0.0044403644 -0.11636856 0.15342383 -0.24763328 -0.11556994 0.012895121
-0.04583835 0.16874513 -0.13585532 -0.03502184 -0.04330031 -0.23626913 0.07353039 -0.0044711623
0.12506421 0.18569182 -0.12142439 -0.13545509 0.090619355 -0.16080755 0.21889938 -0.2598655
0.0010275687 -0.18424854 0.16992384 -0.28190565 -0.17708649 0.034467377 0.10343343 0.12561126
0.01154561 -0.19336009 0.13150166 -0.16882241 -0.013974315 -0.023163535 -0.08090653 0.24139094
-0.09538522 0.14029917 -0.07231847 -0.029505618 -0.14185297 -0.10097252 -0.0430213 -0.15811938
0.13419679 -0.19326474 -0.21068646 0.02258587 0.05994405 0.057386182 0.21276501 -0.15088281
0.17604072 0.15647836 0.030903932 -0.044517238 0.17322874 0.092067406 -0.025206322 -0.04714761
0.077995345 -0.16593355 -0.04738245 -0.045065824 0.20109324 -0.043893747 -0.048370775 0.17300616
0.1587469 -0.017764743 0.020465512 -0.1692062 -0.034760013 -0.13832566 0.031643424 0.14329043
-0.04993794 0.08313666 0.0057827635 -0.0404356 -0.15126006 0.0064668874 0.22719425 -0.06858062
0.11111134 0.02892477 0.10757099 -0.082743056 -0.08753559 -0.1088831 0.12074186 0.19379725
0.06431528 0.054794047 0.103683636 0.034574308 -0.055075847 -0.09694221 0.0319051 0.0106794555

lstm.bias_ih_l0 f4 [256]
00000000: 8b47 9d3c 9a36 e73d 3f88 cb3d 95a1 323c
00000010: 3e66 c93c fe7d bf3d fe6e b93d 728a e63d
00000020: 9d0f 8bbd fb7e 73bd 14c8 903d 95df bf3d
00000030: 01fa 083d f1c5 e8bc 7267 b53d f426 64bd
00000040: 90c4 fabc abbc a8bd 43b4 1c3d 132d adbd
00000050: 1e9f 1dbb c0c3 b7bd f4d6 6ebd 3ae2 96bd
00000060: 5096 85bc 86a5 85bc 7ee7 be3c 1d7a abbd
00000070: 86e8 abbd 70c3 5b3d 49fb 8bbd b91f 63bc
00000080: 66ff e93c 7944 c13c c04d d4bc f61d 4dbb
00000090: 7c8b 63bd 64f1 01be a8e1 ba3d e565 dabc
000000a0: 7ad9 adbd 4de2 79bd f243 043e fe24 cc3d
000000b0: 42e4 d13d b65d fabd 6dbf 3fbd c7db dfbd
000000c0: d092 383c 3c4c bf3c 6a85 a2bd 58a9 1cbc
000000d0: 7c59 abbd 7e21 ee3d e167 993d d25d 15bd
000000e0: 15e0 203d cf59 e13d 366e e4bd a9e5 053e
000000f0: 0730 e7bd 2525 97bc 1666 d53d 10d1 7fba
00000100: 7e7b 6a3d 971f 83bd aba2 b63d 42ba 4cbd
00000110: 648d 8bbd 488f 813b 4580 16bc 7433 24bd
00000120: 94ae 88bd a136 cc3d c2ce 54bd 2bc3 33bd
00000130: 605f d1bd 4d29 ec3d 341e e8bd 4ecc ba3d
00000140: db5b f8bc d966 92bd 4a76 20bd 3bae bdbd
00000150: 8c01 debc 8906 aa3d a0d5 d53c 373a d13d
00000160: 78d6 283c 1f06 f83d a0da 79bd b72a ecbd
00000170: 7807 8d3d 21b6 fabc 48cf 933d 768d c23d
00000180: 0a9f 0d3d 09ed 24bd c544 c13d 0872 153b
00000190: 9f5c 8e3d b0ec b7bd 0c03 053c cd53 293c
000001a0: 4a2f 9dbd 9f33 97bd fbcd 383d 1e8c e43d
000001b0: fed5 983d cfd7 eb3d 7918 da3d fe87 3fbd
000001c0: 9f25 8e3d 70cf ecbd 68cf 43bd ee22 72bd
000001d0: f267 a2bd 926c f4bd f555 9c3d 9879 88bd
000001e0: 6616 e6bd 8c6f 31bd 2152 e43d 8f0d b2bc
000001f0: bf51 973c 4bb4 8d3d 5fd0 913c b666 a0bd
00000200: e9ac 013e 1c52 3c3d d950 da3d add1 713d
00000210: 509f 38bd c1e5 733d af3b 033d c8e1 b1bc
00000220: 30bd fc3d 305b 49bc adfb edbc 0f1d 383d
00000230: 2479 66bc 8fdc f43d 97e1 ef3d b2b9 6c3d
00000240: 3305 d83d 0738 a73c ed7b f73d f27e be3d
00000250: 2eea d83d bded 1d3d 6e2c a8bd e6fa 443d
00000260: 96c1 0b3d 7038 ab3d 046a b4bd dd3a bbbd
00000270: 3b39 923d 41ec 6ebc 2183 613d 484c b7bc
00000280: 9fac 813d 3828 7abd 4b05 9cbd 3967 94bd
00000290: 50b9 75bc 0ba8 e7bd 41b1 e9bd 89c8 7b3d
000002a0: 2837 9cbd e907 c3bd bf93 bcbd e833 033d
000002b0: a8d4 c5bd 8c99 e0bd 05e9 563d 125a e8bd
000002c0: 6a48 dfbd b8d1 e4bc 715c f7bc 4403 65bd
000002d0: 936d 5f3c 3f27 17bd 8ed7 943d 2369 7abd
000002e0: e63b 353d 14c0 aabc 3199 833d 0b0c 91bd
000002f0: 553b 96bd 6c83 a9bc 0ac6 693d fa14 e53c
00000300: 43f9 60bc 4541 413d ddd4 123d 9f93 12bc
00000310: 7290 8dbd 06a5 50bd 6f76 babd ca9a febd
00000320: 8b8b e33d 840a b3bd 36a0 22bd 51d0 d03d
00000330: d931 d4bd 23a0 56bd 7f90 49bd cbf4 9cbd
00000340: a0a0 5bbc 1481 94bc 7f84 943d e61a eb3b
00000350: c9a8 803d 6256 813c 3ec6 9e3a 4e22 cc3d
00000360: cbf8 1abd d771 00be 94c6 05be 3704 dbbd
00000370: 24db f6bb fd39 353d dfa5 453d eedc d7bc
00000380: cde3 cb3d 1931 cabd 6921 483d 70fb ba3d
00000390: 6be0 5cbd e6a2 25bc 4c45 b8bd 4ad4 b7bd
000003a0: 53c6 653d 4a81 06bc cba6 acba 8cdb c83a
000003b0: 77f0 883d 8e18 77bc a46a 2abd ed4e edbd
000003c0: 18b7 dd3d 0db2 45bd c073 8b3d 1a3c be3d
000003d0: b996 96bd 79f7 8fbd e49a f73d 282a 6e3d
000003e0: 25fb a9bd 1c54 2ebc 8886 7cbc 1fc7 ecbd
000003f0: 7776 e4bd 388d 8c3c c7c5 28bd 1bf2 e73a
0.019199153 0.11289711 0.09938096 0.010902782 0.024584886 0.09350203 0.09054373 0.11256875
-0.06790087 -0.05944727 0.07069412 0.09368817 0.033441547 -0.028414698 0.08857621 -0.05570121
-0.030611306 -0.082391106 0.03825785 -0.08455863 -0.002405114 -0.08972883 -0.058310464 -0.07367368
-0.016307026 -0.01631428 0.023303743 -0.08372901 -0.0839396 0.05365318 -0.06835038 -0.013862544
0.028564166 0.02359222 -0.02591598 -0.0031298376 -0.055552945 -0.1268974 0.09125072 -0.026659915
-0.08488746 -0.061006833 0.12916544 0.09967993 0.10248615 -0.12224905 -0.046813417 -0.10930591
0.011265472 0.023351781 -0.07935603 -0.009561859 -0.08366677 0.11627482 0.074905165 -0.036466427
0.0392762 0.11003458 -0.111538336 0.1307589 -0.11288457 -0.01845033 0.10419862 -0.0009758631
0.057246678 -0.0640251 0.08917745 -0.049982317 -0.068140775 0.003953848 -0.009185855 -0.040088132
-0.06673923 0.09971357 -0.051954992 -0.0438873 -0.102232695 0.11531315 -0.11333886 0.09120999
-0.030317238 -0.07148523 -0.03917531 -0.092617474 -0.027100347 0.08302028 0.02610284 0.10216182
0.01030504 0.121105425 -0.060999513 -0.11531585 0.0688619 -0.030604424 0.0721727 0.09499638
0.0345755 -0.040265117 0.09436945 0.0022803564 0.0695126 -0.089806914 0.008118402 0.010334921
-0.07675035 -0.07382893 0.045118313 0.11159538 0.07462691 0.115157716 0.10649199 -0.04676055
0.069407694 -0.11563003 -0.04780522 -0.059115343 -0.07929982 -0.11934771 0.076335825 -0.06663817
-0.11234741 -0.04331927 0.11148477 -0.02173498 0.018471597 0.06919154 0.017799554 -0.078320906
0.12663616 0.045976743 0.10659952 0.059037853 -0.045073807 0.059545282 0.03203934 -0.021714106
0.12340772 -0.012289807 -0.029050672 0.044949587 -0.014066968 0.11956131 0.1171295 0.05779428
0.10547867 0.020412458 0.12084184 0.09301557 0.10591541 0.038556803 -0.08211599 0.048090838
0.034120165 0.08360374 -0.088092834 -0.09142087 0.07139822 -0.0145826945 0.055056695 -0.02237524
0.06331753 -0.06107351 -0.07618197 -0.07246251 -0.014997795 -0.113113485 -0.114107616 0.061470542
-0.07627708 -0.09522993 -0.09207868 0.032031924 -0.096597016 -0.10966787 0.05246832 -0.113453045
-0.10902484 -0.027932033 -0.030195447 -0.055911317 0.013636964 -0.036902662 0.07267676 -0.061135422
0.044246577 -0.020843543 0.06425703 -0.07082375 -0.073355354 -0.02069255 0.05707363 0.027964104
-0.013731304 0.047181387 0.035847533 -0.008946328 -0.069123164 -0.05093863 -0.09104621 -0.124318674
0.111106 -0.0874224 -0.03970357 0.10195983 -0.1036107 -0.052398812 -0.049210068 -0.07663878
-0.013404995 -0.018127955 0.07251834 0.0071748374 0.06282193 0.01578826 0.0012113524 0.099674806
-0.037834924 -0.12543426 -0.13064033 -0.10694163 -0.007533448 0.044244755 0.04825389 -0.026350465
0.09955559 -0.09872646 0.048859987 0.09129989 -0.05392496 -0.010109639 -0.08997592 -0.08976038
0.05609734 -0.008209536 -0.0013172267 0.0015324219 0.0668649 -0.015081538 -0.041605607 -0.115873195
0.10825938 -0.048265506 0.06809187 0.09288807 -0.07352967 -0.070296235 0.1209009 0.058145672
-0.08299855 -0.01064017 -0.015412934 -0.11561417 -0.11155408 0.017157182 -0.04120424 0.0017696054

lstm.bias_hh_l0 f4 [256]
00000000: f2ac c7bd eccf 4abd 4f09 6a3d 68b5 85ba
00000010: fac5 503d 9e9f f33d 8c13 223d 43b8 b83c
00000020: 21ea b53d b17c b13d 0455 b83d f37b 033c
00000030: 5037 a3bd 6541 6c3d 92b5 92bd 389d c4bd
00000040: fca6 28bd ffe5 2a3d 5c3b 7dbd 4b8e 5a3d
00000050: 90ab bfbb 64ab 8bbd 46fd a0bd 4308 85bd
00000060: f9ee e7bd a181 b83c 959a 733d 494b bf3d
00000070: 9663 cc3d 6016 ddbd 9bad c7bd e6e6 ec3d
00000080: 49e0 28bd 53cf 4ebd ee91 1abd 169c a03d
00000090: 3a37 e0bd 2fee a0bd 6a22 2a3d 6635 18bd
000000a0: a4e8 a2bd 7773 203b 631e ea3d e8db bb3d
000000b0: 8ed2 30bd 0a98 933d a3fc e93c 713b bd3c
000000c0: a269 f33d 4315 cfbd 9e98 91bd 0a6f d4bc
000000d0: 823e b5bc feb9 11bd 295f 963d 0606 3fbd
000000e0: 28a6 c4bd ef2d 96bd 3564 023e 1248 ccbd
000000f0: f116 2c3d 37ee 063d 6fea 82bc c913 003e
00000100: b73f 82bb adf0 e53d 99cf debd 6292 b43d
00000110: 23a0 ea3d 0e75 1e3d a352 db3d e728 81bd
00000120: 2a4b 22bd 17f6 e73d fa77 423d 9570 f8bd
00000130: 5769 1d3d 8680 3a3d 083f 943d faa2 09bd
00000140: f014 69bd 6be7 df3d 5758 eb3d 6249 5ebd
00000150: 5d99 39bd 33d4 a93d 9950 b1bd 3587 5c3d
00000160: cc95 c03d 4163 0ebc 5431 9cbd f7bf 2d3d
00000170: 5c3e 3b3d 806b ac3d 6001 e73d f413 b93d
00000180: 9225 693d 020e d0bd b76f 873d a9db ce3d
00000190: db17 ffbd 9289 e63d 8782 bbbd 2df7 46bd
000001a0: 2f4e 4c3d 8fc9 ac3d 7100 5abd 14e1 893d
000001b0: 0911 00be a001 b2bc 6035 29bd 36ab 823d
000001c0: 0751 d63d b44e c7bd 0298 c03c 82ab d2bd
000001d0: 36a0 a3bd 0c3e cabd f765 8b3d 24d6 cbbd
000001e0: 36fd c53d 75be bbbd abfd f33c 33f5 f2bd
000001f0: fd28 bc3d 793b a33d deaf cebd 45f1 173d
00000200: 1fc3 e3bd a103 f63d 9bea 0f3d 57e0 58bc
00000210: 4431 7c3b bc45 963d f27f a83b cfde 5fbd
00000220: b238 b3bd 769e fa3d 51f2 dbbd 84a6 fa3b
00000230: 45a9 cd3d a85c dabd 6c1d 8e3c d7d2 3f3b
00000240: 5d00 bd3d 44bc d9bd 52ac 26bd 0a2f c7bd
00000250: 3467 c33d e19d ffbb c1d9 15bd 1046 e73b
00000260: 84d5 8abc 24eb 48bd 3206 c93d e3a8 3c3d
00000270: 1b5d 4f3d 5094 fbbd 4798 873d 75f3 5a3d
00000280: beeb f33d 1eda e23d e787 88bd 4a39 9ebc
00000290: ee55 3cbd 9545 e4bd 3134 b4bd d618 833d
000002a0: 5cb2 ed3d e67d 3abc d5ca ddbd 9920 9abd
000002b0: 82c8 a8bd 7af2 8abd 73af a53d 8e2e 323b
000002c0: f1f0 293d e708 4dbd ad93 84bc 3178 cebd
000002d0: 7f65 ec3d 59c3 583d b856 983d c706 ee3d
000002e0: 811a 9a3d 80ef 5b3d c7ca e1bb 5952 893a
000002f0: 0d44 c7bd bcba ce3c 74dc 6f3d 777d 0bbe
00000300: 2ea3 bdbd 09a0 543d 05e0 9abd e5d2 ba3d
00000310: 3c08 87ba b641 45bd 9da5 a3bd ed6d 89bd
00000320: b8e6 de3c 9af6 f7bd 267c aa39 4977 953d
00000330: 0bf7 78bd 8f0b 85bd edbf e0bd c2bf 6bbd
00000340: 039d a3bd ed20 83bc b904 7e3d fb6d d13d
00000350: ce6a 44bc 4a2c cbbd 6f71 943b 12a9 afbd
00000360: cc6e e83d 058d ce3d 51fb a53b 1b47 a3bd
00000370: e43e 7b3d 4451 a3bd 3b71 2c3d f88e 8fbd
00000380: 3c7a c7bc d1f5 2fbd 89bd debc d43b 033e
00000390: e693 59bc a83c ad38 203a c43d fc92 78bc
000003a0: 11d1 00be d939 eb3d e037 a4bd 21f9 e3bb
000003b0: 41ac a43d cb2e 383d 6d13 a1bd 3301 d3bd
000003c0: cdf5 8d3c 7be2 0a3d e597 5f3d 35aa af3c
000003d0: 85b1 c53d 51f6 cd3d a475 efbd c822 ea3d
000003e0: 373c f9bd 16a0 82bd fdc3 b2bd eb81 d6bd
000003f0: 6759 e6bc a881 e33c ce27 8cbd 20c4 af3c
-0.097497836 -0.049514696 0.057137784 -0.0010201158 0.050970055 0.11895679 0.039569423 0.0225488
0.08882547 0.08666361 0.090005904 0.008025157 -0.079695344 0.057679553 -0.07163538 -0.096002996
-0.041174874 0.041723248 -0.061824188 0.053358357 -0.0058493093 -0.068197995 -0.07860808 -0.064957164
-0.11324877 0.02252275 0.059473593 0.093405314 0.09979932 -0.10795283 -0.097499095 0.11567478
-0.04122952 -0.05049069 -0.037736826 0.07842271 -0.10948034 -0.0785793 0.041536726 -0.0371603
-0.07954529 0.0024482885 0.11431577 0.09172803 -0.04316955 0.072067335 0.02856285 0.023099633
0.11885382 -0.10111477 -0.071091875 -0.025931854 -0.022124533 -0.035577767 0.07342369 -0.046636604
-0.09602004 -0.0733298 0.12733538 -0.09974684 0.042014066 0.032942023 -0.015980927 0.12507547
-0.0039748806 0.11227546 -0.1087944 0.08816983 0.11456325 0.03868585 0.10709121 -0.0630663
-0.039622463 0.11326235 0.0474777 -0.12130848 0.038430538 0.045532726 0.07238585 -0.033602692
-0.056904733 0.10932811 0.11491459 -0.054269202 -0.045312274 0.08292427 -0.08657951 0.05383988
0.094035715 -0.008690656 -0.07626596 0.0424194 0.045713767 0.084189415 0.11279559 0.09037009
0.056920595 -0.10158922 0.06613105 0.101004906 -0.12455722 0.11256708 -0.091557555 -0.04857557
0.04987925 0.08436882 -0.053223077 0.06732383 -0.12506498 -0.02172929 -0.041310668 0.06380312
0.104646735 -0.09731808 0.023509983 -0.10286619 -0.07989542 -0.09875116 0.068065576 -0.099529535
0.09667437 -0.09167186 0.029784044 -0.11863174 0.091875054 0.07970328 -0.10092138 0.037095327
-0.11121201 0.12012411 0.035135847 -0.013237081 0.0038481513 0.073375195 0.0051422054 -0.054655846
-0.08751048 0.12237255 -0.107395776 0.0076492447 0.10042051 -0.10662204 0.017348014 0.0029269957
0.09228585 -0.10631612 -0.04069168 -0.09725769 0.09541169 -0.007800803 -0.03658462 0.0070579126
-0.016947515 -0.049052373 0.09815635 0.0460595 0.0506259 -0.12284148 0.066208415 0.053454835
0.11910199 0.11076759 -0.06666546 -0.019314427 -0.045980386 -0.11146084 -0.08799017 0.064012215
0.11606285 -0.011382556 -0.10829703 -0.07525749 -0.08241369 -0.0678453 0.08090105 0.0027188393
0.041489545 -0.050057318 -0.016183699 -0.100815184 0.11542796 0.052920673 0.07438415 0.116223864
0.075245865 0.053695202 -0.006890628 0.0010476812 -0.097297765 0.025235526 0.05855985 -0.1362208
-0.0925964 0.051910434 -0.075622596 0.09122256 -0.0010302137 -0.04815837 -0.079905726 -0.0671042
0.027209625 -0.121075824 0.00032517425 0.072981425 -0.060782474 -0.06496345 -0.10974107 -0.05755592
-0.07988932 -0.016006911 0.062016223 0.10226055 -0.011988355 -0.09920557 0.004530124 -0.085771695
0.11349258 0.10085491 0.0050653596 -0.07972547 0.061339274 -0.079744846 0.042100172 -0.07009691
-0.024350278 -0.04295904 -0.027189987 0.12815791 -0.013279891 8.260581e-05 0.09581399 -0.015171763
-0.12579753 0.11485643 -0.0801847 -0.0069571887 0.08040667 0.0449665 -0.07865033 -0.10302963
0.017329121 0.033907395 0.054588217 0.021443466 0.09653 0.10056747 -0.1169236 0.11432415
-0.12169688 -0.0637819 -0.08728788 -0.10473999 -0.028118802 0.027771786 -0.0684353 0.021455824

fc.weight f4 [1, 64]
00000000: 1fab aabe 64fb 0abf 816a debe 7895 53be
00000010: 69d2 15bf 5a6c c2be 13fd 63be 8c4e 7f3e
00000020: 7784 13be 41d9 8d3e 3ded 07bf 7f55 f8be
00000030: 2ca8 1abe 126f 20be 9742 3dbe b382 013f
00000040: 61f2 1e3f 8849 6dbd 60d9 b23e e3a5 923e
00000050: 4a18 123f 5762 c23e 886e 193e 165c a5be
00000060: c927 a83e fab4 db3e f79c 2c3f c2b4 e23e
00000070: 8d85 233b 1ae4 c7bd beec 853e bcf5 a93e
00000080: 055c 073e 4413 adbe 5ad7 6dbe 9853 30bf
00000090: 7aa5 003f 7694 0dbe 998b 293e 424c ea3e
000000a0: 8a0a a03e bc07 923e 948d 1f3e 3ce4 3e3e
000000b0: 7afc c9be 0e51 57bd 3414 f73e 9ea5 b63d
000000c0: 68e9 3d3e 2bf3 913e c387 903e 2f38 b9be
000000d0: f8a1 c5bc 60e2 cb3e be8e 27be d277 653d
000000e0: 0e38 6abe 4de2 f2be 6c92 3ebe cc4a 903e
000000f0: 1781 743e 5ee0 c6bc ce7d bbbe 7fb3 a43e
-0.3333368 -0.5428984 -0.4344063 -0.20662487 -0.58524185 -0.3797329 -0.22264509 0.24932307
-0.14406 0.27704814 -0.5309637 -0.48502728 -0.15103215 -0.1566737 -0.18482433 0.50590056
0.6208859 -0.057931453 0.3493147 0.28642187 0.5706831 0.37965652 0.1498357 -0.32296818
0.32842854 0.42911512 0.6742701 0.44278532 0.0024951429 -0.09760304 0.26157182 0.33195293
0.13218696 -0.3380376 -0.23226681 -0.68877554 0.502525 -0.13826165 0.16557159 0.45761305
0.3125804 0.28521526 0.15581352 0.18641752 -0.39450437 -0.052567534 0.482576 0.08918308
0.18546069 0.28505835 0.28228578 -0.36175677 -0.024125084 0.39821148 -0.16363046 0.056022473
-0.22872946 -0.4743828 -0.18610543 0.28182065 0.23877369 -0.024276908 -0.3661942 0.32168195
