model/fl_checkpoints/global_round_2.pt (torch, 196820 bytes, 7 tensors)

conv1.weight f4 [64, 78, 3]
0	0x3d3b42fa	0.04571817
1	0x3d3410f4	0.04396148
2	0xbc94ad76	-0.018149119
3	0x3d76da4d	0.06026678
4	0xbcac155a	-0.021006275
5	0x3c2470f0	0.010036692
6	0xbd0fa55a	-0.0350698
7	0x3d0430d5	0.032273132
8	0x3d53a6e6	0.05167284
9	0xbd58554e	-0.052815728
10	0x3d68cfc0	0.05683875
11	0x3b877da3	0.00413485
12	0x3d1879e8	0.037225634
13	0x3b92774b	0.0044697872
14	0x3ce86531	0.028368564
15	0xbc80a50a	-0.015703697
16	0x3d350b5b	0.044200283
17	0x38dd8060	0.00010562013
18	0xbd27b5e6	-0.040944956
19	0x3c7893b4	0.015171934
20	0xbcef6416	-0.02922253
21	0xbc6e0948	-0.01452858
22	0xbcf9150a	-0.03040554
23	0x3d192e02	0.037397392
24	0xbd7ec028	-0.062194973
25	0xbd0077b3	-0.031364154
26	0xbcd08b89	-0.02545716
27	0xbd4cb5e6	-0.04997816
28	0x3bbb1afd	0.0057100044
29	0xbd873b20	-0.06603074
30	0x3d3a5a26	0.04549613
31	0xbd704447	-0.058658864
32	0x3d3b79b5	0.045770366
33	0x3bbd6f72	0.0057811076
34	0xbcb37240	-0.021905065
35	0x3d09e02b	0.03366105
36	0x3bf79ce3	0.007556544
37	0x3d434f9e	0.04768335
38	0xbb50cdac	-0.0031860871
39	0xbce50e04	-0.027960785
40	0x3c9d830c	0.019227527
41	0xbcd50b32	-0.026006315
42	0x3cdae078	0.026718363
43	0x3d6a452e	0.05719488
44	0x3d21016f	0.039308008
45	0xbd01d1ee	-0.031694345
46	0x3ce6661a	0.028124858
47	0x3c0638b2	0.008192228
48	0x3d090518	0.033452123
49	0xbd31a724	-0.04337229
50	0xbd879112	-0.06619467
51	0xbd05596c	-0.032555982
52	0xbd5d89b8	-0.054086417
53	0x3d50a0f3	0.050934743
54	0x3c8ed6d2	0.017436419
55	0x3ccacffa	0.024757374
56	0x3c923774	0.017848708
57	0xbb8d6b28	-0.0043157525
58	0x3d5786b4	0.052618697
59	0xbd3e5a8e	-0.04647308
60	0x3b315e5a	0.0027064295
61	0xbd4029a6	-0.04691472
62	0x3ca6920a	0.020333309
63	0xbd027142	-0.031846292
64	0x3c2632ba	0.01014393
65	0xbc49e3fa	-0.01232242
66	0x3d4117a8	0.0471417
67	0xbd4b668c	-0.049658343
68	0xbd46e689	-0.0485597
69	0xbd426b70	-0.04746574
70	0x3d61104c	0.054947183
71	0x3c2621ac	0.010139864
72	0x3d5d63fa	0.054050423
73	0xbd84d29b	-0.06485482
74	0xbd916f0e	-0.0710126
75	0xbd63b88e	-0.055595927
76	0xbd4fee00	-0.050764084
77	0x3cb00b6d	0.021489823
78	0x3ca1e47e	0.019762274
79	0x3d560e1c	0.05225955
80	0xbd224416	-0.039615713
81	0xbd355710	-0.044272482
82	0x3ce5299d	0.027973944
83	0xbd13213c	-0.035920367
84	0x3d075d24	0.03304781
85	0xbc9b2dc2	-0.018942717
86	0x3cefd1e2	0.029274885
87	0xbd56fdec	-0.052488253
88	0xbd0f0c43	-0.034923803
89	0x3c981057	0.018562479
90	0x3c6eb89e	0.014570383
91	0xbcc0a280	-0.023514986
92	0x3d27e740	0.04099202
93	0x3d26bda8	0.040708214
94	0xbd55de20	-0.052213788
95	0xbd3f5144	-0.04670836
96	0x3d5b8653	0.0535949
97	0xbceebd3b	-0.029142966
98	0xbcd1b48e	-0.02559879
99	0xbd7b8b94	-0.06141241
100	0xbd2f5401	-0.04280472
101	0x3c686467	0.014184094
102	0xbc53ad70	-0.012919769
103	0xbd55dc35	-0.05221196
104	0x3b304b90	0.0026900508
105	0xbd5448e0	-0.05182731
106	0xbd873813	-0.06602492
107	0xbd240693	-0.040045332
108	0xbd87be60	-0.06628108
109	0xbd3ea2d4	-0.046542004
110	0x3d8098ed	0.06279168
111	0x3c1ad10a	0.009449253
112	0x3c81928f	0.015816955
113	0xbd8b01d7	-0.0678746
114	0xbd39b5f4	-0.04533954
115	0xbcf14305	-0.029450903
116	0xbac532d1	-0.0015045052
117	0xbd6c8503	-0.057744037
118	0xbd281192	-0.04103238
119	0xbd1e6f18	-0.038680166
120	0xbc2f7162	-0.010708185
121	0xbcf577b0	-0.029964298
122	0xbc8dbd2c	-0.017302118
123	0xbd52e102	-0.051484115
124	0xbd52f347	-0.05150154
125	0xbd27d2d2	-0.04097254
126	0xbcaf4460	-0.021394908
127	0xbd6cc07c	-0.057800755
128	0x3d62f0bd	0.055405367
129	0xbca06ebf	-0.019584058
130	0x3d4e861c	0.050420865
131	0x3c95124d	0.018197203
132	0xbd73f77e	-0.0595622
133	0x3d36933e	0.044574015
134	0xbcadd71c	-0.021220736
135	0xbd015c4c	-0.03158216
136	0xbd62a846	-0.05533626
137	0xbd9a281e	-0.07527183
138	0x3c41b189	0.011822113
139	0xbc9ac00c	-0.018890403
140	0x3cc335d2	0.023829374
141	0xbd5d4fb4	-0.05403109
142	0x3d3ec128	0.046570927
143	0xbd63dbd8	-0.05562958
144	0xbc2d1222	-0.010563405
145	0x3c27f242	0.01025063
146	0x3cc7ab0c	0.024373554
147	0x3d349ff6	0.044097863
148	0x3d789d55	0.06069692
149	0xbd793bb6	-0.06084796
150	0x3c4ebd2c	0.012618344
151	0xbd251995	-0.0403076
152	0xbc2d3f16	-0.010574123
153	0xbd598e34	-0.05311413
154	0x3d5a5384	0.053302303
155	0xbd5d05ee	-0.053960733
156	0x3cf2e5f6	0.02965067
157	0x3c51950a	0.012791881
158	0x3c99486e	0.018711295
159	0xbd175a48	-0.036951333
160	0x3d6165eb	0.055028837
161	0x3bf0ee1c	0.0073526036
162	0x3b82755e	0.0039812764
163	0xbd63e58c	-0.055638835
164	0x3ce6751a	0.02813201
165	0xbc259e8d	-0.010108602
166	0xbd0cfe70	-0.034422338
167	0x3d6da211	0.058015887
168	0x3c80877f	0.01568961
169	0xbd3cc02b	-0.046081703
170	0xbd05c3f8	-0.032657593
171	0xbbf35014	-0.0074253175
172	0x3d006038	0.03134176
173	0xbcac5709	-0.021037595
174	0xbd280385	-0.04101898
175	0xbcdd2932	-0.026997183
176	0xbd5f529b	-0.054522138
177	0x3c9b0509	0.0189233
178	0x3d40467c	0.04694222
179	0xbd8fa354	-0.07013574
180	0x3c1d1f30	0.009589955
181	0x3d0bdc4d	0.034145642
182	0x3c474364	0.012162063
183	0xbd0bfc90	-0.03417641
184	0x3d00b020	0.031417966
185	0x3d006931	0.03135032
186	0x3cc25c4e	0.023725655
187	0xbcb3fcc4	-0.021971114
188	0xbceb9ca6	-0.02876122
189	0x3b858e7c	0.0040758234
190	0xbc9fc41a	-0.019502688
191	0xbcf0a6ea	-0.029376466
192	0x3d119999	0.035546873
193	0x3d6d11da	0.057878353
194	0xbc6b4a69	-0.0143610025
195	0xbcb70bbc	-0.022344463
196	0xbbb09ecf	-0.005390025
197	0xbbbb2eba	-0.0057123573
198	0x3c848841	0.016178252
199	0x3c6dccd9	0.0145141715
200	0xbd844824	-0.06459072
201	0xbcf25ccf	-0.02958527
202	0x3d59dae0	0.05318725
203	0x3ca58fe2	0.02021021
204	0xbbaee340	-0.005337149
205	0xbd1e0dda	-0.03858743
206	0xbd2c75ee	-0.042104654
207	0xbd811ae6	-0.063039586
208	0xbcefc70a	-0.029269714
209	0x3ca0e78a	0.019641656
210	0x3d16ee64	0.03684844
211	0x3ceb21fe	0.028702732
212	0xbd939190	-0.07205498
213	0xbd33c996	-0.04389342
214	0xbc080c37	-0.0083036935
215	0x3d62258c	0.05521159
216	0x3b54eae9	0.003248865
217	0xbccc5c70	-0.024946421
218	0x3cb5a3f8	0.022172913
219	0xbd0c522e	-0.03425806
220	0xbd58e276	-0.052950345
221	0x3d3c6bfe	0.046001427
222	0xbd19b8c2	-0.037529714
223	0xbc969060	-0.01837939
224	0xbd9274a9	-0.071511574
225	0x3d079f94	0.03311117
226	0x3d3e9864	0.04653205
227	0x3cb9705b	0.022636583
228	0xbd51b905	-0.05120184
229	0xbd957b80	-0.072989464
230	0xbd709780	-0.05873823
231	0x3d2eb310	0.042651236
232	0x3cc05de8	0.023482278
233	0x3d5ef9aa	0.054437317
234	0x3d28aed9	0.041182373
235	0x3c62e4d4	0.013848502
236	0x3ba69b54	0.0050844345
237	0xbd6104ca	-0.054936208
238	0xbd72a8ed	-0.05924313
239	0xbd47ac3d	-0.048748244
240	0x3cb46c16	0.022024196
241	0xbcfd7100	-0.030937672
242	0xbbd9514c	-0.006632006
243	0xbd255cb8	-0.040371627
244	0xbbc65756	-0.0060528917
245	0xbd2c5f46	-0.042083047
246	0xbd3b457e	-0.04572057
247	0x3cbdf71c	0.02318912
248	0xbc395edc	-0.01131412
249	0x3d0f20ef	0.034943517
250	0xbcd4ae7e	-0.02596211
251	0xbd351b26	-0.044215344
252	0xbc48a4c8	-0.012246318
253	0xbd1e308b	-0.038620513
254	0xbbfe3b7e	-0.007758557
255	0xbd762008	-0.06008914

conv1.bias f4 [64]
0	0xbc1249f4	-0.008928765
1	0xbd0c68c9	-0.03427962
2	0x3d04593d	0.032311667
3	0x3d90dd5b	0.0707347
4	0x3dad202a	0.084534004
5	0x3d4bb8ba	0.049736716
6	0x3d292426	0.04129424
7	0xbc30e260	-0.0107961595
8	0xbcd58300	-0.026063442
9	0x3cf5b4be	0.029993411
10	0x3d2b9315	0.041888315
11	0x3cac4056	0.021026772
12	0xbc9881e0	-0.018616617
13	0x3c1868ed	0.00930236
14	0xbd4778e6	-0.048699282
15	0xbb96412e	-0.0045854067
16	0xbb6fce90	-0.0036591627
17	0x3d2a0bc5	0.04151513
18	0x3c1779a2	0.009245308
19	0x3d991d4c	0.07476291
20	0xbb7f01fe	-0.00389111
21	0x3d2dfee6	0.04247942
22	0xbd6f6008	-0.058441192
23	0x3cffdd84	0.031233557
24	0x3d9aa99c	0.07551882
25	0x3cfb8594	0.030703343
26	0xbc93bb7e	-0.01803374
27	0x3d3e1f96	0.04641684
28	0xbd83d7c4	-0.064376384
29	0x3c993303	0.018701082
30	0xbd12eed4	-0.035872295
31	0x3d60115f	0.054704066
32	0xbc485ab0	-0.012228653
33	0x3c3ce09a	0.011528159
34	0xbd378750	-0.04480678
35	0xbc078cea	-0.008273343
36	0xbd5bef5a	-0.05369506
37	0x3d4efb6a	0.050532736
38	0x3cd31392	0.025766168
39	0xbceda3d1	-0.029008778
40	0xbcac2dcf	-0.021017937
41	0x3d47f6c4	0.04881932
42	0xbd530d10	-0.05152613
43	0x3cf83f3e	0.030303594
44	0xbd2522c4	-0.04031636
45	0x3b3ead84	0.0029095123
46	0x3d80e4b0	0.06293619
47	0x3baf8624	0.005356567
48	0x3d68d534	0.05684395
49	0xbd68bb62	-0.056819327
50	0x3d8468c0	0.06465292
51	0xbda3aa78	-0.07991499
52	0xbd89d618	-0.06730288
53	0xbd9b982b	-0.07597383
54	0xbd865074	-0.06558314
55	0xbca668dc	-0.020313673
56	0xbd871254	-0.06595293
57	0x3c6d929d	0.014500287
58	0xbcdc0de4	-0.026862092
59	0x3aff47ae	0.0019476318
60	0x3c23c603	0.00999594
61	0x3ccb4560	0.024813354
62	0x3c43528e	0.011921538
63	0xbd1b9fa2	-0.037994035

lstm.weight_ih_l0 f4 [256, 64]
0	0x3da95955	0.08268992
1	0x3e29ea3b	0.16593258
2	0x3a687f73	0.0008869089
3	0x3e4f3604	0.20235449
4	0x3dedbebb	0.116086446
5	0xbd5ca768	-0.05387059
6	0x3d203fb4	0.039123252
7	0xbb99049d	-0.0046697394
8	0x3da0a18a	0.07843311
9	0x3cf0ee56	0.029410522
10	0x3d78309b	0.06059323
11	0x3daa9182	0.08328535
12	0x3e829319	0.25502852
13	0x3d58f500	0.052968025
14	0x3e249121	0.16070987
15	0x3ea409d0	0.32038736
16	0x3e5398dd	0.20663781
17	0x3c04414b	0.008072208
18	0x3daff7b8	0.085921705
19	0x3e4479d8	0.19187105
20	0x3ca34370	0.019929618
21	0x3da1df18	0.0790388
22	0x3d94e2b3	0.07269802
23	0x3ea43167	0.3206894
24	0x3e8e51f2	0.27796894
25	0xbd5e2f39	-0.054244254
26	0xbd3e4139	-0.04644892
27	0x3d8c8d8f	0.06862938
28	0xbdc1bded	-0.094600536
29	0x3c1ea939	0.0096839005
30	0x3ce4bc54	0.027921833
31	0x3d8822a8	0.06647235
32	0x3ea2b9a6	0.31782264
33	0x3b88c2dc	0.0041736197
34	0x3e4f6b57	0.2025579
35	0x3db3524a	0.0875593
36	0x3d82fe28	0.06396133
37	0x3e82e3cf	0.2556443
38	0x3de421ef	0.11139285
39	0x3e214672	0.15749529
40	0x3d1c175c	0.038108215
41	0x3e588dfc	0.21147913
42	0x3e7be689	0.24599661
43	0x3e254ff2	0.16143778
44	0xbdc63387	-0.09677797
45	0x3eb42f82	0.35192496
46	0x3e10c986	0.14139375
47	0x3e36491b	0.17801325
48	0x3e4eb541	0.2018633
49	0xbdad9216	-0.08475129
50	0x3e928077	0.28613636
51	0x3e261e46	0.16222486
52	0x3d9755d9	0.07389421
53	0x3ce07d6c	0.027403556
54	0x3e29bdb9	0.1657628
55	0x3d179056	0.037002884
56	0x3e26faf6	0.16306672
57	0x3e55fd19	0.2089733
58	0x3c32794a	0.010893175
59	0x3e5e78de	0.21725795
60	0xbdb7b448	-0.08969933
61	0x3dc89830	0.097946525
62	0x3e77f16f	0.24213193
63	0xbb7b681e	-0.003836162
64	0xbd4d03a3	-0.050052296
65	0xbe9b5bb1	-0.30343392
66	0xbe295111	-0.1653483
67	0x3e9d5b0d	0.3073353
68	0x3e5ec7fd	0.21755977
69	0x3d8a9ef0	0.06768596
70	0x3d974bc7	0.073875
71	0x3d0dd076	0.034622632
72	0x3db38cab	0.08767065
73	0x3f05521c	0.52078414
74	0x3d7e205a	0.06204257
75	0x3e4b97d8	0.19882143
76	0x3b893076	0.004186685
77	0x3e5f63f9	0.2181548
78	0xbc6a648f	-0.014306202
79	0x3e827816	0.25482243
80	0x3e038362	0.12843087
81	0x3d74219c	0.059602365
82	0x3d0ea9b3	0.034829807
83	0x3d5f7baf	0.054561313
84	0xbe06b31b	-0.13154261
85	0x3e36f345	0.17866237
86	0xbd62bf92	-0.055358477
87	0x3ea221ce	0.31666416
88	0xbe821bc0	-0.25411797
89	0x3e2cb9f1	0.16867806
90	0x3f017449	0.5056806
91	0x3e5eb4e4	0.21748692
92	0x3e5dc1f6	0.21656021
93	0xbdfe9a8d	-0.12431822
94	0xbdbdeefa	-0.09274097
95	0xbce90d36	-0.028448682
96	0xbe0b507b	-0.1360492
97	0x3e549f1c	0.2076382
98	0x3cfe3eb3	0.031035757
99	0xbdb68c2a	-0.08913453
100	0x3e1b1bd3	0.15147333
101	0x3d7a9838	0.061180323
102	0x3e862c18	0.26205516
103	0x3d87fa92	0.06639589
104	0x3d6788e2	0.056527026
105	0x3f12d1b5	0.5735124
106	0xbd3c5cc9	-0.045986924
107	0x3e252036	0.16125569
108	0xbe80e10c	-0.25171697
109	0x3e14bbac	0.14524716
110	0xbea3887a	-0.3194006
111	0xbe4dfa4d	-0.20115013
112	0x3dd7ca59	0.10536642
113	0x3d3c38c8	0.04595259
114	0x3e1d0cac	0.15336865
115	0x3dc9c5d4	0.09852186
116	0x3df96886	0.121781394
117	0xbd3224d2	-0.043492146
118	0x3d49c808	0.04926303
119	0x3e8838a2	0.26605707
120	0x3d8c8926	0.068620965
121	0xbdf069f2	-0.117389575
122	0x3ea725c8	0.32646012
123	0xbd82a255	-0.06378619
124	0x3da68e3a	0.08132596
125	0xbe3f0955	-0.18655904
126	0x3ed0be6a	0.40770274
127	0xbe220550	-0.15822339
128	0x3db7dfd3	0.08978238
129	0x3da8d6f4	0.08244124
130	0x3eb09606	0.3448946
131	0x3ccd7cf2	0.025083993
132	0x3e1d4b08	0.15360653
133	0x3dc00346	0.09375624
134	0xbca1f760	-0.019771278
135	0xbe416ce4	-0.18889195
136	0x3d710afb	0.058848362
137	0x3ca5321a	0.020165492
138	0x3e2deccc	0.16984862
139	0x3d34f49a	0.044178583
140	0x3cc57e80	0.024108171
141	0x3e5c1ba7	0.21494924
142	0x3df3dee0	0.119077444
143	0xbd0516ba	-0.032492377
144	0x3d8e9b3d	0.06963203
145	0x3de5c4eb	0.112192
146	0xbc274632	-0.010209607
147	0x3d9db77a	0.07701011
148	0xbd45231b	-0.048129182
149	0xbdfd3019	-0.123626895
150	0x3e10e120	0.14148378
151	0xbdb5bcaf	-0.08873879
152	0x3e42cb34	0.19022828
153	0x3e39b4d1	0.18135382
154	0xbd130f94	-0.03590353
155	0xbcdd1ff6	-0.02699278
156	0x3d99d1a1	0.07510687
157	0xbab1610c	-0.001353295
158	0x3ea81855	0.32831064
159	0x3ecb13da	0.39663583
160	0xbd5ab7a0	-0.053397775
161	0xbe2ec750	-0.17068219
162	0xbd3de39a	-0.046359636
163	0xbc8361ab	-0.016037783
164	0x3d336cfa	0.0438051
165	0xbd8ca1ac	-0.06866774
166	0x3d09cdd3	0.033643555
167	0xbda1d635	-0.07902185
168	0x3e642291	0.22278811
169	0x3d90260b	0.07038506
170	0x3d0bed84	0.03416206
171	0x3e5ea070	0.2174089
172	0xbe122ddb	-0.14275305
173	0x3ded4b46	0.11586623
174	0x3e491720	0.19637728
175	0x3e612797	0.21987759
176	0x3dd06002	0.10174562
177	0xbc312412	-0.0108118225
178	0xbd8cb2c2	-0.06870033
179	0xbd54c766	-0.051947974
180	0xbd89640e	-0.06708537
181	0x3e8bd9e6	0.2731468
182	0x3d96f4af	0.073708884
183	0xbd4e9267	-0.05043259
184	0x3e602891	0.21890475
185	0xbd1ed1af	-0.03877419
186	0x3e8f2f56	0.27965802
187	0xbd8e0366	-0.06934242
188	0x3cc5861e	0.024111804
189	0xbdfd639e	-0.12372516
190	0x3e822b64	0.2542373
191	0x3c53ddde	0.012931315
192	0xbd5e2958	-0.054238647
193	0x3e4bc752	0.19900253
194	0x3cf445be	0.029818412
195	0xbd158857	-0.036506977
196	0x3cf1492d	0.029453838
197	0x3c43b9a7	0.011946118
198	0xbcb25076	-0.021766882
199	0x3c13ec46	0.0090285
200	0x3dd88f1c	0.10574171
201	0xbcaf62e4	-0.02140946
202	0x3e4312c6	0.1905013
203	0x3d4c9059	0.04994235
204	0x3ba669fe	0.005078553
205	0x3d2b329d	0.041796315
206	0x3deb2011	0.114807256
207	0x3dd2ceb6	0.10293333
208	0xbdf47905	-0.11937145
209	0xbdb4e40b	-0.08832558
210	0x3d826e22	0.063686624
211	0x3dd710ff	0.105012886
212	0xbc4fca90	-0.012682572
213	0xbe5fc035	-0.21850665
214	0xbd5d7398	-0.054065317
215	0x3dd2e520	0.102976084
216	0x3d511a2e	0.051050358
217	0x3d0411c8	0.03224352
218	0xbcb4e084	-0.022079714
219	0x3da04a4d	0.07826672
220	0xbdc1539f	-0.094397776
221	0xbd378625	-0.044805665
222	0x3c32c5c4	0.010911409
223	0x3e7ed136	0.24884495
224	0x3ca1c638	0.019747838
225	0x3df67212	0.12033476
226	0x3daae58c	0.08344564
227	0xbdb72860	-0.08943248
228	0x3b8bff75	0.004272396
229	0x3db4b3d1	0.0882336
230	0xbe2e0ff9	-0.1699828
231	0xbd5b058d	-0.05347209
232	0x3d476ce3	0.048687827
233	0x3de76464	0.11298445
234	0xbd6f922d	-0.058489013
235	0x3e10b99e	0.14133307
236	0xbe07cb36	-0.13261113
237	0x3ded6388	0.1159125
238	0xbd897a13	-0.06712737
239	0x3e2e7bf8	0.17039478
240	0xbc5daa08	-0.013529308
241	0x3c1bfc26	0.009520566
242	0xbcd408d3	-0.025883114
243	0x3d89215f	0.06695818
244	0xbda16116	-0.07879846
245	0xbd978948	-0.07399231
246	0xbd8492bc	-0.064733
247	0xbdbc1a20	-0.091846704
248	0xbe0e5e4d	-0.1390316
249	0x3d622c7e	0.055218212
250	0xbd28904f	-0.04115325
251	0x3e17a23a	0.14807978
252	0x3d4c621d	0.049898256
253	0x3d8262ab	0.06366476
254	0x3dc97892	0.0983745
255	0x3e15b4e7	0.1461979

lstm.weight_hh_l0 f4 [256, 64]
0	0xbdcd675c	-0.1002948
1	0xbdafd0bb	-0.08584734
2	0x3e6578ca	0.22409359
3	0x3e9868af	0.29767367
4	0xbdb432bf	-0.087987415
5	0xbe68d074	-0.22735769
6	0x3e14b215	0.14521058
7	0xbe3ed0ea	-0.18634382
8	0x3e3c2748	0.1837436
9	0xbe9c41f9	-0.30519083
10	0x3db84c08	0.08998877
11	0x3eaf3136	0.34217232
12	0x3ea96106	0.33081836
13	0x3c722f72	0.01478182
14	0x3f01dea6	0.5073036
15	0xbe2d8d87	-0.1694852
16	0x3e4a54cb	0.19758908
17	0x3e0921db	0.13391821
18	0x3e6b9b13	0.23008375
19	0xbe62c207	-0.22144328
20	0x3e13062c	0.14357823
21	0xbe8adc4b	-0.27121195
22	0xbe5aa552	-0.21352127
23	0x3d86c640	0.06580782
24	0xbe4fca72	-0.2029207
25	0xbe8f1a04	-0.27949536
26	0xbe451773	-0.19247226
27	0xbe683134	-0.2267502
28	0x3ec5dfad	0.38647214
29	0xbe979161	-0.29603103
30	0xbe6d6fa7	-0.23187123
31	0xbcf45660	-0.029826343
32	0x3a68b5b8	0.0008877176
33	0x3e73db2d	0.23814078
34	0x3cad5028	0.021156386
35	0x3d8d0a47	0.06886726
36	0xbd33643f	-0.043796774
37	0xbea75a53	-0.326861
38	0xbdabb4bf	-0.08384084
39	0x3df44142	0.119265094
40	0xbd359794	-0.04433401
41	0xbdcf6ccd	-0.10128174
42	0xbe8cc9b1	-0.27497628
43	0xbe499bf6	-0.196884
44	0x3e16e0b0	0.14734149
45	0xbe953aba	-0.29146367
46	0x3e9c606e	0.3054232
47	0xbebdf110	-0.3709798
48	0xbd2e2533	-0.042515945
49	0xbe34a5be	-0.1764135
50	0x3d23ea49	0.040018354
51	0xbe73a2ab	-0.23792522
52	0xbe3a01ce	-0.18164751
53	0x3d27c13d	0.04095577
54	0x3e7d4c98	0.2473625
55	0x3e98c5dc	0.29838455
56	0x3e1cfc38	0.15330589
57	0xbdc18562	-0.09449269
58	0x3e1f3137	0.15546118
59	0xbe9fb476	-0.31192368
60	0x3d78c8cc	0.06073837
61	0x3c97cf49	0.018531458
62	0x3e305cbe	0.17222878
63	0x3ebd21ae	0.36939758
64	0x3df2b48f	0.11850845
65	0x3db9fc9e	0.09081386
66	0x3d16716f	0.036729272
67	0x3e2c6aeb	0.16837661
68	0xbd7432e9	-0.059618864
69	0xbe768a8a	-0.24076286
70	0x3e7b090a	0.24515167
71	0xbd19d695	-0.037558157
72	0x3e6cf251	0.23139311
73	0xbd08df6e	-0.033416204
74	0xbb5b7980	-0.0033489168
75	0xbdf234a7	-0.11826449
76	0x3eac7f5d	0.3369092
77	0x3d8f7a05	0.07005695
78	0x3e9b3e94	0.3032118
79	0xbe6907f8	-0.22756946
80	0x3d0865ac	0.033300087
81	0x3df97c55	0.121819176
82	0x3e0134b6	0.12617764
83	0xbe01d175	-0.12677558
84	0x3e2eabd1	0.1705773
85	0xbe7bd2ba	-0.24592105
86	0xbe0b5de3	-0.13610034
87	0xbd540c23	-0.051769387
88	0xbe155f7f	-0.1458721
89	0xbdbde5bb	-0.09272333
90	0x3be538a3	0.006995277
91	0xbe9c6403	-0.30545053
92	0x3eb0b9aa	0.3451665
93	0xbe857f1e	-0.26073545
94	0xbe327516	-0.17427477
95	0xbd34bb4e	-0.04412394
96	0xbce8342b	-0.028345188
97	0x3e60df18	0.21960104
98	0x3e12e807	0.14346324
99	0xbdb0e457	-0.08637302
100	0x3d5dea75	0.054178674
101	0xbe909b43	-0.28243455
102	0xbe519aea	-0.20469251
103	0x3e292016	0.16516146
104	0x3e711ce2	0.23546174
105	0xbdf2e701	-0.11860467
106	0xbe463094	-0.19354469
107	0xbdf5c1a6	-0.11999826
108	0xbd9d4ca4	-0.07680634
109	0xbe978f19	-0.29601362
110	0xbd199b58	-0.037501663
111	0xbe37ae84	-0.17937666
112	0x3d53ed60	0.05174005
113	0xbe5e5353	-0.21711473
114	0x3d393f12	0.045226164
115	0xbeafb030	-0.34314108
116	0xbec15e81	-0.37767413
117	0x3dd8efee	0.10592638
118	0x3e23d175	0.1599787
119	0x3e2ed93f	0.1707506
120	0x3e2dfc7f	0.16990851
121	0xbd307235	-0.043077666
122	0x3e24de8b	0.16100518
123	0xbe179ef6	-0.14806733
124	0xbe3e2f8f	-0.1857283
125	0x3ea26e4b	0.31724772
126	0x3d0cc7f6	0.034370385
127	0xbe6c5bee	-0.23081943
128	0xbcff31bb	-0.031151643
129	0x3dc18ad7	0.0945031
130	0x3df2d4dd	0.11857007
131	0x3e82fbda	0.25582772
132	0xbda97c16	-0.08275621
133	0xbe942cdf	-0.28940484
134	0xbddd75c5	-0.108134784
135	0xbe6cf032	-0.23138502
136	0x3dc3e580	0.09565258
137	0x3c999211	0.018746408
138	0xbd528a82	-0.051401623
139	0x3e66481a	0.22488442
140	0x3e4f05ae	0.2021701
141	0xbc972273	-0.018449044
142	0x3e33176f	0.17489408
143	0xbc95cc98	-0.018286034
144	0x3dff82b2	0.124761
145	0x3e7476fd	0.23873515
146	0x3e8944e5	0.26810375
147	0xbe180974	-0.14847356
148	0x3d460110	0.048340857
149	0xbe8ddf38	-0.27709365
150	0x3c853c76	0.016264182
151	0xbdc22cbe	-0.0948119
152	0x3de2a903	0.11067393
153	0xbe2baa19	-0.16764106
154	0x3b88e96a	0.0041782157
155	0xbddc587c	-0.107590646
156	0x3e234c0a	0.15946975
157	0xbe8778b7	-0.26459286
158	0xbdfd8443	-0.123787425
159	0x3d0ca41d	0.034336198
160	0xbd4a74e6	-0.04942789
161	0x3e21a82b	0.15786807
162	0xbe18cc9a	-0.149218
163	0xbd3f2a5c	-0.046671256
164	0xbd0f398f	-0.034967
165	0xbe693298	-0.22773206
166	0x3db43f2d	0.08801112
167	0x3c924ea7	0.01785977
168	0x3e03cf22	0.12871984
169	0x3e5181ff	0.20459746
170	0xbdfda548	-0.123850405
171	0xbe0ac734	-0.13552552
172	0x3dc29d72	0.095026866
173	0xbe26c34b	-0.16285436
174	0x3e6bee84	0.23040205
175	0xbe86aa9e	-0.26302046
176	0x3ca37bae	0.019956436
177	0xbe3d4b49	-0.1848575
178	0x3e2cc8c1	0.16873457
179	0xbe860e01	-0.2618256
180	0xbe20bf84	-0.15698057
181	0x3d0a21ee	0.033723764
182	0x3dbc6eae	0.09200798
183	0x3e057d90	0.1303618
184	0xbbbd81e0	-0.0057833046
185	0xbe43b5d1	-0.19112326
186	0x3e050a55	0.12992223
187	0xbe280df8	-0.16411579
188	0x3ab97994	0.0014150613
189	0xbd26acdd	-0.0406922
190	0xbd92292a	-0.07136758
191	0x3e77fec7	0.24218284
192	0xbdae9c08	-0.08525854
193	0x3e28c01e	0.16479537
194	0xbd8caa43	-0.06868412
195	0xbc6292b0	-0.013828918
196	0xbdea0cb6	-0.11428206
197	0xbdaafc5b	-0.08348914
198	0xbc905498	-0.017618462
199	0xbe316879	-0.1732501
200	0x3e17bd5b	0.14818327
201	0xbe50d297	-0.20392834
202	0xbe470c46	-0.19438276
203	0x3cd3dd25	0.025862286
204	0x3d9d6e71	0.07687081
205	0x3d93ec41	0.07222796
206	0x3e670025	0.22558649
207	0xbe2adbc3	-0.16685395
208	0x3e21540e	0.1575472
209	0x3e29e9d3	0.16593103
210	0x3cca07ea	0.024661977
211	0xbd859f22	-0.06524493
212	0x3e2e9171	0.17047669
213	0x3dadb2bc	0.084813565
214	0xbd11f87a	-0.035637356
215	0xbcdcc0d0	-0.026947409
216	0x3d653498	0.05595836
217	0xbe3ce57e	-0.1844692
218	0xbd5ee644	-0.054418817
219	0xbd8d0f84	-0.06887725
220	0x3e59cbf2	0.21269205
221	0xbd3094d5	-0.043110687
222	0xbcd2f3cb	-0.025751015
223	0x3e1c04dc	0.15236229
224	0x3e2e3bf8	0.17015064
225	0xbd05e53a	-0.03268931
226	0x3d15ad70	0.036542356
227	0xbe177d13	-0.14793806
228	0xbd430405	-0.047611255
229	0xbe21a294	-0.15784675
230	0x3c3750f2	0.011188732
231	0x3e02e0bb	0.1278104
232	0xbd590bc5	-0.05298974
233	0x3d88ee78	0.06686109
234	0xbba1a680	-0.0049331784
235	0xbd40aef2	-0.04704184
236	0xbe241c08	-0.16026318
237	0x3bafa547	0.0053602788
238	0x3e4f373d	0.20235915
239	0xbda5ea37	-0.081013136
240	0x3de36bd6	0.111045524
241	0x3cb917ae	0.0225943
242	0x3dc8683f	0.09785508
243	0xbdb51a00	-0.0884285
244	0xbdd9bffd	-0.10632322
245	0xbdec48df	-0.115373366
246	0x3e0c5204	0.13703161
247	0x3e55425e	0.20826098
248	0x3da4e49d	0.08051417
249	0x3d903a60	0.07042384
250	0x3dde024b	0.10840281
251	0x3d0b6ba0	0.034038186
252	0xbd9f28b2	-0.07771434
253	0xbda25a21	-0.07927347
254	0x3d147a30	0.03624934
255	0xbc8abb57	-0.016935034

lstm.bias_ih_l0 f4 [256]
0	0x3ca7f4b4	0.020502426
1	0x3e06b472	0.13154772
2	0x3de9a457	0.114082985
3	0x3c339857	0.010961614
4	0x3d288b32	0.041148372
5	0x3deae598	0.11469573
6	0x3dd33755	0.10313288
7	0x3df191b2	0.11795367
8	0xbd7f6d4c	-0.062360093
9	0xbd8f07d3	-0.06983914
10	0x3d9e9d90	0.077448964
11	0x3df17c79	0.117913194
12	0x3d513218	0.051073164
13	0xbca78b48	-0.020452157
14	0x3dce0c8a	0.100609854
15	0xbd5ce0c6	-0.0539253
16	0xbd307820	-0.04308331
17	0xbd92e00c	-0.0717164
18	0x3d0f0e80	0.034925938
19	0xbd96fa1c	-0.07371923
20	0x3b0fdd11	0.0021951834
21	0xbda9a148	-0.08282715
22	0xbd65fb56	-0.056147896
23	0xbd58703a	-0.052841403
24	0x3ad4f65c	0.0016247737
25	0x3b0c2a69	0.0021387583
26	0x3d124ce8	0.035717875
27	0xbd7f59e5	-0.06234159
28	0xbd9e3942	-0.07725765
29	0x3d607c88	0.054806262
30	0xbd563ca8	-0.05230394
31	0xbae5dbe2	-0.0017536844
32	0x3d3c3f6e	0.04595893
33	0x3d2763dc	0.040866718
34	0xbc9592c9	-0.01825847
35	0x3b8d81ca	0.0043184506
36	0xbd067890	-0.03282982
37	0xbdcfbd4c	-0.101435274
38	0x3dd099d6	0.10185592
39	0xbc065c74	-0.0082007535
40	0xbd8b8d12	-0.068140164
41	0xbd3b511e	-0.045731656
42	0x3e01ec6c	0.12687844
43	0x3de9fa30	0.114246726
44	0x3deddafa	0.11614032
45	0xbdd63c5e	-0.10460733
46	0xbd4d5b34	-0.050135806
47	0xbdbae314	-0.09125343
48	0x3cd4555d	0.02591961
49	0x3d338f2c	0.04383771
50	0xbd875034	-0.066070944
51	0xbb97a5da	-0.0046279253
52	0xbd88e950	-0.06685126
53	0x3e116542	0.14198783
54	0x3dbf2cb6	0.093347
55	0xbcc4f4b8	-0.024042472
56	0x3d50a4ee	0.05093854
57	0x3dcb746b	0.09934314
58	0xbdebc30c	-0.115118116
59	0x3e005ce0	0.12535429
60	0xbdc97156	-0.0983607
61	0xbcebf171	-0.028801652
62	0x3de67ea0	0.112546206
63	0x3c3fe480	0.0117121935
64	0x3d64a850	0.055824578
65	0xbd44aefe	-0.048018448
66	0x3db4fdea	0.08837493
67	0xbd1fca2e	-0.039011173
68	0xbd3473da	-0.044055797
69	0x3cc77582	0.024348024
70	0xb8cbb4c0	-9.7134616e-05
71	0xbcd7bccd	-0.026335144
72	0xbd8046cc	-0.062635034
73	0x3dd4aad8	0.10384148
74	0xbcb084e8	-0.02154775
75	0xbc7305fc	-0.01483297
76	0xbdc0fb46	-0.094229266
77	0x3df3a28c	0.11896238
78	0xbdd10a8a	-0.10207088
79	0x3dd2f59d	0.10300753
80	0xbc7f33b3	-0.015576291
81	0xbd7f858c	-0.06238322
82	0xbd212f4a	-0.03935174
83	0xbd9aa2a5	-0.07550553
84	0xbc9ea5ea	-0.019366223
85	0x3dd13d81	0.10216809
86	0x3ce46ea4	0.027884789
87	0x3e012518	0.12611806
88	0x3cefb88a	0.0292628
89	0x3e0e3298	0.13886487
90	0xbd1c4b1c	-0.038157567
91	0xbdbe620a	-0.09296043
92	0x3d978034	0.073975
93	0xbcd952ce	-0.026528742
94	0x3dc67100	0.09689522
95	0x3ddb04d0	0.10694277
96	0x3d72010a	0.059083022
97	0xbcb34877	-0.02188514
98	0x3de01620	0.1094172
99	0x3cd21765	0.025645921
100	0x3db70c86	0.089379355
101	0xbd804aa6	-0.06264238
102	0x3ca168ec	0.019703351
103	0x3c9a049b	0.018801024
104	0xbd5604b2	-0.05225057
105	0xbd5f4954	-0.05451329
106	0x3d20b148	0.03923157
107	0x3e00702c	0.1254279
108	0x3db69c56	0.089165375
109	0x3e052dde	0.13005778
110	0x3dc46ee0	0.0959146
111	0xbd04390c	-0.032280967
112	0x3daf373e	0.085554585
113	0xbdbb0454	-0.09131685
114	0xbcf66a2a	-0.03007992
115	0xbd800493	-0.062508725
116	0xbd7c5d9b	-0.061612707
117	0xbdd2446e	-0.10266958
118	0x3dc0d62a	0.094158486
119	0xbd6060dd	-0.054779876
120	0xbdcd8702	-0.10035516
121	0xbd160c30	-0.036632717
122	0x3dda759b	0.10666963
123	0xbca0022f	-0.019532291
124	0x3d16dc1f	0.036831018
125	0x3d5d3400	0.05400467
126	0x3c9367b2	0.017993782
127	0xbd899752	-0.06718315
128	0x3df13e36	0.11779444
129	0x3d5731d4	0.052537754
130	0x3defd7a6	0.117110536
131	0x3d71a94e	0.058999352
132	0xbd102254	-0.035188988
133	0x3d84d1a0	0.06485295
134	0x3d0243ca	0.03180293
135	0xbcb3cfe7	-0.021949722
136	0x3e0823be	0.13294885
137	0x3b8d86a1	0.0043190275
138	0xbd4a64c8	-0.04941252
139	0x3d6889a6	0.056771897
140	0xbb9cc9b4	-0.004784787
141	0x3de0902e	0.10965
142	0x3e0f7467	0.14009248
143	0x3d213bae	0.039363556
144	0x3df44afe	0.11928366
145	0x3cdd8a05	0.027043352
146	0x3e044058	0.1291517
147	0x3da12036	0.07867472
148	0x3df22470	0.11823356
149	0x3d252628	0.04031959
150	0xbdac3654	-0.084088
151	0x3d09149c	0.03346692
152	0x3d0b1338	0.033953875
153	0x3d94c808	0.072647154
154	0xbdc9bec4	-0.09850839
155	0xbdec276b	-0.11530956
156	0x3daaf608	0.08347708
157	0xbca164b4	-0.01970134
158	0x3d8043d2	0.06262936
159	0xbd08b281	-0.03337336
160	0x3d8d823a	0.06909604
161	0xbd434d2c	-0.04768102
162	0xbdbd6c2b	-0.09249147
163	0xbd845f28	-0.06463462
164	0xbc915e69	-0.017745214
165	0xbe0895c1	-0.13338377
166	0xbde60749	-0.11231858
167	0x3d947234	0.07248345
168	0xbd70ee09	-0.058820758
169	0xbddb9e05	-0.10723499
170	0xbdcce248	-0.10004097
171	0x3cc26718	0.0237308
172	0xbdfec589	-0.124400206
173	0xbdfd2dff	-0.12362289
174	0x3d87c67c	0.06629655
175	0xbe07512e	-0.13214561
176	0xbdc8f24e	-0.09811841
177	0xbd1c0306	-0.03808882
178	0xbd1b0458	-0.03784594
179	0xbd8862a2	-0.06659438
180	0xbb52471a	-0.0032085837
181	0xbd11c817	-0.03559121
182	0x3d969b8b	0.07353886
183	0xbd39ce3a	-0.04536269
184	0x3d09f986	0.03368523
185	0xbcd4454e	-0.025911953
186	0x3d86aaee	0.06575571
187	0xbd8475b0	-0.064677596
188	0xbda6d950	-0.08146918
189	0xbd10631c	-0.035250768
190	0x3d8ed82c	0.06974825
191	0x3d1c98ee	0.038231783
192	0xbc3eaf2e	-0.011638446
193	0x3d8961b5	0.06708089
194	0x3d35ab2a	0.044352688
195	0x3b29e39c	0.002592302
196	0xbd46fe8f	-0.04858261
197	0xbcf40228	-0.029786184
198	0xbd9347c6	-0.07191424
199	0xbde09d14	-0.1096746
200	0x3e030a48	0.1279689
201	0xbda2dc34	-0.07952157
202	0xbce827c3	-0.028339272
203	0x3dfa76f4	0.1222972
204	0xbdb7725e	-0.08957361
205	0xbd243d55	-0.040097553
206	0xbd12f8a4	-0.035881653
207	0xbd8dc3e6	-0.0692213
208	0xbc956f56	-0.018241566
209	0xbc2e97e5	-0.010656332
210	0x3d90f086	0.07077126
211	0x3cbede7e	0.023299452
212	0x3d8a856c	0.067637295
213	0x3c82c194	0.015961446
214	0x3c43a500	0.0119411945
215	0x3e00588b	0.12533776
216	0xbc9284d2	-0.0178856
217	0xbdd03108	-0.10165602
218	0xbdef162a	-0.11674149
219	0xbdbad92d	-0.09123454
220	0x3a771c3e	0.00094265107
221	0x3d3e83e0	0.046512485
222	0x3d69849a	0.057011224
223	0xbc2b4cdf	-0.010455339
224	0x3df00900	0.117204666
225	0xbdb2309c	-0.08700678
226	0x3d856130	0.06512678
227	0x3dce6386	0.10077576
228	0xbd0c723a	-0.034288622
229	0x3c81b527	0.01583345
230	0xbd925a33	-0.071461104
231	0xbd8ff7f7	-0.070297174
232	0x3d8b67d2	0.068069115
233	0x3c029038	0.007968955
234	0x395ee006	0.00021255025
235	0x3ca81906	0.020519745
236	0x3d965512	0.073404446
237	0x3ba95714	0.005167851
238	0xbd3c9280	-0.04603815
239	0xbdd3baf2	-0.10338391
240	0x3dfbec9b	0.12300988
241	0xbcc8fbdc	-0.024534158
242	0x3da6eaaa	0.08150227
243	0x3dc68342	0.09693004
244	0xbd63944a	-0.05556134
245	0xbd44f97d	-0.048089493
246	0x3e101525	0.14070566
247	0x3d9176d8	0.07102746
248	0xbd955c7e	-0.07293032
249	0xbc6d9e7a	-0.014503116
250	0xbc6c6817	-0.014429114
251	0xbdef604e	-0.116882905
252	0xbdbb7b2e	-0.09154354
253	0x3ba524fb	0.005039809
254	0xbc9a5d96	-0.018843453
255	0x3cc36bc6	0.023855101

lstm.bias_hh_l0 f4 [256]
0	0xbdc501a6	-0.09619455
1	0xbcfcd696	-0.030864041
2	0x3d9320c1	0.07183982
3	0xba7bfe73	-0.0009612806
4	0x3d8a4f08	0.06753355
5	0x3e0f83a0	0.14015055
6	0x3d55a440	0.052158594
7	0x3ce4d530	0.027933687
8	0x3dc14318	0.09436625
9	0x3d9c345c	0.07627174
10	0x3dc62a80	0.09676075
11	0x3d0418c8	0.032250196
12	0xbd7e368e	-0.062063746
13	0x3d866f5c	0.06564209
14	0xbd7420f4	-0.05960174
15	0xbdc0fa22	-0.09422709
16	0xbd5bbcd4	-0.053646877
17	0x3d569f3c	0.05239795
18	0xbd857092	-0.06515612
19	0x3d837a1e	0.064197764
20	0xbaa3b5dd	-0.0012490113
21	0xbd7b11d9	-0.061296318
22	0xbd9c8f78	-0.07644552
23	0xbd34bc4a	-0.04412488
24	0xbdc33590	-0.095317006
25	0x3d27d63b	0.04097579
26	0x3d9339de	0.07188772
27	0x3deb1874	0.114792734
28	0x3dda12da	0.10648127
29	0xbddab9d4	-0.10679975
30	0xbda6d0a3	-0.08145263
31	0x3e02d9b7	0.12778364
32	0xbcc3411e	-0.023834761
33	0xbd080db6	-0.0332162
34	0xbcf668e7	-0.030079318
35	0x3dafdd23	0.085871
36	0xbdb1adc2	-0.0867572
37	0xbd59915d	-0.053117145
38	0x3d5592c1	0.05214191
39	0xbc99331a	-0.018701125
40	0xbd809c3c	-0.06279799
41	0x3c9130ce	0.017723467
42	0x3de56f58	0.11202878
43	0x3dd9b11a	0.106294826
44	0xbcf1ca3e	-0.029515382
45	0x3db7b962	0.08970906
46	0x3ccec517	0.025240464
47	0x3d288f18	0.04115209
48	0x3e08b64f	0.13350795
49	0xbda520bc	-0.08062884
50	0xbd6cc6d1	-0.057806794
51	0xbcac03d7	-0.020997925
52	0xbbadf73d	-0.005309014
53	0xbc219fd9	-0.009864771
54	0x3dbc23fe	0.091865525
55	0xbd0c228f	-0.034212645
56	0xbdacc3b6	-0.084357664
57	0xbdac1353	-0.08402123
58	0x3dfd738d	0.12375555
59	0xbdd759a2	-0.10515143
60	0x3d679454	0.05653794
61	0x3cb91026	0.022590708
62	0xbbfa212e	-0.00763335
63	0x3e0d11df	0.13776349
64	0xbbb0d913	-0.005396971
65	0x3e035c62	0.1282821
66	0xbde0745a	-0.10959692
67	0x3dcb0a6d	0.09914098
68	0x3e0df9ce	0.13864824
69	0x3d71fde6	0.059080027
70	0x3dedefbe	0.11617993
71	0xbd49fcc4	-0.04931332
72	0xbd117b93	-0.03551824
73	0x3df06a4e	0.11739026
74	0x3d9f8222	0.07788493
75	0xbdbcefc5	-0.0922542
76	0x3d3e3192	0.046433993
77	0x3d4972fd	0.049181927
78	0x3dab52b2	0.08365382
79	0xbcb2a0b8	-0.021805152
80	0xbd2cb3f2	-0.042163797
81	0x3df28b7e	0.11843012
82	0x3deafbd8	0.11473817
83	0xbd18322e	-0.03715723
84	0xbd19eb8b	-0.037578147
85	0x3dd10b2b	0.10207208
86	0xbdadaa58	-0.08479756
87	0x3d9f5396	0.077796146
88	0x3de7691f	0.11299347
89	0x3c149546	0.009068793
90	0xbd5ad32e	-0.053424053
91	0x3d84a8a8	0.06477481
92	0x3d502fd6	0.05082687
93	0x3db4c452	0.08826508
94	0x3e0cd18c	0.13751811
95	0x3dd18b4e	0.102316484
96	0x3da6c3cc	0.08142814
97	0xbdaa699a	-0.08320923
98	0x3da64112	0.0811788
99	0x3dfeb5f6	0.1243705
100	0xbdd667f4	-0.10469046
101	0x3e0f15cf	0.13973163
102	0xbda3c8ab	-0.07997259
103	0xbd2449d2	-0.040109463
104	0x3d985409	0.074379034
105	0x3dd45884	0.103684455
106	0xbd721d26	-0.05910983
107	0x3da6354e	0.08115636
108	0xbde25bbc	-0.11052653
109	0xbbdfc760	-0.0068291873
110	0xbd548894	-0.051888064
111	0x3da052ad	0.07828269
112	0x3df762a6	0.120793626
113	0xbd958398	-0.0730049
114	0x3d28e654	0.041235283
115	0xbdd99e9e	-0.10625957
116	0xbd7ece24	-0.06220831
117	0xbda815e8	-0.08207303
118	0x3dafe62c	0.08588824
119	0xbdb38cfa	-0.087671235
120	0x3dde8c9a	0.10866661
121	0xbdae0cc9	-0.08498532
122	0x3ccc8b88	0.024968877
123	0xbdee725c	-0.11642906
124	0x3de1c29b	0.11023446
125	0x3d84212d	0.0645164
126	0xbdce4a06	-0.100727126
127	0x3d459012	0.0482331
128	0xbdf5deb9	-0.120053716
129	0x3e01b9be	0.12668511
130	0x3d3af836	0.04564687
131	0xbc5981d4	-0.013275582
132	0x3c61003e	0.013732968
133	0x3da1247f	0.07868289
134	0x3ba0c0c4	0.004905792
135	0xbd60d5e2	-0.054891475
136	0xbd9fae66	-0.07796936
137	0x3e0e5122	0.13898137
138	0xbe02d2e6	-0.12775764
139	0x3c9f82d0	0.019471556
140	0x3de0abce	0.10970269
141	0xbdeea904	-0.11653331
142	0x3d251d24	0.040310994
143	0xbc7e0364	-0.015503738
144	0x3dd94628	0.10609084
145	0xbdcc27c4	-0.09968522
146	0xbd04a2d3	-0.032381844
147	0xbde48dc6	-0.11159854
148	0x3ddca176	0.10772984
149	0xbbc5da96	-0.0060380204
150	0xbd1ded91	-0.03855664
151	0xbbf7ec42	-0.007566006
152	0xbc8c3241	-0.017113807
153	0xbd75cbf8	-0.060008973
154	0x3db3b172	0.087740794
155	0x3cb59f7b	0.022170773
156	0x3d806b5c	0.06270477
157	0xbe0307fa	-0.12796012
158	0x3d971a88	0.07378107
159	0x3d2de71a	0.042456724
160	0x3dffc15a	0.12488051
161	0x3dfe47a6	0.124160096
162	0xbda9eec7	-0.08297496
163	0xbc3c321c	-0.011486556
164	0xbd4796ce	-0.048727803
165	0xbe06e486	-0.13173112
166	0xbdb08a39	-0.08620114
167	0x3d99a6c4	0.07502511
168	0x3e08b940	0.13351917
169	0xbcbf976a	-0.02338763
170	0xbdee195e	-0.11625932
171	0xbdab20ca	-0.083558634
172	0xbde1b963	-0.11021688
173	0xbda786ed	-0.08180032
174	0x3dc20167	0.09472924
175	0xbc82db62	-0.01597375
176	0x3d569d2a	0.052395977
177	0xbd76a312	-0.06021411
178	0xbcc33fee	-0.023834195
179	0xbde45932	-0.11149825
180	0x3dc9e594	0.09858242
181	0x3d5e2282	0.054232128
182	0x3d9a1ab5	0.07524625
183	0x3e072a1c	0.13199657
184	0x3d847954	0.06468454
185	0x3d472ce2	0.048626788
186	0xbbb0aeba	-0.005391923
187	0x3bebba6b	0.0071938536
188	0xbdd7e208	-0.10541159
189	0x3c2eefda	0.010677302
190	0x3d91e362	0.07123448
191	0xbe00f9e0	-0.1259532
192	0xbdb959ec	-0.09050354
193	0x3d931115	0.071809925
194	0xbd8974d8	-0.06711739
195	0x3dd27478	0.10276121
196	0x3c9fd41f	0.019510327
197	0xbcdd3b8a	-0.02700593
198	0xbd78ede9	-0.060773764
199	0xbd56e064	-0.05246009
200	0x3d348558	0.04407248
201	0xbde7c84a	-0.11317499
202	0x3c3f853a	0.0116894785
203	0x3dbf1dec	0.09331879
204	0xbd3f781a	-0.046745397
205	0xbd57b459	-0.052662227
206	0xbdc57407	-0.09641271
207	0xbd4d5df4	-0.05013843
208	0xbdad84c4	-0.08472589
209	0xbc0bd794	-0.008535285
210	0x3d76dcc2	0.060269125
211	0x3df273ec	0.118385166
212	0xbbeb0b72	-0.0071729952
213	0xbdcad17c	-0.09903237
214	0x3c7a04ee	0.015259964
215	0xbd763496	-0.060108744
216	0x3e08a500	0.13344193
217	0x3dff3fa6	0.12463312
218	0x3c9b5ad4	0.018964209
219	0xbd831c11	-0.064018376
220	0x3d8efb60	0.0698154
221	0xbd9eac52	-0.07747711
222	0x3d504ff6	0.050857507
223	0xbd5e02b6	-0.054201804
224	0xbbdb95d0	-0.0067012087
225	0xbcffe9a4	-0.031239338
226	0xbc32f74c	-0.010923218
227	0x3e0cefdf	0.13763379
228	0x3bd049ae	0.0063564396
229	0x3cd533d8	0.026025698
230	0x3dea2539	0.11432881
231	0x3b8c9f28	0.004291434
232	0xbde91d78	-0.11382574
233	0x3e062e06	0.13103494
234	0xbda115d7	-0.07865494
235	0x3c451a0e	0.012030138
236	0x3db210dc	0.08694622
237	0x3d858fe8	0.065215886
238	0xbdaa2755	-0.08308283
239	0xbdb96d38	-0.09054035
240	0x3d0365ee	0.03207963
241	0x3d6c169a	0.057638742
242	0x3d8b42dc	0.06799862
243	0x3cd0c6da	0.025485445
244	0x3dea7e18	0.11449832
245	0x3dfb710c	0.12277421
246	0xbdc6e640	-0.097118855
247	0x3e024248	0.12720597
248	0xbde49d90	-0.11162865
249	0xbd8a8966	-0.06764488
250	0xbdb0c034	-0.0863041
251	0xbdd91b16	-0.10600869
252	0xbc04d88b	-0.0081082685
253	0x3c803db0	0.015654415
254	0xbd3cb8a5	-0.04607453
255	0x3d325862	0.04354132

fc.weight f4 [1, 64]
0	0xbeb0be7b	-0.34520325
1	0xbf0f7128	-0.5603204
2	0xbed661a1	-0.4187136
3	0xbe5c5d80	-0.21520042
4	0xbf18ca46	-0.59683645
5	0xbecb7982	-0.3974114
6	0xbe789299	-0.24274673
7	0x3e87a59e	0.26493543
8	0xbe25de48	-0.16198075
9	0x3e919759	0.28435782
10	0xbf0d8004	-0.5527346
11	0xbefd0c8c	-0.49423635
12	0xbe228256	-0.15870032
13	0xbe359d9e	-0.17735907
14	0xbe4c30a7	-0.19940434
15	0x3f044ad2	0.51676667
16	0x3f20ae0b	0.6276557
17	0xbd83d3de	-0.06436895
18	0x3eb62d2a	0.35581332
19	0x3e997702	0.29973608
20	0x3f135b07	0.5756077
21	0x3ec5aa40	0.38606453
22	0x3e292f3a	0.16521922
23	0xbeafa0ca	-0.3430236
24	0x3eb049e9	0.3443139
25	0x3ee50711	0.44731954
26	0x3f3147e4	0.6925032
27	0x3ee12cfc	0.43979633
28	0xbb5b0b64	-0.0033423537
29	0xbdf49e68	-0.11944276
30	0x3e794202	0.24341586
31	0x3eb679fa	0.35639936
32	0x3de86ac5	0.1134849
33	0xbeb114ae	-0.3458609
34	0xbe7f25bd	-0.2491674
35	0xbf335c89	-0.7006307
36	0x3f034ea1	0.51291853
37	0xbe0681fd	-0.13135524
38	0x3e3a8a17	0.1821674
39	0x3eef5c70	0.46750212
40	0x3eac3fe2	0.3364249
41	0x3e9c542f	0.30532977
42	0x3e2392bb	0.15973942
43	0x3e483a05	0.19553383
44	0xbebdde12	-0.3708349
45	0xbd574e16	-0.052564703
46	0x3f003bf8	0.50091505
47	0x3dbf519a	0.09341736
48	0x3e4b4666	0.19851074
49	0x3e96b74f	0.29436728
50	0x3e9a5bc2	0.3014813
51	0xbeba82be	-0.36427873
52	0xbbff7624	-0.007796066
53	0x3ed21a4a	0.41035682
54	0xbe35096a	-0.17679372
55	0x3d6e6dca	0.05821017
56	0xbe7cf4b4	-0.24702722
57	0xbef603f2	-0.48049885
58	0xbe4363c0	-0.1908102
59	0x3e91a406	0.28445452
60	0x3e862822	0.26202494
61	0xbd351cfa	-0.044217087
62	0xbebc514e	-0.3678078
63	0x3eae084d	0.33990708
