model/fl_checkpoints/global_round_3.pt (torch, 196820 bytes, 7 tensors)

conv1.weight f4 [64, 78, 3]
000000 66 6e 35 3d 0c 71 23 3d 18 5c a3 bc 1e b6 79 3d
       0.044294737 0.03990273 -0.019941375 0.060964696
000010 86 d4 b1 bc b1 59 2b 3c 76 97 00 bd ae 1a d9 3c
       -0.021707784 0.010458396 -0.031394444 0.02650198
000020 29 3a 63 3d 02 84 4f bd a4 06 64 3d 2c bc 52 3b
       0.055475388 -0.050663 0.055670395 0.0032155616
000030 c6 0e 20 3d 28 95 6b 3a 76 ae 0a 3d 14 17 8c bc
       0.03907659 0.00089867646 0.033857785 -0.017100848
000040 56 4a 2c 3d cf e2 51 bb a0 ce 2b bd 86 5c 64 3c
       0.04206308 -0.0032026058 -0.0419451 0.013938075
000050 a6 97 f2 bc 28 48 61 bc 55 85 f9 bc 9a 9b 25 3d
       -0.029613327 -0.013750114 -0.030459085 0.040431596
000060 24 de 6a bd e8 be 04 bd 0f 15 dc bc ac 6a 3e bd
       -0.057340756 -0.032408625 -0.02686551 -0.04648845
000070 82 8a 85 3b 60 d1 90 bd 16 ae 32 3d e8 cb 71 bd
       0.0040753493 -0.07071185 0.043623053 -0.05903235
000080 9a 55 3d 3d 19 a9 30 3b ea 62 a2 bc 60 eb 18 3d
       0.046224214 0.0026956259 -0.019822557 0.037333846
000090 e2 df aa 3b 94 0a 4c 3d fe 34 cf bb 0e 1a f9 bc
       0.005214677 0.049814776 -0.006323456 -0.030407932
0000a0 9c 7e 86 3c b2 f8 c3 bc 5e a8 ea 3c b6 d6 5e 3d
       0.016417794 -0.023922298 0.028644737 0.054403983
0000b0 44 a1 2b 3d 18 77 f8 bc 82 63 c3 3c 18 46 0a 3c
       0.04190184 -0.030330226 0.02385116 0.008439563
0000c0 7d 4f 07 3d 84 ec 3a bd 10 8d 8b bd ac 0f 07 bd
       0.03303479 -0.045635715 -0.06814015 -0.03297393
0000d0 b6 fe 66 bd 1c a3 4c 3d d6 d7 8d 3c 1e 10 f8 3c
       -0.056395255 0.04996024 0.017314833 0.030281123
0000e0 54 bc b1 3c 55 1d c8 bb 0c 7c 53 3d 1d b4 3a bd
       0.021696247 -0.0061070123 0.051631972 -0.045581926
0000f0 90 38 82 3a c8 77 24 bd 1e dc cd 3c 2b 49 05 bd
       0.000993507 -0.040153295 0.025129374 -0.03254048
000100 7e b5 3e 3c 14 7d 70 bc 2e ee 47 3d b7 bf 48 bd
       0.011639951 -0.014678258 0.04881113 -0.04901096
000110 d6 80 58 bd d0 1a 50 bd e0 8b 65 3d 14 b6 08 3c
       -0.052857243 -0.05080682 0.0560416 0.008344192
000120 bb bb 55 3d f9 5f 88 bd 10 c8 93 bd f6 e8 6b bd
       0.052180987 -0.0665893 -0.07215893 -0.057595216
000130 c0 d8 4a bd a4 99 d5 3c 28 07 5a 3c 14 49 5e 3d
       -0.049523115 0.026074238 0.01330737 0.05426891
000140 7f 88 2e bd 5c 09 34 bd 8a a3 fd 3c 94 c8 25 bd
       -0.04261064 -0.04395424 0.03096177 -0.04047449
000150 b4 b5 f7 3c 5a 17 b3 bc 62 62 e9 3c 40 46 46 bd
       0.03023801 -0.02186172 0.028489295 -0.04840684
000160 3b 4d 04 bd 20 7d be 3c 84 ab 83 3c da 62 c9 bc
       -0.032300215 0.023253024 0.016072996 -0.024583269
000170 e2 88 3e 3d e6 74 16 3d c6 54 4c bd 54 2c 4e bd
       0.04651726 0.036732577 -0.049885534 -0.050335243
000180 bd 32 58 3d b6 cd e0 bc 86 59 b9 bc 5e 30 71 bd
       0.052782763 -0.02744184 -0.022625696 -0.058884017
000190 86 ce 24 bd 20 19 46 3c e6 25 4f bc bc 86 5c bd
       -0.04023602 0.012090951 -0.012643313 -0.05383943
0001a0 88 7c 36 3b 06 e2 3f bd 1b 74 83 bd 5c 74 27 bd
       0.0027845223 -0.046846412 -0.0641863 -0.040882453
0001b0 10 58 85 bd 99 16 3e bd da af 89 3d 30 94 19 3c
       -0.06510937 -0.04640827 0.06722994 0.00937371
0001c0 f4 94 81 3c 06 e6 96 bd aa 86 3f bd 30 28 e5 bc
       0.015818097 -0.07368092 -0.046759285 -0.027973264
0001d0 1b 8e ad ba d8 44 61 bd 00 5b 32 bd 22 af 2e bd
       -0.0013241203 -0.054997295 -0.043543816 -0.04264749
0001e0 80 a5 49 bc f8 3a d9 bc 0e e1 a5 bc 08 42 4c bd
       -0.012307525 -0.026517376 -0.020248916 -0.04986766
0001f0 b8 96 4d bd 1e 0d 39 bd f9 ba 8e bc 3e 40 77 bd
       -0.050192565 -0.045178525 -0.01742314 -0.060364
000200 f6 0c 60 3d 56 a8 70 bc 16 f4 45 3d 18 d3 99 3c
       0.05469986 -0.014688572 0.04832848 0.018777415
000210 3c 4d 70 bd 52 a5 3a 3d b1 69 90 bc af 84 0e bd
       -0.058667406 0.045567818 -0.017628523 -0.034794506
000220 12 a2 6c bd 90 2d a4 bd 8a 86 09 3c 23 8d a4 bc
       -0.05777175 -0.08016503 0.008393893 -0.02008683
000230 89 d9 f5 3c 26 2c 5f bd e8 b5 34 3d 48 ec 64 bd
       0.030010955 -0.054485463 0.04411879 -0.055889398
000240 fc 4d 44 bc dc d6 51 3c 72 7a dc 3c e2 42 38 3d
       -0.011981484 0.012807574 0.026913855 0.04498566
000250 92 85 74 3d 0a 48 85 bd ae 38 4c 3c f0 3c 1b bd
       0.059697695 -0.06507881 0.012464685 -0.03789991
000260 00 6a 23 bc 80 68 54 bd a4 ac 6b 3d 56 02 6d bd
       -0.009974003 -0.05185747 0.05753769 -0.057863556
000270 13 d2 0a 3d 4e 93 31 3c 6f fc b0 3c 2d f4 16 bd
       0.03389175 0.010838343 0.021604745 -0.036853958
000280 ff 25 5e 3d a9 36 1c 3c 3c 0d be 3b f8 a0 55 bd
       0.054235455 0.009534516 0.0057999175 -0.052155465
000290 e1 8e ed 3c 6a 4c 38 bc ca de 18 bd f4 5a 82 3d
       0.028998794 -0.011248687 -0.037321843 0.06365004
0002a0 3e 5f 5b 3c 40 76 38 bd f5 ae 0a bd ba fc 0b bc
       0.013389407 -0.045034647 -0.03385826 -0.008544141
0002b0 95 c8 e6 3c 8b fa b0 bc 6f 53 25 bd 35 c0 cf bc
       0.028171817 -0.021603843 -0.04036277 -0.025360206
0002c0 84 ed 68 bd ea a2 b0 3c 4f 63 3c 3d 58 54 8d bd
       -0.056867138 0.021562058 0.045993146 -0.06900853
0002d0 ad 8f 24 3c e0 a9 fd 3c 73 f0 50 3c 30 0f 1f bd
       0.010044021 0.030964792 0.01275264 -0.038832843
0002e0 86 6b 07 3d 1f 90 07 3d fa 66 d8 3c 4c bb b6 bc
       0.033061527 0.03309643 0.02641629 -0.022306107
0002f0 9c cf e9 bc 8b 57 8b 3b 0a 86 9f bc 1d d2 d2 bc
       -0.028541379 0.0042523793 -0.019473094 -0.025734955
000300 08 cf f4 3c 1e 96 5f 3d 1c 58 96 bc 8d 14 d0 bc
       0.029883876 0.054586522 -0.01835256 -0.025400424
000310 5e ca 10 bc 68 27 96 bb bb 9a 80 3c 88 17 5c 3c
       -0.008837311 -0.0045823343 0.015698781 0.013433345
000320 10 b0 82 bd d3 0d 03 bd c2 7e 69 3d 2a 29 a3 3c
       -0.063812375 -0.031995606 0.05700565 0.01991709
000330 19 67 9c bb d0 9e 11 bd 26 0f 2d bd 9b 74 6c bd
       -0.0047730324 -0.035551846 -0.042250775 -0.05772839
000340 a8 f3 03 bd 0c 4e 9f 3c 0c a6 0d 3d 39 c3 f9 3c
       -0.03221479 0.019446395 0.034582183 0.030488597
000350 7e b2 9d bd 4c bf 36 bd 3c de c9 bb cd 08 6f 3d
       -0.0770006 -0.04461603 -0.0061605256 0.058358002
000360 fd 82 23 3b f7 41 c1 bc e2 1d c5 3c 7a c6 14 bd
       0.0024949901 -0.023591025 0.0240621 -0.036322095
000370 b3 60 56 bd 42 d6 44 3d 08 0c 2e bd 77 34 6b bc
       -0.052338313 0.048055895 -0.042491943 -0.01435577
000380 20 52 9f bd 26 90 ee 3c 7e 27 31 3d d6 d3 c8 3c
       -0.07779336 0.02912147 0.043250553 0.024515074
000390 59 1d 43 bd 98 fb 9b bd fa 08 7e bd ee ef 29 3d
       -0.04763541 -0.07616347 -0.06202028 0.04148858
0003a0 c4 61 c3 3c 94 29 68 3d d2 f7 34 3d 48 48 60 3c
       0.02385033 0.056680277 0.044181652 0.013689108
0003b0 14 2f cc 3b c0 4c 6e bd e2 b7 84 bd 32 50 4f bd
       0.006231198 -0.058178663 -0.06480385 -0.05061359
0003c0 f8 7b cb 3c 90 e6 f0 bc 8a 3b df bb 26 64 38 bd
       0.024839386 -0.029406816 -0.0068125175 -0.045017384
0003d0 b9 20 dc bb 76 e4 30 bd ce e3 52 bd 5a a1 cd 3c
       -0.006717768 -0.043186627 -0.051486783 0.025101352
0003e0 94 a1 57 bc 36 42 0f 3d 37 a9 fb bc e2 ea 39 bd
       -0.013161082 0.034975253 -0.030720336 -0.045390017
0003f0 f3 99 87 bc 0c 50 22 bd 0e 70 bc bb ad 68 7f bd
       -0.0165529 -0.03962712 -0.0057506626 -0.062355686

conv1.bias f4 [64]
000000 24 84 08 bc 16 c7 c1 bc 36 98 36 3d 38 1b a9 3d
       -0.008332286 -0.023654502 0.044578753 0.08257145
000010 44 cd c3 3d 96 c9 7c 3d e6 89 51 3d 40 e5 5d b8
       0.09560636 0.061715685 0.0511569 -5.290401e-05
000020 87 75 8b bc 12 40 2b 3d ee 53 56 3d e8 0d 0e 3d
       -0.017023815 0.04180915 0.052326135 0.03468123
000030 37 04 ef bc 77 8a a6 3c 0e 41 17 bd 00 d4 e5 3b
       -0.029176814 0.020329697 -0.036927275 0.0070137978
000040 da 44 53 bc 90 2c fc 3c b3 6e a3 3c 69 10 b0 3d
       -0.012894833 0.030782968 0.019950246 0.0859688
000050 22 11 6e 3b 8d 83 10 3d 44 cb 8d bd 22 ea 2f 3d
       0.003632613 0.035281707 -0.069235355 0.042947896
000060 86 0c b3 3d 14 d6 20 3d f2 b0 9f bc b0 7c 6e 3d
       0.08742623 0.03926666 -0.019493554 0.05822438
000070 a4 c0 6d bd 88 7a 02 3c c5 d8 d0 bc 36 a5 86 3d
       -0.058045045 0.007963784 -0.025493989 0.0657448
000080 80 a4 01 bc 00 10 63 3c 35 d8 5d bd 92 a5 8d bc
       -0.007912755 0.013858795 -0.05416127 -0.017290864
000090 fc 38 82 bd c7 36 25 3d 62 ca 1d 3d 94 f5 90 bc
       -0.06358525 0.040335443 0.038523085 -0.017695226
0000a0 83 c7 25 bc 61 2a 76 3d ec db 22 bd ec a0 2d 3d
       -0.010118368 0.06009901 -0.039760515 0.042389795
0000b0 88 b0 ee bc ef 19 6d 3c 89 37 98 3d e6 20 8d 3c
       -0.029136911 0.014471515 0.074324675 0.017227601
0000c0 a2 40 8b 3d 91 9e 77 bd 0c e3 99 3d ae 2c b5 bd
       0.06799437 -0.060453955 0.07514009 -0.088464126
0000d0 bb d9 6b bd 0a ea aa bd 36 5c 8e bd c9 f6 fc bc
       -0.05758069 -0.08345421 -0.069511816 -0.030879395
0000e0 e9 1b 6e bd d8 33 cf 3c 07 9d 7d bc 3a d4 33 3c
       -0.058132086 0.025293276 -0.015479333 0.010975892
0000f0 be 6c af 3c c4 cc 12 3d 00 3e bd 3c a3 fa d6 bc
       0.021414157 0.03583981 0.023100853 -0.02624256

lstm.weight_ih_l0 f4 [256, 64]
000000 08 29 a9 3d 4c dc 29 3e ac d5 61 3a a8 68 50 3e
       0.08259779 0.16587943 0.00086149084 0.20352423
000010 7a 90 ee 3d 62 8e 5c bd ff df 1f 3d 9a 43 99 bb
       0.116486505 -0.053846724 0.03903198 -0.004677248
000020 26 7a a0 3d a9 80 f0 3c f7 a5 77 3d 38 b3 ac 3d
       0.07835798 0.029358225 0.06046101 0.08432621
000030 0c 8c 82 3e d9 0e 5b 3d 7f 88 24 3e 4a 73 a4 3e
       0.25497472 0.053480957 0.16067694 0.3211921
000040 8f 8f 53 3e ae 31 03 3c 9c c7 af 3d 46 60 44 3e
       0.20660232 0.00800745 0.08582994 0.1917735
000050 1b fd af 3c 7a 49 a4 3d 51 58 95 3d 16 eb a4 3e
       0.021482995 0.08021827 0.07292236 0.32210606
000060 17 94 8e 3e 0d 5c 5c bd 3a 91 3e bd 78 f0 8c 3d
       0.2784736 -0.053798724 -0.046525218 0.06881803
000070 61 da bd bd 5a c0 32 3c 2d a7 e4 3c 7d 18 88 3d
       -0.09270168 0.010910118 0.027911747 0.06645296
000080 d6 b2 a2 3e ca b8 8d 3b 08 60 4f 3e 38 f6 b5 3d
       0.31777066 0.004325007 0.20251477 0.08884853
000090 9c 02 83 3d 8b 7e 83 3e 95 ef e6 3d a8 5e 21 3e
       0.06396982 0.25682482 0.112761654 0.15758765
0000a0 ee bb 1b 3d 5b 2d 5a 3e 93 bd 7c 3e 91 37 25 3e
       0.03802102 0.21306364 0.24681692 0.16134478
0000b0 58 4d c5 bd c0 23 b4 3e 09 fe 10 3e 1c 0a 37 3e
       -0.09633893 0.35183525 0.14159407 0.1787495
0000c0 f5 00 50 3e 44 9c ad bd 40 6a 92 3e ff 15 26 3e
       0.20312865 -0.08477071 0.28596687 0.16219328
0000d0 fa 9e 99 3d 5c 4a e0 3c 11 37 2a 3e c4 8c 17 3d
       0.075010255 0.027379207 0.16622569 0.03699948
0000e0 86 0b 28 3e 14 90 56 3e 49 90 32 3c 58 ab 5e 3e
       0.16410646 0.20953399 0.010898658 0.2174505
0000f0 f4 fc b2 bd 60 45 c9 3d 4d d6 77 3e 0f a6 71 bb
       -0.08739653 0.09827685 0.24202843 -0.003687266
000100 b6 6a 4d bd b1 5d 9b be 9e 7a 29 be 49 63 9d 3e
       -0.050150596 -0.30344918 -0.16550681 0.3073981
000110 d3 c3 5e 3e cf 44 8a 3d 99 e5 96 3d b9 8c 0d 3d
       0.21754389 0.067514054 0.07368011 0.03455803
000120 20 52 b3 3d a4 46 05 3f 78 6e 7d 3d 0e b1 4b 3e
       0.087558985 0.52060914 0.06187293 0.1989176
000130 26 18 85 3b e4 6a 5f 3e ee e6 6b bc 6b 8a 82 3e
       0.0040617166 0.2181812 -0.01439832 0.2549623
000140 17 5c 03 3e 48 87 73 3d 9e 4c 0e 3d 3c fd 5e 3d
       0.12828098 0.059455186 0.034741037 0.054440722
000150 2c 4c 06 be 09 1b 37 3e e3 cb 62 bd cf 41 a2 3e
       -0.13114995 0.17881407 -0.055370223 0.31690833
000160 b3 17 82 be ee 96 2c 3e e2 66 01 3f a1 90 5e 3e
       -0.25408706 0.1685445 0.5054761 0.21734859
000170 8d 2f 5e 3e 1e 3b fe bd 8f 1b be bd 5d 51 ea bc
       0.21697827 -0.124136195 -0.092826 -0.02860325
000180 b5 57 0b be f5 92 54 3e 6b 7c fd 3c d0 11 b6 bd
       -0.13607676 0.20759185 0.030943116 -0.08890116
000190 b3 0c 1b 3e 34 3e 7b 3d f1 45 86 3e 7d d5 87 3d
       0.15141563 0.06133862 0.26225236 0.066325165
0001a0 8d 34 67 3d 71 e1 12 3f ed b8 3b bd 2d e2 24 3e
       0.0564466 0.57375246 -0.045830656 0.16101904
0001b0 f6 d2 80 be 68 95 14 3e d7 9a a3 be 67 d6 4d be
       -0.2516095 0.14510119 -0.3195407 -0.20101319
0001c0 63 30 d8 3d 53 01 3c 3d 7f d9 1c 3e 80 b5 c9 3d
       0.10556104 0.0458997 0.15317343 0.098490715
0001d0 5c d1 f9 3d 09 6f 32 bd e5 36 4a 3d bb 2f 88 3e
       0.12198135 -0.043562923 0.049368758 0.26598915
0001e0 64 de 8c 3d 90 38 f0 bd 76 1a a7 3e d4 a5 82 bd
       0.06878355 -0.117295384 0.32637376 -0.063792855
0001f0 75 8e a7 3d 29 05 3f be 4d a4 d0 3e 86 0d 22 be
       0.081814684 -0.18654312 0.40750352 -0.15825471
000200 a6 4c c0 3d 96 2a b0 3d e8 19 b3 3e 3e 13 fd 3c
       0.093896195 0.086018726 0.34980702 0.030892964
000210 5d 62 23 3e 05 f4 ca 3d e8 0e 73 bc 06 3f 3d be
       0.15955491 0.09909824 -0.014835097 -0.18481073
000220 a0 d4 7f 3d 51 4c cd 3c c8 29 33 3e ad 22 49 3d
       0.062458634 0.025060805 0.17496407 0.049105335
000230 3e 63 e2 3c a8 b8 60 3e cc c9 fa 3d 59 2c e8 bc
       0.027635213 0.21945441 0.12245521 -0.02834146
000240 be 3c 96 3d 5e 74 ef 3d 39 b6 c0 bb 21 8b a9 3d
       0.073358044 0.11692117 -0.0058810976 0.0827849
000250 ad 68 33 bd ea cd f2 bd fc 9a 13 3e 2d c3 ab bd
       -0.043801 -0.11855681 0.1441459 -0.08386836
000260 29 b3 48 3e 1c c5 3e 3e 5a 70 01 bd ae 2e b2 bc
       0.19599594 0.18629879 -0.031601287 -0.021750774
000270 96 60 a1 3d 76 2b 53 3b ce e9 a9 3e 91 9f cd 3e
       0.078797504 0.003222195 0.3318619 0.40160802
000280 e8 21 4c bd 7a 48 2a be d5 0c 31 bd 25 2a 40 bc
       -0.049837023 -0.1662921 -0.04322513 -0.011728798
000290 28 64 3d 3d a8 47 82 bd 0b c5 1d 3d 9a 1c 9a bd
       0.046238095 -0.063613236 0.038517993 -0.075249866
0002a0 e7 2c 68 3e 12 95 9b 3d ac 02 1a 3d bc 9d 63 3e
       0.22673379 0.07596792 0.037600204 0.2222814
0002b0 78 d2 0e be 5f 82 f6 3d 2a 9e 4e 3e 4a b8 65 3e
       -0.13947475 0.12036585 0.20177522 0.22433582
0002c0 1f f6 db 3d dd 1a 03 bc 75 d5 80 bd f0 70 4b bd
       0.10740303 -0.00800201 -0.06290714 -0.049668252
0002d0 91 04 83 bd 2f 36 8d 3e 32 9f 9c 3d b4 ba 40 bd
       -0.06397355 0.275804 0.076475516 -0.047053054
0002e0 4c df 62 3e cd 57 0b bd d7 fd 90 3e e3 53 85 bd
       0.22155493 -0.03401928 0.28318664 -0.06510141
0002f0 d6 bb ef 3c 7c 86 f3 bd 40 b4 84 3e 7b 2b 89 3c
       0.029264372 -0.11890885 0.2591877 0.016744366
000300 0f 59 5f bd 76 89 4b 3e fd 3f f1 3c 93 a0 11 bd
       -0.054528292 0.19876656 0.029449457 -0.035553526
000310 f4 bc f4 3c 41 a8 3e 3c c0 88 b4 bc f3 59 10 3c
       0.029875256 0.011636795 -0.022037864 0.008810508
000320 44 0d d8 3d fe e4 b1 bc b3 b8 42 3e 23 31 51 3d
       0.10549405 -0.021715637 0.1901577 0.05107225
000330 af 2b 9e 3b 45 c8 2c 3d ec bf ea 3d e5 a4 d4 3d
       0.004826985 0.04218318 0.114623874 0.10383014
000340 d5 0b f5 bd 8f a8 b5 bd 4a c9 81 3d c7 30 d6 3d
       -0.119651474 -0.088700406 0.06337221 0.10458522
000350 22 23 36 bc 5f 68 5e be 0c ed 5c bd 09 ea d5 3d
       -0.011116775 -0.21719502 -0.053937003 0.10445029
000360 67 3e 52 3d e5 ba 04 3d e1 4b b7 bc 8a 44 a0 3d
       0.051329043 0.0324048 -0.02237505 0.07825573
000370 61 d6 bc bd 2b db 32 bd 7b af 2f 3c d4 6e 7e 3e
       -0.09220577 -0.043666046 0.01072299 0.24846965
000380 ab 15 a0 3c e6 84 f6 3d 10 73 aa 3d e3 14 b4 bd
       0.019541582 0.12037067 0.08322728 -0.08793046
000390 de 3e 88 3b 27 1b b7 3d 90 99 2c be 42 82 5b bd
       0.004157885 0.08940726 -0.16855454 -0.05359102
0003a0 ee 50 46 3d c2 b3 ea 3d 7e 7f 6b bd d8 4c 10 3e
       0.048417024 0.11460067 -0.057494633 0.14091814
0003b0 e5 2e 07 be 48 b9 ec 3d a6 cb 89 bd de 57 2f 3e
       -0.13201483 0.11558777 -0.06728296 0.17123362
0003c0 6e 38 48 bc d4 97 19 3c 32 11 d8 bc 33 df 88 3d
       -0.012220485 0.009374578 -0.026375387 0.06683197
0003d0 10 cb 9e bd 5b e0 97 bd 2a a5 83 bd e0 7e bc bd
       -0.07753575 -0.07415839 -0.06427987 -0.09203887
0003e0 af 3e 0d be e6 b9 63 3d 9f 5a 29 bd 25 e2 17 3e
       -0.13793443 0.05559721 -0.04134619 0.14832361
0003f0 fd c7 56 3d 87 f7 82 3d ba d5 c8 3d be cd 15 3e
       0.052436817 0.06394868 0.0980639 0.14629266

lstm.weight_hh_l0 f4 [256, 64]
000000 ad 6d ce bd fd 33 b1 bd 68 b5 64 3e 99 71 98 3e
       -0.10079513 -0.08652494 0.22334826 0.29774168
000010 04 68 b5 bd 43 7d 69 be 88 0a 14 3e 51 da 3e be
       -0.0885773 -0.2280169 0.14457142 -0.18637969
000020 48 7f 3b 3e 0d 44 9c be 30 83 b7 3d c2 3a af 3e
       0.18310273 -0.3052067 0.08960569 0.34224516
000030 44 6d a9 3e d4 5d 66 3c f4 e7 01 3f 86 eb 2c be
       0.33091176 0.014060456 0.5074456 -0.1688672
000040 ab f1 4a 3e a9 5a 09 3e fd 52 6c 3e bf d0 62 be
       0.19818752 0.1341349 0.23078533 -0.22149943
000050 f3 bc 13 3e ef 90 8a be ba ea 59 be 73 bd 85 3d
       0.14427547 -0.270637 -0.21280947 0.06530275
000060 81 2f 4f be 5c de 8e be a7 a2 44 be e9 c8 68 be
       -0.20232965 -0.27904022 -0.19202672 -0.22732891
000070 90 fc c5 3e 84 cf 97 be 40 c3 6c be 1f d2 ef bc
       0.38669252 -0.2965051 -0.23121357 -0.029274998
000080 85 76 80 3a 99 3b 73 3e 47 08 a9 3c 6c c8 8b 3d
       0.0009800947 0.23753203 0.02063383 0.06825337
000090 bc f9 30 bd 24 be a7 be 29 66 aa bd ae 15 f5 3d
       -0.043206915 -0.32762253 -0.08320267 0.11967026
0000a0 a7 9d 32 bd ec 3c ce bd 58 b1 8c be 51 34 49 be
       -0.04360738 -0.10070214 -0.27479053 -0.19648863
0000b0 01 c8 16 3e 4d 8e 95 be fc aa 9c 3e f9 eb bd be
       0.14724733 -0.2921013 0.305992 -0.37094095
0000c0 2a ac 2b bd a3 b5 34 be 3a b9 23 3d 72 4d 74 be
       -0.041912235 -0.17647414 0.039971568 -0.23857668
0000d0 4b 23 3a be 91 b3 2a 3d 89 91 7c 3e 7a 0e 99 3e
       -0.18177526 0.041675154 0.24664892 0.29893857
0000e0 42 54 1c 3e 61 91 c2 bd 89 7d 1e 3e 3f 5a 9f be
       0.15266517 -0.09500385 0.15477575 -0.3112354
0000f0 01 47 7b 3d 75 41 99 3c 7a 9f 2f 3e 3b 68 bd 3e
       0.06134701 0.01870797 0.17150679 0.36993584
000100 0a 68 f2 3d a9 3f ba 3d 74 7e 16 3d a7 93 2c 3e
       0.1183625 0.090941735 0.03674169 0.168532
000110 11 23 74 bd e7 85 76 be 66 10 7b 3e f0 97 1a bd
       -0.059603754 -0.24074517 0.24517974 -0.037742555
000120 e7 26 6d 3e 5b 34 09 bd b5 7a 61 bb 63 89 f1 bd
       0.23159371 -0.033497196 -0.0034405414 -0.117937826
000130 23 9c ac 3e b7 34 8f 3d 07 65 9b 3e 93 35 69 be
       0.33712873 0.069924764 0.30350515 -0.22774343
000140 29 35 09 3d d6 1a fa 3d eb 58 01 3e e5 06 02 be
       0.033497963 0.1221215 0.12631576 -0.12697943
000150 8f e8 2e 3e 2b dc 7b be 2e 59 0b be f2 d2 54 bd
       0.17080902 -0.24595706 -0.13608238 -0.051958986
000160 28 54 15 be 9b 39 be bd 9d 3d e4 3b 53 95 9c be
       -0.14582884 -0.09288331 0.0069653527 -0.30582675
000170 48 d9 b0 3e 06 8b 85 be 4d 10 32 be 83 d1 34 bd
       0.34540772 -0.2608263 -0.17389031 -0.04414512
000180 79 73 e6 bc fd fc 60 3e 48 be 12 3e b9 f1 b0 bd
       -0.028131234 0.21971507 0.14330399 -0.08639855
000190 28 b5 5d 3d cd d2 90 be e6 9d 51 be c5 34 29 3e
       0.054127842 -0.28285828 -0.2047039 0.16524036
0001a0 56 43 71 3e af d3 f2 bd d6 44 46 be 3f 06 f6 bd
       0.23560843 -0.11856782 -0.19362196 -0.1201291
0001b0 f1 aa 9d bd 1c c6 97 be 1a dc 18 bd ff e7 37 be
       -0.0769862 -0.29643333 -0.03731928 -0.17959593
0001c0 b3 7e 55 3d ec 8f 5e be c7 fc 38 3d 14 d3 af be
       0.052122783 -0.2173459 0.045162942 -0.34340727
0001d0 01 83 c1 be 64 91 d8 3d 5c e0 23 3e fe 28 2f 3e
       -0.3779526 0.10574606 0.16003555 0.17105481
0001e0 a0 f3 2d 3e 15 01 30 bd af eb 24 3e b4 89 17 be
       0.16987467 -0.042969782 0.16105531 -0.14798623
0001f0 72 3b 3e be 68 5e a2 3e 67 30 0d 3d a2 54 6c be
       -0.18577364 0.3171265 0.03446999 -0.2307916
000200 bc eb 06 bd 0e 7f d5 3d d1 73 03 3e 04 d3 87 3e
       -0.032939658 0.104246244 0.12837149 0.2652818
000210 25 d1 95 bd a5 47 8f be 1a 93 c9 bd 88 b2 76 be
       -0.07315282 -0.27984348 -0.098425105 -0.24091542
000220 14 c7 d7 3d a9 b8 1f 3c 0d 10 2b bd 5e 4a 70 3e
       0.10536018 0.009748616 -0.041763354 0.23465869
000230 3c f5 58 3e 4c e6 2e bc 55 16 3d 3e 81 b9 e5 bc
       0.211873 -0.010675024 0.1846555 -0.028042557
000240 a1 58 ed 3d a4 4a 7e 3e d4 a1 85 3e 60 d0 21 be
       0.1158917 0.2483316 0.26100028 -0.15802145
000250 f4 2b 4c 3d 6b 8c 92 be d0 ac e1 3b 22 d9 ae bd
       0.049846604 -0.28622755 0.006887056 -0.085375085
000260 87 0d cf 3d 53 a5 35 be be ab b6 bb 5e c2 ef bd
       0.10110002 -0.17738847 -0.0055746725 -0.117069945
000270 81 df 2c 3e 76 87 87 be 15 3b ec bd 82 eb c9 3c
       0.16882135 -0.26470536 -0.115347065 0.024648432
000280 88 eb 22 bd 12 82 2b 3e 77 55 0f be 26 25 18 bd
       -0.0397754 0.16748837 -0.13997446 -0.037144803
000290 2f 1b 37 bd 93 27 73 be a0 79 a0 3d 86 39 05 3c
       -0.04470366 -0.23745565 0.07835698 0.00813139
0002a0 91 41 fa 3d 9c a7 47 3e 71 8e 08 be 7d fd 13 be
       0.12219537 0.19497532 -0.13335587 -0.14452167
0002b0 ed 04 b0 3d 50 73 30 be db 56 63 3e b1 86 8b be
       0.085946895 -0.17231488 0.22201101 -0.272512
0002c0 ff 03 a7 3c 6f 40 47 be ce 06 24 3e 38 e4 82 be
       0.020387648 -0.19458173 0.16018221 -0.25564742
0002d0 32 ab 2a be 68 34 c5 3c ac 36 d0 3d 9c d6 0e 3e
       -0.16666868 0.02407284 0.10166678 0.13949054
0002e0 84 26 6d 3b 76 da 39 be 61 dd 0e 3e d3 2f 30 be
       0.0036186287 -0.18149742 0.13951637 -0.17205743
0002f0 fc ce 07 bc 44 2f 0e bd 0e 6e 7c bd eb 35 6e 3e
       -0.008289095 -0.034713045 -0.061628394 0.23262756
000300 5d d6 af bd 16 3b 28 3e f9 49 8e bd bd aa 5e bc
       -0.085858084 0.1642879 -0.06947703 -0.013590512
000310 36 a6 ea bd 89 09 ac bd 5e c4 93 bc f6 5b 31 be
       -0.114574835 -0.08400256 -0.018037971 -0.17320237
000320 c2 22 17 3e 83 02 51 be 36 48 47 be 4e e8 d1 3c
       0.14759353 -0.20411114 -0.1946114 0.025623467
000330 f4 d8 9d 3d d1 b3 92 3d a4 71 67 3e 4e 6e 2a be
       0.07707396 0.071632035 0.22601944 -0.1664364
000340 bc d1 21 3e 85 21 2a 3e 1d d3 d0 3c 31 e5 85 bd
       0.15802664 0.16614349 0.025491292 -0.065378554
000350 d3 39 2f 3e cc 6c ae 3d b6 81 0f bd 37 20 e1 bc
       0.17111902 0.08516845 -0.03503581 -0.027481182
000360 68 a2 66 3d e2 b7 3c be 21 17 5d bd 71 a1 8e bd
       0.056307226 -0.1842952 -0.053977136 -0.06964386
000370 1d 11 5a 3e a0 fb 31 bd 0c 7c ca bc 5c 39 1c 3e
       0.2129559 -0.04345286 -0.024717353 0.15256256
000380 2a 81 2e 3e 4f 3b 08 bd 62 22 14 3d 01 e5 17 be
       0.1704146 -0.033259686 0.036165603 -0.14833452
000390 bf a7 41 bd a8 97 22 be 9e 9e 3e 3c 84 08 03 3e
       -0.047279116 -0.15878165 0.011634497 0.12796217
0003a0 74 12 56 bd 51 b1 89 3d f4 a3 9b bb 01 cc 3e bd
       -0.052263692 0.067232735 -0.0047497693 -0.046581272
0003b0 7e 7c 24 be dd 7f a1 3b b5 b2 4f 3e 99 96 a5 bd
       -0.16063115 0.0049285726 0.20283015 -0.08085365
0003c0 b7 48 e5 3d 42 28 ba 3c 41 85 c8 3d 82 f6 b6 bd
       0.1119551 0.022724275 0.09791041 -0.089337364
0003d0 d5 7e da bd ce 81 eb bd d8 bb 0b 3e 04 cb 55 3e
       -0.106687225 -0.11499368 0.13645875 0.20878226
0003e0 c5 b4 a3 3d b4 6b 8f 3d 45 0b dd 3d 24 67 0e 3d
       0.079934634 0.070029646 0.10793165 0.03476633
0003f0 00 8d 9e bd ed 38 a2 bd 48 63 11 3d 7c a7 87 bc
       -0.07741737 -0.07921014 0.035495073 -0.016559355

lstm.bias_ih_l0 f4 [256]
000000 4e 9c a9 3c b4 98 05 3e 2d b4 fd 3d 89 ba 10 3c
       0.020704415 0.13046533 0.123878814 0.008833536
000010 30 e2 2c 3d 76 1d fd 3d dc cb c8 3d 86 cf e6 3d
       0.042207897 0.12359135 0.09804508 0.11270051
000020 28 85 6d bd 17 0b 82 bd 44 b6 a9 3d 2b 8a fc 3d
       -0.057988316 -0.063497715 0.082867175 0.12331041
000030 18 30 5a 3d 72 ae 4a bc b0 77 d8 3d 6a 76 4b bd
       0.053268522 -0.012370693 0.105697036 -0.049673475
000040 bc 46 07 bd 94 7e 9b bd 74 63 34 3d ae 63 86 bd
       -0.033026442 -0.07592502 0.04404016 -0.06561981
000050 a6 f4 32 3c b5 ed a0 bd b8 9a 7b bd e4 5e 40 bd
       0.010922587 -0.07857839 -0.06142685 -0.046965495
000060 2d 50 12 3c 90 cc af 3b e7 75 26 3d 20 0a 62 bd
       0.008930248 0.005364962 0.040639784 -0.055185437
000070 ae 5d a5 bd 82 18 60 3d 56 0b 43 bd cf 48 99 bb
       -0.080745086 0.054710872 -0.047618233 -0.004677869
000080 c0 46 50 3d 5f 0f 43 3d 14 48 1b bc e8 9a c8 3b
       0.050848722 0.04762208 -0.009477634 0.006121982
000090 16 1b ea bc a8 7d bd bd 62 ac c4 3d c3 13 00 bb
       -0.028577369 -0.09252483 0.09603192 -0.001954303
0000a0 a0 ca 6b bd 0e 4c 48 bd 3a 16 07 3e 4d 40 f7 3d
       -0.057566285 -0.048900656 0.13192073 0.12072811
0000b0 72 11 fd 3d 06 19 d9 bd 02 d4 33 bd c8 35 c2 bd
       0.12356843 -0.10600476 -0.04390336 -0.09482914
0000c0 13 11 19 3d f4 ea 2c 3d e4 84 60 bd 06 f7 a5 3b
       0.0373698 0.042216256 -0.054814234 0.005064848
0000d0 e6 8a 8b bd ba d4 15 3e b0 59 b2 3d f3 dc b0 bc
       -0.06813602 0.1463193 0.08708513 -0.021589732
0000e0 57 10 67 3d f4 56 cc 3d 7e 12 f6 bd 50 af 05 3e
       0.056412067 0.099775225 -0.12015246 0.13055158
0000f0 f4 73 d0 bd 84 3d 12 bd ab cf ec 3d 2b 28 53 3c
       -0.10178366 -0.035703197 0.11563047 0.012887995
000100 92 1f 7f 3d 38 b2 30 bd 2c 91 cc 3d 10 eb 1d bd
       0.062285967 -0.043138713 0.09988627 -0.03855425
000110 98 26 05 bd c7 72 12 3d 6e 04 34 bb 6e a3 ef bc
       -0.03250751 0.03575399 -0.002746846 -0.029252734
000120 2e 56 72 bd 35 09 de 3d c7 13 3f bc 6a 4f eb bb
       -0.05916422 0.108416 -0.01166243 -0.0071810978
000130 8a c0 bc bd 22 a1 02 3e e4 27 ca bd cc f9 e5 3d
       -0.092164114 0.1275678 -0.0987089 0.112292856
000140 0c 15 9c bb b0 af 83 bd 26 60 08 bd e2 8b 8a bd
       -0.004763251 -0.06429994 -0.03329482 -0.06764962
000150 05 0b 3e bc 5e 46 df 3d 0c d7 d7 3c 68 a5 09 3e
       -0.011599307 0.10902093 0.02634766 0.13442004
000160 c6 f2 1b 3d 09 41 16 3e cb bf e9 bc c4 40 ac bd
       0.038073324 0.14673246 -0.028533837 -0.084107906
000170 46 72 9f 3d 2c ed b1 bc 3f a4 b7 3d 9e 15 e9 3d
       0.07785468 -0.021719538 0.08966874 0.11381076
000180 8a 49 8d 3d 1e 9e 66 bc 2f a9 f3 3d 5c 48 16 3d
       0.06898792 -0.014075784 0.118975036 0.0366901
000190 52 54 c9 3d 9b 86 5a bd aa f3 97 3c f0 2b e8 3c
       0.09830536 -0.053351026 0.018548805 0.028341264
0001a0 58 b9 2b bd 7c 0b 45 bd 44 b2 36 3d 16 1b 06 3e
       -0.041924804 -0.048106655 0.0446036 0.1309627
0001b0 98 eb c8 3d 30 30 06 3e 9c 01 d6 3d 46 49 07 bd
       0.09810561 0.1310432 0.10449526 -0.033028863
0001c0 5f 51 c4 3d 1e 51 b4 bd ee 6b 9d bc dd 37 54 bd
       0.09585833 -0.088045344 -0.019216504 -0.051811088
0001d0 1a a4 77 bd 36 7a c2 bd 9c e5 b9 3d fb 0c 4d bd
       -0.060459234 -0.09495966 0.09076998 -0.050061207
0001e0 da 85 c3 bd b2 e9 cc bc 7c cb d5 3d f0 38 56 bc
       -0.095470145 -0.025013778 0.10439202 -0.013075098
0001f0 1d 07 1c 3d 0e d4 45 3d 90 81 d9 3c c4 41 75 bd
       0.03809272 0.048297934 0.026551038 -0.059877172
000200 ce 34 de 3d 3e c9 4c 3d a0 07 02 3e a6 0b 50 3d
       0.108499154 0.049996607 0.12698221 0.05079236
000210 22 ba cf bc 72 d4 95 3d d0 a1 c9 3c 4c e4 64 bc
       -0.02535731 0.07315911 0.024613291 -0.013970446
000220 82 d5 10 3e 39 78 69 3c 20 f0 63 bd 65 9c 86 3d
       0.14143947 0.014249855 -0.055648923 0.06572799
000230 6e 7f 35 3a 71 65 cc 3d 00 de 17 3e 58 90 f8 3c
       0.00069235906 0.09980286 0.1483078 0.030342266
000240 3c 37 04 3e 92 9e a4 3c 68 bd 05 3e 96 84 8d 3d
       0.12911695 0.020095143 0.13060534 0.069100544
000250 62 89 03 3e a4 4a 11 3d d5 1a 9e bd 70 24 c5 3c
       0.12845376 0.035471573 -0.077199616 0.024065226
000260 52 d8 31 3d 68 e0 96 3d ba 09 da bd 66 a2 fd bd
       0.04341919 0.07367021 -0.106463864 -0.12384491
000270 26 0d 9b 3d ca 12 bc bc fb a9 51 3d 38 8f d9 bc
       0.07570867 -0.022958178 0.051187497 -0.02655755
000280 ea 9d a0 3d ea fc 1d bd ec bb d1 bd 27 bd 60 bd
       0.0784262 -0.038571276 -0.102409214 -0.05486789
000290 ce ce a1 bc 4b 22 12 be 34 af d4 bd f4 7e 95 3d
       -0.019751932 -0.14270894 -0.1038498 0.07299605
0002a0 de 9d 50 bd ba 4a ce bd 8e 63 cb bd 61 87 6e 3c
       -0.050931804 -0.10072847 -0.09931098 0.014558644
0002b0 46 d0 08 be de 6d f6 bd f6 59 96 3d 7c 4a 01 be
       -0.133607 -0.12032674 0.073413774 -0.1262607
0002c0 b8 65 bd bd 3d 77 11 bd 3a 52 f6 bc dc d5 69 bd
       -0.09247917 -0.035514105 -0.030068506 -0.057088718
0002d0 98 e7 5a 3b dc 69 1b bd b4 8f 85 3d 0d e7 44 bd
       0.00334022 -0.037942752 0.0652155 -0.04807191
0002e0 dc af d2 3c 74 6a 84 bc df 2a 6a 3d 10 03 65 bd
       0.025718622 -0.016164042 0.05716979 -0.055911124
0002f0 3b 5f 9b bd 90 98 3d bd 10 cf 9f 3d 78 04 3d 3d
       -0.07586523 -0.046288073 0.07803166 0.04614684
000300 4a f8 24 bc 84 de 9d 3d 53 89 66 3d 38 e2 5f 3c
       -0.010068962 0.07708457 0.056283306 0.013664775
000310 f4 40 3b bd 3e de 9a bc 12 37 7f bd b4 44 c9 bd
       -0.04571624 -0.018904801 -0.06230838 -0.09827557
000320 3d e4 0d 3e 26 19 8a bd 30 a5 98 bc db ef fe 3d
       0.13856597 -0.06743078 -0.018633455 0.124480926
000330 7c fe a1 bd 9d 3b f2 bc 7a 84 da bc f8 c9 78 bd
       -0.07909867 -0.029569441 -0.026674498 -0.060739487
000340 a4 bb b4 bb 7d 76 a4 39 80 3b aa 3d 1c d4 0e 3d
       -0.0055155326 0.00031368798 0.0831213 0.034870252
000350 3d eb 9c 3d 40 0f e4 3c 66 49 bf 3c c8 7e 0b 3e
       0.07662056 0.027839303 0.023350429 0.13622582
000360 90 6a de bb 4a 36 bb bd 7e 5c db bd a1 b3 a2 bd
       -0.0067876056 -0.09141214 -0.10711001 -0.07944418
000370 cc 34 46 3c fc 00 47 3d 44 f1 84 3d fb a8 90 b9
       0.012097549 0.048584923 0.0649133 -0.0002759172
000380 da 53 02 3e 60 71 9a bd 16 11 9c 3d 4f 8f d3 3d
       0.127273 -0.07541156 0.076204464 0.10330068
000390 92 8c c3 bc ea af d6 3c ac b0 77 bd cd f6 74 bd
       -0.02387074 0.02620693 -0.06047122 -0.05980568
0003a0 52 13 a4 3d fa 03 9a 3c f6 61 37 3c fa ab 04 3d
       0.080114976 0.018800724 0.011192789 0.032390572
0003b0 de 8a a3 3d fc 8e 87 3c b8 00 11 bd 7a e2 bc bd
       0.07985471 0.016547672 -0.035401076 -0.092228845
0003c0 40 12 09 3e 2c bf 6c bc 74 7d be 3d a8 e9 dd 3d
       0.13385868 -0.014449876 0.09301272 0.10835582
0003d0 ee c7 38 bd 78 a1 17 bd 62 3b 1b 3e de f4 a8 3d
       -0.045112543 -0.037019223 0.15159371 0.0824983
0003e0 4b 64 7b bd 9a 4f 01 bc b8 da 42 bb 5e 30 d7 bd
       -0.061374944 -0.007892514 -0.0029732417 -0.10507272
0003f0 0e 0f a6 bd ea 17 4b bb 44 c6 15 bc 42 34 0f 3d
       -0.0810834 -0.0030989596 -0.0091415085 0.034961946

lstm.bias_hh_l0 f4 [256]
000000 be 97 c4 bd 40 da 02 bd 97 30 a7 3d d2 76 4a bb
       -0.09599255 -0.03194642 0.08163565 -0.0030893576
000010 88 7a 8c 3d 8f 9f 18 3e 4e cd 40 3d 82 cc b9 3c
       0.068593085 0.14904617 0.047070794 0.022680525
000020 2a 37 ca 3d 18 31 a9 3d 34 43 d1 3d 2c 34 1a 3d
       0.09873803 0.08261317 0.10217896 0.03764741
000030 8e 38 75 bd 60 fc 96 3d aa 4a 5f bd f5 44 b8 bd
       -0.059868388 0.073723555 -0.054514565 -0.089975275
000040 70 8b 32 bd 2e 62 45 3d 31 8c 65 bd 8c 10 94 3d
       -0.04359001 0.048189335 -0.0560419 0.072297186
000050 4e 0d f5 3b b2 aa 69 bd 29 5f a7 bd f4 aa 1c bd
       0.0074783927 -0.057047553 -0.08172447 -0.03824897
000060 64 3f b4 bd 26 0d 35 3d 5e 4e 9d 3d 55 c0 f9 3d
       -0.08801153 0.044201992 0.07680963 0.121948875
000070 6e ee d2 3d d8 eb da bd f9 37 9d bd 52 b6 ff 3d
       0.10299383 -0.10689515 -0.076766916 0.12485947
000080 7b 32 9b bc 69 c4 d8 bc 28 7a ae bc b6 8e b3 3d
       -0.01894497 -0.026460843 -0.021298483 0.08767454
000090 40 f8 a8 bd 14 12 35 bd d6 b7 3d 3d b2 0e 4c bc
       -0.08250475 -0.044206694 0.046317898 -0.0124546755
0000a0 f3 e8 55 bd e0 75 6e 3c f6 c2 ef 3d 37 f7 e6 3d
       -0.05222411 0.014554471 0.11707108 0.11277621
0000b0 5f f0 b4 bc ba dc b4 3d bc e9 00 3d b2 e9 19 3d
       -0.022087274 0.08831163 0.031472906 0.037576385
0000c0 e9 6f 14 3e da 72 a8 bd 4d ab 3e bd 3f 39 39 bc
       0.14495815 -0.08225031 -0.046550084 -0.011305152
0000d0 8a 10 d8 bb c9 50 b5 bb f8 50 af 3d ae 16 02 bd
       -0.0065937685 -0.005533312 0.085603654 -0.03175991
0000e0 01 8e a1 bd ca 30 ab bd 1c 24 f3 3d c4 b4 cc bd
       -0.07888413 -0.08358915 0.11872122 -0.09995416
0000f0 17 8f 59 3d 8a 86 80 3c 88 10 95 bb 18 46 0e 3e
       0.053114977 0.015689153 -0.00454909 0.13893926
000100 f8 83 8b 3a 92 5b 08 3e 18 e1 c8 bd fd f9 cb 3d
       0.0010644188 0.13316181 -0.09808558 0.09959791
000110 1e cd 19 3e f6 5a 90 3d 88 82 e8 3d 15 f0 55 bd
       0.15019652 0.070485994 0.11353022 -0.052230913
000120 29 44 03 bd ab c8 f9 3d e4 c0 b3 3d fd 43 ad bd
       -0.032047424 0.121964775 0.08777025 -0.08460233
000130 0a a7 46 3d 6e b2 6c 3d 58 35 b2 3d f2 1f 4d bc
       0.048499145 0.05778735 0.08701581 -0.012519823
000140 a8 69 00 bd 94 9e ee 3d 6a 63 f7 3d 4c 09 f0 bc
       -0.03135076 0.1165134 0.120795086 -0.029301308
000150 b2 36 f4 bc 08 14 df 3d 3c d0 b0 bd 38 54 b0 3d
       -0.029811237 0.108924925 -0.086334676 0.086098135
000160 5e 74 f9 3d 3b be 8a 3c f8 67 33 bd ee c9 96 3d
       0.121803984 0.016936412 -0.043800324 0.07362734
000170 f7 13 60 3d ba 9d be 3d 2c 6b 05 3e 1c 9c df 3d
       0.05470654 0.09307428 0.13029164 0.109184474
000180 d2 0c bb 3d 40 6b 9a bd 21 d4 b9 3d 26 aa 0a 3e
       0.09133305 -0.075399876 0.090736635 0.13541469
000190 28 20 c4 bd 7e 99 18 3e fc 25 a6 bd 51 6c fa bc
       -0.09576446 0.14902303 -0.08112714 -0.030569227
0001a0 b6 79 ad 3d 72 77 e1 3d 2a 1c 5c bd 20 8b b1 3d
       0.0847048 0.110091105 -0.053737797 0.08669114
0001b0 7a 0c d0 bd 30 7d bf bb 1e 63 31 bd 91 ca 9e 3d
       -0.1015863 -0.005843781 -0.043307416 0.0775348
0001c0 65 3e 06 3e 62 d0 8e bd 72 65 55 3d fa b5 c3 bd
       0.13109739 -0.069733396 0.0520987 -0.09556194
0001d0 a2 14 7a bd b0 4b 98 bd 9e f5 a8 3d 0a e3 a9 bd
       -0.061054833 -0.07436311 0.08249973 -0.082952574
0001e0 c2 8d e8 3d 1e 41 96 bd 08 e3 b9 3c ee 38 e1 bd
       0.11355163 -0.07336639 0.022691265 -0.109971866
0001f0 1a 58 e4 3d 68 e2 70 3d 8e c3 bc bd f4 7c 63 3d
       0.111496165 0.058809668 -0.092169866 0.055539086
000200 10 74 04 be 31 3f fe 3d 6c 67 63 3d 38 fc af bc
       -0.129349 0.124143966 0.055518553 -0.021482572
000210 a4 0a c1 3c 52 27 b2 3d 9c ac 15 bb 03 27 40 bd
       0.023564644 0.08698906 -0.002283848 -0.046912204
000220 dc 4a 8e bd 70 7c 18 3e bc 35 09 be 1a e1 e8 3c
       -0.06947872 0.14891219 -0.13399404 0.02842765
000230 68 e3 eb 3d e1 69 01 be 8a c3 46 3d b6 e8 c8 bc
       0.11517984 -0.12638046 0.048526324 -0.024525028
000240 a6 69 ed 3d a1 62 da bd 34 5d fd bc 66 29 f8 bd
       0.115924165 -0.10663343 -0.030928232 -0.12117271
000250 ca 8f f1 3d 58 5b 32 bc 8e b6 01 bd d8 ff 8a bc
       0.11795004 -0.010886036 -0.03166824 -0.016967699
000260 40 a0 fa bb 3c 9b 71 bd 7c 66 a3 3d 22 67 5f 3c
       -0.007648498 -0.058985934 0.07978532 0.013635429
000270 f2 04 61 3d bc 5d 06 be 65 57 7f 3d 01 d2 49 3d
       0.054936357 -0.13121694 0.062339205 0.04927254
000280 84 6e 09 3e e4 77 08 3e 88 3e be bd c4 6b e1 ba
       0.13421065 0.13326985 -0.09289271 -0.0017198254
000290 00 cf 4f bd 10 71 10 be 24 32 9f bd 84 b3 9a 3d
       -0.05073452 -0.1410563 -0.077732354 0.07553771
0002a0 4b cd 10 3e 44 4a 8a bc a4 9a ec bd a3 e9 bd bd
       0.14140813 -0.016881116 -0.11552933 -0.09273078
0002b0 64 94 f4 bd cc c6 a0 bd e2 94 d0 3d 96 4b 25 bc
       -0.11942366 -0.078504175 0.10184647 -0.010088822
0002c0 5a b6 6d 3d 49 17 6c bd 78 89 83 bc 7e e1 d0 bd
       0.058035232 -0.057639394 -0.016056761 -0.10199259
0002d0 0a 4f d7 3d bc 80 54 3d de 0e 89 3d e7 63 04 3e
       0.105131224 0.051880583 0.06692289 0.12928735
0002e0 0f 51 68 3d 4e 1a 6f 3d 52 03 65 bc 3a bf 82 3c
       0.05671793 0.058374695 -0.013977842 0.015960325
0002f0 f3 67 cc bd 8e be bc b9 46 da a2 3d fb bd f1 bd
       -0.09980764 -0.0003600013 0.079517886 -0.11803814
000300 10 23 b6 bd e4 8d a7 3d 88 0b 62 bd a0 21 e9 3d
       -0.088934064 0.0818136 -0.05518678 0.113833666
000310 53 4f b7 3c a0 17 84 bc 72 95 51 bd a6 2f 28 bd
       0.022376692 -0.016124547 -0.051167913 -0.041061066
000320 2a ed 5f 3d 3c 05 cf bd 30 45 af 3c d2 96 c3 3d
       0.054669537 -0.1010842 0.021395296 0.09550251
000330 56 90 14 bd d2 94 2c bd d4 98 b2 bd 20 a0 2a bd
       -0.036270462 -0.042134114 -0.08720556 -0.041656613
000340 aa 74 93 bd 14 90 1f 3b 5b b9 94 3d 2d 13 05 3e
       -0.07199986 0.0024347352 0.07261916 0.12995596
000350 16 46 ed 3a 10 7e b2 bd 5d 79 da 3c a4 9b 49 bd
       0.0018102552 -0.08715451 0.026669199 -0.049220696
000360 46 02 14 3e 32 1d 0a 3e 8d 41 ea 3c 08 ed 55 bd
       0.14453992 0.134877 0.02859571 -0.052228004
000370 c1 d3 a5 3d c6 6d 9a bd e5 ad 70 3d d0 50 34 bd
       0.080970295 -0.07540469 0.05875959 -0.04402238
000380 e1 aa 5c 3b b7 ec a0 bc 07 f5 21 39 c2 85 0f 3e
       0.0033671188 -0.019644124 0.00015445436 0.14015868
000390 4e 6a 89 3c 4e 17 15 3d 8b 53 00 3e 18 34 72 3c
       0.016774323 0.03639918 0.12531869 0.014782928
0003a0 f8 71 d0 bd 81 45 11 3e 08 99 8a bd f4 cb c3 3c
       -0.10177988 0.1418667 -0.0676747 0.023900963
0003b0 a8 46 bf 3d 37 de 9c 3d 70 5e 94 bd c0 94 a2 bd
       0.093396485 0.076595716 -0.07244575 -0.07938528
0003c0 ba d5 2f 3d 5e b2 8a 3d a6 d5 a2 3d 3b 30 17 3d
       0.042928435 0.06772302 0.079509065 0.03691123
0003d0 46 e4 ff 3d 88 0e 09 3e c0 99 b0 bd 4c 01 0e 3e
       0.124947116 0.1338445 -0.086230755 0.13867682
0003e0 37 f3 cc bd 14 ff 79 bd 07 4a 99 bd 26 eb c0 bd
       -0.10007327 -0.061034277 -0.07484823 -0.09419851
0003f0 bd 21 1a 3b d0 45 f6 3b 6a fb 14 bd c0 d6 5f 3d
       0.0023518645 0.0075156465 -0.03637258 0.05464816

fc.weight f4 [1, 64]
000000 86 8b b5 be 33 8f 12 bf 59 2d dd be d8 3b 69 be
       -0.3545801 -0.57249755 -0.4319866 -0.22776735
000010 9a f4 1b bf 89 c5 d1 be ec 85 82 be 72 06 8e 3e
       -0.6092011 -0.4097102 -0.254928 0.27739292
000020 47 6f 32 be e2 0a 98 3e de b4 10 bf e5 a6 01 bf
       -0.17425261 0.29695803 -0.5652598 -0.50645286
000030 2c 36 2f be e5 1d 42 be 61 b9 58 be 13 6a 07 3f
       -0.17110509 -0.18956716 -0.21164466 0.5289623
000040 73 f7 23 3f b9 32 9d bd 1c 62 bc 3e de d5 9f 3e
       0.6404945 -0.0767569 0.36793602 0.31217855
000050 89 4b 16 3f 0d 2c cc 3e 5f db 35 3e 81 eb b5 be
       0.5870901 0.39877358 0.17759465 -0.35531238
000060 91 a1 b6 3e d6 52 eb 3e bf 6f 34 3f 8a c3 e7 3e
       0.3567014 0.45961636 0.7048301 0.45266372
000070 52 1f 80 bc d2 02 06 be b1 ae 71 3e 74 b8 bc 3e
       -0.015639935 -0.13087013 0.23601796 0.36859477
000080 7b 5e ce 3d 66 8b b7 be 91 e9 85 be 4e 86 36 bf
       0.100766145 -0.3584854 -0.2615476 -0.7129868
000090 f1 6f 06 3f 74 1d f2 bd d3 19 47 3e 99 c2 f5 3e
       0.5251456 -0.11822024 0.19443445 0.4800003
0000a0 e2 c8 b2 3e 7f 8f a2 3e fa 59 30 3e 0f 13 55 3e
       0.34918886 0.31750104 0.17221823 0.20808052
0000b0 41 b6 b7 be 6d b4 24 bd da 5c 03 3f f0 f6 d8 3d
       -0.35881236 -0.04021113 0.51313555 0.105939746
0000c0 7d 2c 59 3e 3a 01 9d 3e 52 e6 a0 3e 0e 84 c1 be
       0.21208377 0.30664998 0.3142572 -0.37796062
0000d0 9c 8e 92 3b 06 74 d8 3e 5a a4 41 be d4 f3 3b 3d
       0.004472567 0.4227602 -0.18910351 0.04588683
0000e0 13 e0 84 be 69 49 fc be f9 07 50 be b4 05 98 3e
       -0.25952205 -0.49274758 -0.20315541 0.2969185
0000f0 2a 65 8c 3e c4 3e 62 bd 14 90 c2 be d8 4b b4 3e
       0.27420932 -0.05523564 -0.38000548 0.35214114
